decor.pt (torch, 289175 bytes, 5 tensors)

deconv.0.weight f4 [64, 64, 3, 3]
-0.029396256 0.011592523 0.00078107166 -0.037422363 -0.031574246 0.002344586 -0.0011005278 0.015758611
0.03465256 0.040889926 -0.008188498 -0.009609076 0.0074541373 -0.007988389 -0.027909458 0.028724417
-0.03631369 0.005903706 -0.01523837 -0.017915254 -0.0070600808 -0.023931898 -0.0197898 -0.021793932
0.0019649018 0.019241199 -0.02232278 -0.01603283 -0.024705278 0.018729087 -0.03463633 0.024306228
0.0068566403 -0.057447758 0.026831087 -0.03703156 0.044054575 -0.029707216 -0.022331703 0.03607867
0.008229475 -0.02418089 0.010000249 -0.026497673 0.012380615 0.032898106 -0.017288899 -0.019353798
0.025683342 -0.0036798166 0.0037042934 -0.0417629 0.015232536 -0.0022378482 -0.0148312105 0.041104015
0.01571984 -0.04124783 0.028716212 -0.027381593 0.008269374 0.0061791516 0.011177857 -0.012608034
0.015422351 0.03808804 -0.013803388 -0.032349102 0.034164853 0.004034962 0.038527753 -0.010735701
-0.010531389 0.01496163 -0.035204213 -0.009588205 -0.0008751883 0.021910354 0.003755496 -0.007826498
-0.02431207 -0.04215524 0.021031559 0.021753531 0.00458206 -0.042287726 -0.034204673 -0.00973184
-0.037881844 -0.018724019 -0.029549561 0.027564347 0.026764842 -0.006860067 0.024029568 -0.007995363
0.007218735 -0.012717516 0.026505899 -0.004511855 0.032911807 0.046273906 -0.038368247 0.03674245
0.038343307 -0.04341891 0.01430512 -0.03467772 -0.023600638 0.028875392 0.013175243 -0.015124456
-0.00066438224 -0.0060207047 -0.02762559 0.0076340167 0.04153729 0.026416522 -0.029428434 -0.022120552
-0.022066176 -0.03288178 0.008433669 0.021125719 -0.011762029 -0.023633704 -0.033799406 0.03646031
0.04004943 -0.03137883 -0.026133612 -0.016138744 0.015509551 0.0006340196 0.027341139 -0.00027556223
-0.031879272 0.0055754585 -0.013789917 0.010020986 -0.00054103637 -0.0011534542 -0.031671464 -0.00984402
-0.026338452 -0.014897208 0.017148001 0.021335755 0.0020999461 -0.021543747 0.015013819 -0.014004524
0.021988487 -0.01658618 -0.040413514 -0.028723348 0.018355798 0.029677968 -0.012455682 -0.027370756
-0.027662009 0.028595224 0.0006747938 -0.034041516 0.016582668 -0.016258618 0.028755656 -0.0058252513
-0.019183313 0.0006664644 -0.025451835 -0.025565123 0.00018603375 0.028765853 0.0029330195 0.03644548
-0.0017687811 0.023864185 0.014115925 -0.009183685 0.03277475 -0.017647054 -0.0379133 0.00591388
-0.030707693 -0.012415995 0.01268774 -0.013320277 0.026623484 -0.022496376 -0.013833961 0.002379413
0.031505108 0.010179064 0.052306324 0.019942598 -0.03153159 0.04320751 -0.041918177 -0.005093419
0.03925822 0.02890602 -0.03426025 -0.026869962 0.025951661 -0.026426712 -0.005807638 0.013034133
0.037930544 0.03685282 0.0015967054 0.009257044 -0.017662045 -0.016431129 -0.01070565 -0.02666763
0.006175709 0.007899717 0.022551915 0.035989277 0.011889051 0.0023663745 0.041359343 -0.038896453
-0.00179702 -0.021043193 0.029544717 -0.028646216 -0.030121576 0.027069058 0.03279535 0.034608718
0.035014424 -0.03688674 -0.00878641 0.02005718 0.008594106 -0.03168823 0.0057209977 0.017124142
-0.017201083 -0.0135959415 -0.007239367 -0.005879214 -0.011123389 0.029764112 -0.007143374 -0.025092145
0.008960753 -0.022684753 0.041392848 -0.029288966 -0.0014138328 0.02703859 -0.012234647 0.023730371
00000000: 6bd0 f0bc 91ee 3d3c d5c0 4c3a 3148 19bd
00000010: ff53 01bd a0a7 193b 963f 90ba 3418 813c
00000020: d8ef 0d3d 327c 273d 0d29 06bc 636f 1dbc
00000030: d641 f43b bbe1 02bc 60a2 e4bc 784f eb3c
00000040: aabd 14bd e073 c13b 5baa 79bc 03c3 92bc
00000050: 4058 e7bb d40c c4bc 381e a2bc 3089 b2bc
00000060: 95c5 003b b89f 9d3c 43de b6bc 4857 83bc
00000070: b962 cabc be6d 993c d3de 0dbd db1d c73c
00000080: abad e03b 574e 6bbd decc db3c 68ae 17bd
00000090: 9272 343d 8c5c f3bc faf0 b6bc 3ac7 133d
000000a0: ebd4 063c 0017 c6bc 16d8 233c a611 d9bc
000000b0: 10d8 4a3c 2ac0 063d 73a1 8dbc db8b 9ebc
000000c0: df65 d23c 1429 71bb bbc3 723b 930f 2bbd
000000d0: e391 793c dda8 12bb 9bfe 72bc af5c 283d
000000e0: e5c6 803c 7cf3 28bd 433e eb3c 5d4f e0bc
000000f0: 457c 073c 7b7a ca3b 5523 373c ed91 4ebc
00000100: 07ae 7c3c 3402 1c3d 9b27 62bc 7e80 04bd
00000110: 72f0 0b3d b737 843b 47cf 1d3d cbe4 2fbc
00000120: d98b 2cbc a021 753c 4b32 10bd d917 1dbc
00000130: e56c 65ba 587d b33c c51e 763b b63a 00bc
00000140: 1b2a c7bc f9aa 2cbd 604a ac3c 7634 b23c
00000150: 1b25 963b e535 2dbd 331a 0cbd 4c72 1fbc
00000160: fe29 1bbd 1d63 99bc ec11 f2bc a0ce e13c
00000170: f141 db3c 6aca e0bb a8d9 c43c fcfe 02bc
00000180: 238b ec3b 215d 50bc e622 d93c 2fd8 93bb
00000190: 88ce 063d b589 3d3d 0628 1dbd 407f 163d
000001a0: df0d 1d3d 07d8 31bd 0660 6a3c 3a0a 0ebd
000001b0: 2056 c1bc 168c ec3c f9dc 573c 91cc 77bc
000001c0: f029 2eba 5549 c5bb 104f e2bc c626 fa3b
000001d0: 0123 2a3d 7667 d83c e613 f1bc 2936 b5bc
000001e0: 20c4 b4bc 0caf 06bd 5f2d 0a3c d80f ad3c
000001f0: 86b5 40bc 789b c1bc 3f71 0abd 6857 153d
00000200: df0a 243d 1787 00bd 2816 d6bc 6635 84bc
00000210: c61b 7e3c 5634 263a 86fa df3c 5679 90b9
00000220: d793 02bd 56b2 b63b 1bef 61bc 102f 243c
00000230: 56d4 0dba 802f 97ba f0b9 01bd d048 21bc
00000240: bdc3 d7bc 6b13 74bc f779 8c3c 52c8 ae3c
00000250: 409f 093b 837c b0bc 85fc 753c 3b73 65bc
00000260: 3321 b43c bedf 87bc a488 25bd 3a4d ebbc
00000270: e65e 963c 361f f33c eb12 4cbc a338 e0bc
00000280: 709b e2bc 8840 ea3c a5e4 303a 1e6f 0bbd
00000290: 60d8 873c cb30 85bc fb90 eb3c c0e1 bebb
000002a0: 5326 9dbc abb5 2e3a 5e80 d0bc f36d d1bc
000002b0: 0e12 4339 5ea6 eb3c e737 403b db47 153d
000002c0: 72d6 e7ba d37e c33c 7b46 673c 2b77 16bc
000002d0: d13e 063d 8e90 90bc fa4a 1bbd 39c9 c13b
000002e0: b38e fbbc 756c 4bbc 3de0 4f3c 4b3d 5abc
000002f0: 7e19 da3c 524a b8bc d7a7 62bc edef 1b3b
00000300: 800b 013d 17c6 263c 283f 563d a95e a33c
00000310: 4527 01bd 5cfa 303d 65b2 2bbd b2e6 a6bb
00000320: 3acd 203d 51cc ec3c 7a54 0cbd 651e dcbc
00000330: 9498 d43c d57c d8bc 004e bebb 1e8d 553c
00000340: 0f5d 1b3d fcf2 163d 8b48 d13a dbaa 173c
00000350: feaf 90bc 939a 86bc c066 2fbc 1376 dabc
00000360: 9a5d ca3b d16d 013c cbbe b83c 7e69 133d
00000370: 4bca 423c 2d15 1b3b 6a68 293d e351 1fbd
00000380: fc89 ebba c662 acbc c307 f23c 78ab eabc
00000390: 86c1 f6bc eebf dd3c 6b54 063d dfc1 0d3d
000003a0: 496b 0f3d 8d16 17bd e0f4 0fbc f54e a43c
000003b0: 4bce 0c3c 84cb 01bd 3577 bb3b ee47 8c3c
000003c0: 49e9 8cbc 83c1 5ebc 3638 edbb 6ca6 c0bb
000003d0: e03e 36bc ded3 f33c f712 eabb 0b8e cdbc
000003e0: 1fd0 123c 60d5 b9bc 8c8b 293d 6aef efbc
000003f0: 5b50 b9ba 0880 dd3c d473 48bc 3266 c23c

deconv.0.bias f4 [64]
-0.03668824 0.28614074 0.01462249 -0.055950683 0.08084394 0.115237646 0.25262028 -0.018873917
0.4442809 0.17971596 0.24713561 0.104751594 0.001389265 -0.08019337 0.33919436 -0.06537415
0.011879183 -0.10717437 0.58473366 0.34349626 0.0876334 0.27419063 0.2529538 0.0034735675
0.4253061 0.013847555 0.10109573 0.052775845 0.31490684 -0.63977385 0.21642894 0.4336133
-0.0024874518 0.34068862 0.21268114 0.13022834 0.07337536 0.27458298 0.20216283 0.1901989
-0.029282307 0.28190958 0.10156382 0.06740179 0.07660695 -0.026998097 0.112796195 0.26110223
0.26257733 0.1549441 0.32565203 0.44884768 -0.025412789 0.2901916 0.30778918 0.31469128
0.18006597 0.080781095 0.19741039 -0.10427134 0.362753 0.009276109 0.07902765 0.21129644
00000000: 6846 16bd 0a81 923e 2b93 6f3c 8b2c 65bd
00000010: 8291 a53d b701 ec3d 7257 813e 799d 9abc
00000020: c978 e33e 7607 383e 1e11 7d3e 0188 d63d
00000030: ff17 b63a 6c3c a4bd e2aa ad3e e2e2 85bd
00000040: e8a0 423c 3c7e dbbd 1bb1 153f bede af3e
00000050: 2479 b33d b762 8c3e 2983 813e cba4 633b
00000060: b9c1 d93e dbe0 623c 470b cf3d 7c2b 583d
00000070: 783b a13e 38c8 23bf 8c9f 5d3e 9002 de3e
00000080: 8404 23bb bd6e ae3e 16c9 593e 945a 053e
00000090: d245 963d 2496 8c3e c603 4f3e 80c3 423e
000000a0: 73e1 efbc 7456 903e b100 d03d f309 8a3d
000000b0: 1be4 9c3d 1d2b ddbc b101 e73d 31af 853e
000000c0: 8970 863e aba9 1e3e ddbb a63e 5dcf e53e
000000d0: 7b2e d0bc fe93 943e 8b96 9d3e 371f a13e
000000e0: 3763 383e 8f70 a53d f325 4a3e 368c d5bd
000000f0: c3ba b93e d2fa 173c 40d9 a13d 185e 583e

deconv.2.weight f4 [64, 32, 4, 4]
-0.06059198 -0.3614248 0.38017792 0.038779333 0.0059725833 -0.00016003757 -0.005049212 -0.0015836045
-0.032561556 -0.025262652 -0.456759 -0.0036495053 0.012182715 0.012988071 0.0070016384 -0.004187252
-0.0016748086 -0.13162501 0.10394655 0.031871695 -0.05725968 0.010742526 0.010760231 0.02138284
-0.007937547 -0.0054217083 -0.86534226 -0.026229875 -0.014411816 0.016712911 0.03362797 -0.03511073
-0.050718833 -0.2705033 -0.11814853 -0.13959794 -0.1253595 -0.22156696 0.13812275 -1.084612
0.0019863711 -0.0052925055 0.00081603264 -0.020293102 -0.039224617 -0.06096988 -0.19830716 -0.22928303
-0.10963671 0.028468728 -1.1532364 -0.3463103 -0.5700676 -0.81700957 0.13048892 0.28350538
0.2705988 -0.10152013 0.04270732 0.09374185 0.10628259 -0.4481335 -0.41056973 -0.113386855
-0.006280889 0.2064247 -0.1506263 0.21251287 0.020021813 0.115999736 0.037645373 0.011883277
-0.017690659 0.039114248 -0.05074689 -0.0021247463 0.0060847118 -0.0016176831 0.0025595184 -0.0055861827
-0.7150991 0.04796642 -0.35439953 -0.4485427 -0.26981694 0.09745388 -0.7521964 -0.5252726
-0.04756484 -0.023775674 -0.23950283 -0.043434866 -0.09689198 -0.041990794 0.009880143 -0.0769755
0.2104579 0.0875689 -0.03767933 0.04128449 0.010859168 0.045441106 0.005459683 0.034318246
-0.0760308 -0.008667112 0.11074861 -0.017117277 -0.04939129 0.018457523 -0.05861883 -0.0440071
-0.0061406214 0.012371232 -0.023934942 0.4804809 0.00456501 0.050305843 -0.020755902 -0.00032285164
-0.051593795 -0.3246009 0.0121935485 -0.24450387 -0.03663379 -0.056517586 -0.0076414743 -0.041502237
-0.021682782 -0.24383888 0.15415101 0.13604796 0.019596506 -0.24982013 -0.15112284 -0.062496446
0.0047820746 0.033450846 -0.0006961291 0.0046504424 0.021618523 -0.04583145 0.0055992985 -0.00044348344
-0.101041056 -0.012172733 -0.32018235 -0.044640675 -0.035688445 -0.050974485 -0.038277645 -0.36487153
-0.047820717 -0.03930793 -0.119837075 -0.0468852 -0.04560848 -0.03834003 -0.07664804 -0.026016384
0.03125677 0.41843453 0.5484442 0.2584262 0.0089701 -0.07586645 -0.041743144 -0.022259368
0.07058724 0.07447767 -0.72380567 0.016915813 0.01225479 -0.0067579667 0.01582003 0.0052681863
0.070564955 0.100305535 -0.23111595 0.02518492 -1.1626135 -0.045294855 -0.1405685 0.15288351
0.29840964 -0.07782108 -1.2982132 -0.11377199 -0.062321633 -0.05575106 -0.38650477 -0.017059347
-0.30830184 -0.20536491 0.3919436 -0.30382526 -0.2832239 -0.3560485 -0.1690333 -0.15790534
-0.016491696 -0.07159198 -0.22402461 0.10085745 -0.001685181 -0.0069434596 -0.010988038 -0.026768131
0.037699983 0.3741635 -0.26962435 -0.06154484 -0.5450275 -0.07005595 -0.6907325 -0.31459373
-0.09702437 -0.36431172 -0.48054022 0.061618745 -0.0046217865 -0.010675143 0.0094286585 -0.038283553
-0.016989604 0.08004607 0.27620238 -0.0033301516 0.027041113 0.064396515 -0.12541768 -0.024923868
-0.009102834 0.028728275 -0.030725537 0.0053539965 0.009233334 -0.028386042 -0.021121172 -0.0029179326
0.002947216 0.012737842 -0.05299418 -0.025653832 -0.06726071 -0.13664094 -0.040758755 -0.3608416
-0.02191182 -0.0034009467 -0.046873283 -0.051500943 -0.078730546 -0.27949926 -0.08049051 -0.823983
00000000: 4c2f 78bd ac0c b9be aea6 c23e 14d7 1e3d
00000010: a9b5 c33b c2cf 27b9 dc73 a5bb f390 cfba
00000020: 445f 05bd 9ff3 cebc 51dc e9be 8a2c 6fbb
00000030: 039a 473c ebcb 543c 006e e53b 3735 89bb
00000040: 4085 dbba b5c8 06be eee1 d43d e58b 023d
00000050: 2089 6abd 6b01 303c ae4b 303c 112b af3c
00000060: 7c0c 02bc 96a8 b1bb 1287 5dbf 09e0 d6bc
00000070: 8a1f 6cbc 84e9 883c 7bbd 093d 45d0 0fbd
00000080: 8dbe 4fbd 697f 8abe dbf7 f1bd c3f2 0ebe
00000090: 3e5e 00be 73e2 62be 0d70 0d3e 91d4 8abf
000000a0: c72d 023b c16c adbb 06eb 553a b83d a6bc
000000b0: fea9 20bd 8ebb 79bd 0811 4bbe 2cc9 6abe
000000c0: 3689 e0bd 4037 e93c 409d 93bf 954f b1be
000000d0: f3ef 11bf 8a27 51bf e39e 053e 9e27 913e
000000e0: ed8b 8a3e c9e9 cfbd dfed 2e3d bafb bf3d
000000f0: b0aa d93d c171 e5be 3236 d2be 5e37 e8bd
00000100: eacf cdbb ff60 533e c83d 1abe f99c 593e
00000110: c904 a43c 4591 ed3d 0932 1a3d 14b2 423c
00000120: 00ec 90bc 4336 203d f9db 4fbd 543f 0bbb
00000130: 4362 c73b 7008 d4ba 98bd 273b 4c0c b7bb
00000140: bc10 37bf 7078 443d db73 b5be 64a7 e5be
00000150: 7225 8abe e695 c73d f18f 40bf 4478 06bf
00000160: 5ad3 42bd 34c5 c2bc 3b40 75be c2e8 31bd
00000170: 4d6f c6bd 8afe 2bbd 53e0 213c 55a5 9dbd
00000180: 4782 573e 5357 b33d a455 1abd ed19 293d
00000190: a7ea 313c 7420 3a3d 24e7 b23b 4a91 0c3d
000001a0: 09b6 9bbd 8100 0ebc 2bd0 e23d 8839 8cbc
000001b0: 854e 4abd 3b34 973c 4c1a 70bd ca40 34bd
000001c0: 4437 c9bb b5b0 4a3c 3613 c4bc 9801 f63e
000001d0: 1496 953b 800d 4e3d 4808 aabc 6a44 a9b9
000001e0: 0454 53bd 1732 a6be 73c7 473c 395f 7abe
000001f0: 500d 16bd fc7e 67bd 5565 fabb 40fe 29bd
00000200: 17a0 b1bc e6b0 79be c3d9 1d3e 2850 0b3e
00000210: da88 a03c d9d0 7fbe f2bf 1abe 46fc 7fbd
00000220: f3b2 9c3b c103 093d 6f7c 36ba bd62 983b
00000230: 5419 b13c c2b9 3bbd 527a b73b 5783 e8b9
00000240: 9dee cebd 2570 47bc f1ee a3be 24d9 36bd
00000250: 0c2e 12bd 9fca 50bd 05c9 1cbd 71d0 babe
00000260: a8df 43bd 5a01 21bd 246d f5bd b20a 40bd
00000270: f5cf 3abd 6f0a 1dbd a6f9 9cbd 5020 d5bc
00000280: 1907 003d 0d3d d63e d766 0c3f 7050 843e
00000290: 54f7 123c df5f 9bbd dcfa 2abd 4759 b6bc
000002a0: 0b90 903d c087 983d 544b 39bf 0893 8a3c
000002b0: 51c8 483c ef71 ddbb 0299 813c c0a0 ac3b
000002c0: 5c84 903d fd6c cd3d a9a9 6cbe 9b50 ce3c
000002d0: 85d0 94bf 1987 39bd 30f1 0fbe 7f8d 1c3e
000002e0: 26c9 983e a960 9fbd da2b a6bf 4a01 e9bd
000002f0: f844 7fbd 395b 64bd f4e3 c5be 0bc0 8bbc
00000300: bdd9 9dbe 2e4b 52be d5ac c83e fc8e 9bbe
00000310: b902 91be fd4b b6be 1117 2dbe f0b1 21be
00000320: 9819 87bc d19e 92bd b566 65be 5a8e ce3d
00000330: 4be1 dcba f685 e3bb 2c07 34bc d748 dbbc
00000340: 4c6b 1a3d 5c92 bf3e 340c 8abe 7116 7cbd
00000350: ec86 0bbf 7e79 8fbd d8d3 30bf 6e12 a1be
00000360: b7b4 c6bd 1187 babe 5e09 f6be f063 7c3d
00000370: 5b72 97bb cce6 2ebc a97a 1a3c 37cf 1cbd
00000380: c82d 8bbc 32ef a33d 666a 8d3e ac3e 5abb
00000390: 5385 dd3c 52e2 833d 7e6d 00be 242d ccbc
000003a0: 0e24 15bc 8f57 eb3c 1fb4 fbbc 9470 af3b
000003b0: 6947 173c d889 e8bc 4f06 adbc c93a 3fbb
000003c0: 1426 413b 62b2 503c 6d10 59bd fc27 d2bc
000003d0: fcbf 89bd 9aeb 0bbe a7f2 26bd 3bc0 b8be
000003e0: 6b80 b3bc 6be2 5ebb 33fe 3fbd a7f2 52bd
000003f0: 7b3d a1bd 871a 8fbe 35d8 a4bd 8df0 52bf

deconv.2.bias f4 [32]
0.059061136 0.087771624 0.3392398 0.21619356 0.40199834 0.10609567 0.13808008 0.034188177
0.25996584 0.44917598 0.20483983 0.0754038 0.50318223 0.3894976 0.28440523 -0.0003678717
0.18333155 0.034079533 0.13382736 0.3458619 0.32639456 0.04734405 0.20200367 0.13028169
0.3407201 0.29430646 0.50737935 0.20754378 0.3192289 0.06795034 0.41961807 0.22541413
00000000: 17ea 713d 9cc1 b33d d7b0 ad3e d861 5d3e
00000010: bad2 cd3e b048 d93d dd64 0d3e e708 0c3d
00000020: 3e1a 853e 65fa e53e 88c1 513e 4f6d 9a3d
00000030: 8dd0 003f 3b6c c73e 909d 913e e7de c0b9
00000040: 44bb 3b3e fb96 0b3d 0a0a 093e d014 b13e
00000050: 301d a73e d6eb 413d 0dda 4e3e 9068 053e
00000060: dd72 ae3e 56af 963e 9de3 013f 5b86 543e
00000070: f871 a33e 8c29 8b3d 2ed8 d63e f6d2 663e

deconv.4.weight f4 [32, 1, 8, 8]
0.019468533 0.020069288 -0.052099273 0.161096 0.19838823 0.06160922 0.09326205 -0.0070517473
0.1064331 0.08099875 0.019021334 0.2695266 0.25060505 0.08401242 0.15276638 -0.015390941
0.05845897 -0.020332176 -0.05891132 -0.12969062 -0.076278396 -0.10741603 -0.121333115 -0.12733896
0.04421214 0.0511705 -0.046413574 -0.102437064 0.40305254 0.05728705 -0.12194914 -0.07034923
-0.01708004 0.08548605 0.06971114 0.10898246 0.8514719 0.28257245 0.13643767 0.09578696
-0.019063415 0.0178884 0.015250596 -0.06848671 0.1323269 0.016626714 0.06730286 0.051326696
-0.026235389 -0.015989162 -0.017993296 -0.030844778 -0.042738732 0.016132573 0.086058736 0.02967307
-0.027446324 -0.018071836 -0.024117544 0.012615924 0.075806685 0.041599926 0.016181722 -0.018361466
-0.070228085 0.15076707 0.15379627 -0.21053442 -0.12793317 -0.019040516 -0.0640221 0.0011342417
-0.24826247 0.28695026 0.19534327 -0.46477878 -0.15248914 0.024065673 -0.051500686 -0.006930716
-0.34207323 0.5707028 0.7950666 -0.36531302 -0.23168434 -0.050673537 -0.06488654 -0.03442086
-0.27111015 -0.00041414384 0.52571934 -0.4136378 -0.25723946 -0.051469784 -0.040740993 -0.026649347
0.28248894 0.46282807 0.26693258 -0.3699929 -0.22929598 0.07006521 0.10663186 0.09629373
-0.06562132 0.6885306 0.2740441 -0.24732259 -0.08214987 -0.015643647 0.02905012 0.026889969
-0.22296569 0.5166778 0.1930094 -0.30581936 -0.06301831 -0.02477774 -0.0047128242 -0.013039962
-0.27062714 0.022513732 -0.2507455 -0.39116797 -0.213661 -0.0392909 -0.02941989 0.009388119
-0.025433393 -0.029539745 -0.019645965 -0.029350976 -0.023540927 -0.015851347 -0.026659038 -0.033526868
-0.04170813 -0.048234273 -0.03740453 -0.049488075 -0.03700488 -0.02666127 -0.044677503 -0.040642656
-0.040700287 -0.03770635 -0.032901075 -0.020210093 -0.022596128 -0.020701276 -0.02849278 -0.029092615
-0.044870995 -0.036784925 -0.031532403 -0.01392487 0.0048902826 0.006645705 -0.009521154 -0.025377672
0.012976433 0.010292993 0.024497785 0.00932806 -0.0912417 -0.22562242 -0.09740762 0.009745958
0.0017796349 -0.018250145 -0.020711359 -0.013361746 -0.137227 0.19491406 -0.18970962 -0.31996226
-0.0064440975 -0.0028988249 0.019977953 0.031285666 0.31645638 1.7409046 0.42128575 -0.47017077
0.003646628 -0.008896581 0.004461228 0.016827421 0.063923925 0.61917144 -0.026888419 -0.27296266
-0.026490808 -0.035543777 -0.0315541 -0.037420116 -0.032664876 0.04607763 0.043902654 -0.05476532
0.022804916 0.0041437936 -0.0015355143 0.025805013 -0.08674864 0.049242567 0.030434655 -0.033967253
-0.0005393302 0.011925353 0.00479656 -0.014201034 0.030602647 0.12977369 -0.15191598 0.029120734
-0.0062725726 -0.018895535 0.0023824023 0.0076950826 0.0027420344 -0.2671216 -0.17471874 0.29536015
0.015823953 -0.00437219 0.017128527 -0.0007316314 0.006469041 -0.11491049 0.6236336 1.2409323
0.0021146138 -0.0059564495 -0.014703197 -0.007111458 -0.031580623 -0.11337212 0.06564806 0.4081167
-0.010637621 -0.011181161 -0.010773341 -0.017755145 -0.025062924 -0.013879671 -0.1565146 -0.13309744
-0.019433359 -0.023348257 -0.0001392046 0.011457008 0.0045162225 -0.022003409 0.03973822 -0.012322403
00000000: 797c 9f3c 5968 a43c 0c66 55bd 5af6 243e
00000010: 4926 4b3e f359 7c3d 2c00 bf3d 5812 e7bb
00000020: 99f9 d93d ace2 a53d a1d2 9b3c 64ff 893e
00000030: 4e4f 803e b40e ac3d ca6e 1c3e 492a 7cbc
00000040: ac72 6f3d aa8f a6bc ff4c 71bd 9ecd 04be
00000050: d937 9cbd effc dbbd 7f7d f8bd 2565 02be
00000060: ca17 353d 2998 513d 291c 3ebd 86ca d1bd
00000070: e75c ce3e d3a5 6a3d 79c0 f9bd 4213 90bd
00000080: 71eb 8bbc 4f13 af3d b7c4 8e3d 3232 df3d
00000090: 10fa 593f 56ad 903e 51b6 0b3e f42b c43d
000000a0: e12a 9cbc b28a 923c a3dd 793c c342 8cbd
000000b0: b480 073e bf34 883c 15d6 893d f13b 523d
000000c0: 99eb d6bc b4fb 82bc ad66 93bc 30ae fcbc
000000d0: cf0e 2fbd 7528 843c 903f b03d f014 f33c
000000e0: 1dd7 e0bc 630b 94bc 2892 c5bc 05b3 4e3c
000000f0: 8940 9b3d af64 2a3d 888f 843c c96a 96bc
00000100: bed3 8fbd af62 1a3e c57c 1d3e 5696 57be
00000110: ea00 03be dbfa 9bbc 051e 83bd d6aa 943a
00000120: 8438 7ebe 25eb 923e 1108 483e 7cf7 edbe
00000130: 1d26 1cbe 6025 c53c 62f2 52bd 0f1b e3bb
00000140: 3924 afbe 9419 123f 7c89 4b3f 4f0a bbbe
00000150: a93e 6dbe 0e8f 4fbd 3ce3 84bd e3fc 0cbd
00000160: f3ce 8abe 7221 d9b9 8b95 063f 55c8 d3be
00000170: e4b4 83be fbd1 52bd 07e0 26bd bb4f dabc
00000180: 64a2 903e cdf7 ec3e 63ab 883e b66f bdbe
00000190: 91cc 6abe 597e 8f3d ce61 da3d a635 c53d
000001a0: 7864 86bd 8b43 303f 824f 8c3e 2242 7dbe
000001b0: 313e a8bd 1b27 80bc 84fa ed3c 5a48 dc3c
000001c0: 1e51 64be ff44 043f 42a4 453e 5b94 9cbe
000001d0: be0f 81bd b0fa cabc 096e 9abb 91a5 55bc
000001e0: a48f 8abe b86e b83c b761 80be 2b47 c8be
000001f0: f3c9 5abe 7fef 20bd fb01 f1bc a0d0 193c
00000200: b159 d0bc 56fd f1bc 93f0 a0bc 7571 f0bc
00000210: e7d8 c0bc afda 81bc 0e64 dabc 7853 09bd
00000220: 25d6 2abd 4d91 45bd 7e35 19bd 02b4 4abd
00000230: 6e92 17bd bc68 dabc c2ff 36bd ea78 26bd
00000240: 58b5 26bd f971 1abd 47c3 06bd a38f a5bc
00000250: 841b b9bc b995 a9bc b169 e9bc a353 eebc
00000260: a6ca 37bd caab 16bd 1f28 01bd 2325 64bc
00000270: aa3e a03b 37c4 d93b 9dfe 1bbc d6e4 cfbc
00000280: 1b9b 543c f1a3 283c 94af c83c b8d4 183c
00000290: eedc babd 9009 67be a57d c7bd 83ad 1f3c
000002a0: a342 e93a 5481 95bc deaa a9bc 3aeb 5abc
000002b0: 3c85 0cbe 8d97 473e 3d43 42be 18d2 a3be
000002c0: 0229 d3bb 36fa 3dbb cea8 a33c 6625 003d
000002d0: 9206 a23e f6d5 de3f c4b2 d73e 39ba f0be
000002e0: 44fc 6e3b f7c2 11bc 7e2f 923b a9d9 893c
000002f0: 8cea 823d 0582 1e3f 1a45 dcbc c3c1 8bbe
00000300: 4003 d9bc 5a96 11bd df3e 01bd d645 19bd
00000310: 9bcb 05bd e6bb 3c3d 45d3 333d 9a51 60bd
00000320: 60d1 ba3c a9c8 873b 4f43 c9ba 0965 d33c
00000330: 45a9 b1bd 93b2 493d 1952 f93c 3f21 0bbd
00000340: d661 0dba 8e62 433c 762c 9d3b 74ab 68bc
00000350: 67b2 fa3c 65e3 043e dd8f 1bbe 9b8e ee3c
00000360: 278a cdbb cfca 9abc 1422 1c3b 0827 fc3b
00000370: b4b3 333b 2ac4 88be 78e9 32be 7239 973e
00000380: 3ca1 813c 9744 8fbb 2051 8c3c f4ca 3fba
00000390: 40fa d33b 3156 ebbd 74a6 1f3f dfd6 9e3f
000003a0: 5595 0a3b 522e c3bb aee5 70bc 3c07 e9bb
000003b0: af5a 01bd a42f e8bd 7d72 863d acf4 d03e
000003c0: 6b49 2ebc 3031 37bc ab82 30bc 3d73 91bc
000003d0: c350 cdbc 8f67 63bc 5d45 20be b24a 08be
000003e0: b532 9fbc d844 bfbc 73f7 11b9 2db6 3b3c
000003f0: d2fc 933b 7e40 b4bc 8bc4 223d e7e3 49bc
