experiments/latent_only/decoder_features_dim_288.pt (torch, 86735 bytes, 7 tensors)

deconv.0.weight f4 [32, 32, 2, 2]
-0.044508684 0.022548098 0.06986158 -0.062437 -0.44304493 -0.13275473 0.7298031 -0.24770595
-0.0038425163 -0.22559848 -0.08975845 -0.29377303 -0.1236242 -0.09926376 -0.5436846 -0.23239107
0.088450536 -0.022051584 -0.26052248 0.054740172 -0.20706984 -0.29896247 -0.23476525 -0.0036301173
0.04866305 0.033986054 -0.037834045 0.02653809 -0.10378713 -0.05678195 -0.0239844 -0.025948908
-0.24191847 -0.21989675 -0.6975638 -0.5410241 -0.14884026 0.13745815 -0.29938108 -0.24053279
-0.03584126 -0.022732513 -0.4367472 0.17192134 -0.42159602 0.29730403 -0.6535628 -0.023063844
-0.1852009 -0.11795628 -0.3380911 0.70393664 -0.2671901 -0.034492902 -0.2092348 -0.06890739
-0.07052237 -0.34926158 0.10663484 -0.007990008 -0.03469767 -0.13012256 0.15674886 -0.34216022
-0.2827775 -0.30822703 0.23786667 -0.052177597 0.021277426 -0.4093721 -0.46601552 0.42866102
-0.17279969 -0.06405944 0.27386013 0.066092566 -0.35248208 -0.3409922 0.10369708 -0.04375267
-0.44370162 -0.005995243 0.058495596 -0.28716332 -0.26332283 0.05490298 -1.0817018 -0.19388507
0.01634461 -0.09549822 -0.5406743 -0.27038103 -0.4936534 0.076736756 0.35437736 0.21792172
-0.4382085 0.23475759 -0.31946304 -1.0656332 -0.3254027 -0.003789285 -0.15339962 -0.088990465
-0.5013546 0.10492003 -0.6355121 -0.20207699 -0.23894008 -0.031901017 -0.14871714 -0.029177899
0.1107129 -0.3819475 -0.66139805 0.3518088 -0.01051709 -0.31873095 -0.060425512 0.26864737
0.17079696 -0.1468677 0.22098736 -0.022612028 -2.046328 0.12971517 0.3878276 -0.3385242
0.0272621 0.03227718 -0.048606273 0.016338257 -0.30551994 -0.07129234 0.086425856 -0.10042902
0.09211722 -0.20774207 0.0400956 -0.048539147 -0.04568996 0.10713365 -0.30696642 -0.06259416
0.14810182 0.0264616 -0.27841157 -0.20445691 -0.2562676 -0.20831536 -0.01545573 -0.5441809
-0.00034190546 -0.005117416 0.021628853 -0.06733132 0.018319914 -0.033613514 -0.07989736 0.014329012
-0.117249124 -0.22374101 -1.5607346 0.21971452 0.16505334 0.24135664 0.16098696 -0.038407635
-0.04749937 0.06522645 -0.93082505 -0.0525649 -0.11670099 0.18832748 -0.02394887 0.15604928
-0.13226286 0.021549102 0.12718084 0.025832415 -0.113957375 -0.047628067 -0.40010414 -0.15550551
-0.39126262 0.104556635 -0.40405822 -0.60501635 -0.5996808 -0.16738303 0.14444526 -0.096354134
-0.41751856 -0.44776434 -0.07168463 -0.21349435 -0.29771683 -0.38622004 -0.41610983 -0.19218028
0.022543522 -0.09796298 -0.73109245 0.39307868 -0.2291968 -0.17273298 0.11388034 -0.32404813
-0.39128828 0.1268451 -0.24643402 -0.17816333 -0.014400794 0.02388282 0.036490362 -0.12660316
0.017858053 -0.17466545 -0.08104456 -0.13493893 -0.23123176 0.034551293 -0.47447473 -0.6632478
-0.15045117 -0.007951027 -0.0019240066 -0.12085485 -0.3540812 -1.584893 -0.22405376 0.024528516
-0.3167706 -0.6297673 0.045208927 -0.064773604 -0.10413967 -0.4647514 -0.12721154 0.027213603
0.292953 -0.2523654 -0.23408742 -0.19280049 0.07528162 -0.28847787 -1.083235 -0.24504733
0.046977036 0.29170558 0.0006114835 0.011917907 -0.3416965 -0.024321755 -0.23672092 -0.38991922
00000000: bd4e 36bd cab6 b83c 9713 8f3d f1bd 7fbd
00000010: c9d6 e2be dbf0 07be 60d4 3a3f a1a6 7dbe
00000020: bad2 7bbb 4a03 67be 47d3 b7bd 6b69 96be
00000030: af2e fdbd cc4a cbbd ea2e 0bbf edf7 6dbe
00000040: 8e25 b53d 86a5 b4bc 3463 85be 3b37 603d
00000050: 1e0a 54be 9c11 99be 4d66 70be 43e7 6dbb
00000060: e852 473d f634 0b3d dff7 1abd 6966 d93c
00000070: 598e d4bd 3194 68bd ef7a c4bc ce92 d4bc
00000080: 7ab9 77be 9d2c 61be 8b93 32bf 8e80 0abf
00000090: 9569 18be d4c1 0c3e 7a48 99be 3a4e 76be
000000a0: 49ce 12bd 8939 babc 549d dfbe 260c 303e
000000b0: 6fdb d7be 3c38 983e e44f 27bf 63f0 bcbc
000000c0: 4ea5 3dbe 1093 f1bd 471a adbe 3135 343f
000000d0: 24cd 88be 6e48 0dbd a641 56be 511f 8dbd
000000e0: 086e 90bd 6ad2 b2be 5e63 da3d 86e8 02bc
000000f0: 251f 0ebd d93e 05be c682 203e a02f afbe
00000100: 36c8 90be efcf 9dbe 5293 733e 2db8 55bd
00000110: ff4d ae3c 3899 d1be 9699 eebe 7579 db3e
00000120: 67f2 30be 9831 83bd 6537 8c3e 8a5b 873d
00000130: 8878 b4be 8896 aebe 225f d43d 0036 33bd
00000140: dc2c e3be be73 c4bb 1499 6f3d 1207 93be
00000150: 40d2 86be f2e1 603d 3475 8abf cf89 46be
00000160: 22e5 853c 9294 c3bd a269 0abf 626f 8abe
00000170: 23c0 fcbe 2928 9d3d f370 b53e df26 5f3e
00000180: dd5c e0be 4b64 703e a990 a3be ab66 88bf
00000190: 2f9b a6be a755 78bb ca14 1dbe a240 b6bd
000001a0: c658 00bf 50e0 d63d ecb0 22bf 45ed 4ebe
000001b0: b5ac 74be a4aa 02bd 4e49 18be 7d06 efbc
000001c0: 72bd e23d 9f8e c3be 6251 29bf 4820 b43e
000001d0: df4f 2cbc b430 a3be be80 77bd 268c 893e
000001e0: 66e5 2e3e 7d64 16be 834a 623e dc3c b9bc
000001f0: 0af7 02c0 0ed4 043e 5791 c63e 0b53 adbe
00000200: c454 df3c 1435 043d 5f17 47bd cfd7 853c
00000210: 1c6d 9cbe b801 92bd 0a00 b13d bbad cdbd
00000220: f4a7 bc3d 56ba 54be 493b 243d fcd0 46bd
00000230: 6525 3bbd e368 db3d b42a 9dbe 5e31 80bd
00000240: 01a8 173e ffc5 d83c f68b 8ebe 275d 51be
00000250: 8235 83be 9f50 55be 083a 7dbc 714f 0bbf
00000260: c641 b3b9 ffaf a7bb fe2e b13c 01e5 89bd
00000270: a513 963c 53ae 09bd 3aa1 a3bd 3bc4 6a3c
00000280: 4f20 f0bd 5d1c 65be 27c6 c7bf d8fc 603e
00000290: be03 293e 3226 773e c4d9 243e 5351 1dbd
000002a0: b38e 42bd 7295 853d 8d4a 6ebf 4b4e 57bd
000002b0: ee00 efbd ebd8 403e 6c30 c4bc 62cb 1f3e
000002c0: ea6f 07be be87 b03c b23b 023e 809e d33c
000002d0: 7c62 e9bd a615 43bd 73da ccbe d63c 1fbe
000002e0: 9353 c8be ca21 d63d b8e0 cebe 5ae2 1abf
000002f0: ae84 19bf 7566 2bbe 75e9 133e 5155 c5bd
00000300: fec4 d5be 5e41 e5be 64cf 92bd 439e 5abe
00000310: 576e 98be a2be c5be 590c d5be e8ca 44be
00000320: 31ad b83c d1a0 c8bd e028 3bbf 9c41 c93e
00000330: 91b2 6abe eae0 30be 183a e93d a3e9 a5be
00000340: f056 c8be afe3 013e 3359 7cbe 7370 36be
00000350: 4ff1 6bbc e7a5 c33c eb76 153d 42a4 01be
00000360: 0d4b 923c 80db 32be b1fa a5bd 6e2d 0abe
00000370: 05c8 6cbe a885 0d3d 5aee f2be 9cca 29bf
00000380: df0f 1abe 0645 02bc f32e fcba bf82 f7bd
00000390: 224a b5be c6dd cabf 596e 65be 07f0 c83c
000003a0: c22f a2be 6e38 21bf ff2c 393d 06a8 84bd
000003b0: 2e47 d5bd e5f3 edbe be43 02be 10ef de3c
000003c0: f0fd 953e 0a36 81be 9db4 6fbe 7e6d 45be
000003d0: 402d 9a3d 5fb3 93be 72a7 8abf b0ed 7abe
000003e0: fe6a 403d 6f5a 953e f74b 203a 5343 433c
000003f0: d8f2 aebe 6b3e c7bc f866 72be 7ea3 c7be

deconv.0.bias f4 [32]
-0.11553065 0.037142366 0.08083959 0.15812452 0.102692336 0.41455302 -0.062303506 -0.060216364
0.2665009 0.02598197 0.1567831 0.15485372 0.20001273 0.041941058 0.18630742 0.13799016
0.14038399 0.31868848 0.30573902 0.429435 0.11419945 0.27688617 0.046621937 0.29308623
0.24707498 0.14065081 -0.10632839 0.23966092 0.09614395 0.2825351 0.22393592 0.41189277
00000000: 559b ecbd 9822 183d 3a8f a53d 65eb 213e
00000010: 5c50 d23d 4b40 d43e f631 7fbd 6fa5 76bd
00000020: ce72 883e 24d8 d43c c08b 203e f991 1e3e
00000030: 23d0 4c3e 63ca 2b3d 5fc7 3e3e 4b4d 0d3e
00000040: d2c0 0f3e 232b a33e d389 9c3e e8de db3e
00000050: 67e1 e93d 06c4 8d3e a5f6 3e3d 660f 963e
00000060: 3901 7d3e c406 103e b3c2 d9bd ac69 753e
00000070: 1fe7 c43d 71a8 903e 754f 653e 9ce3 d23e

deconv.2.weight f4 [32, 16, 4, 4]
-0.0031892776 0.077410676 0.077443905 0.015618906 -0.01887517 0.0061822045 -0.030090408 0.06880215
0.05788085 0.030166142 -0.0061805835 0.00060088065 0.03770943 -0.015203036 -0.003079556 -0.008032742
-0.06718355 0.035157382 0.01685858 -0.032566253 -0.026828447 0.0037091724 0.010981889 0.008308523
-0.05295391 -0.029246442 -0.06258524 0.022058688 0.021326512 0.024417004 0.036880672 0.05600549
-0.01772558 0.059454277 0.08367932 0.04916449 -0.02799658 0.045092274 0.009247564 0.009887566
0.01692742 0.030568853 0.029668773 0.02921047 0.028773267 0.0023424781 0.04461173 -0.008113138
0.010858737 -0.04538583 -0.0025629296 0.08329343 -0.00018437952 -0.04185813 -0.0419186 0.035742577
0.03248685 0.024915218 0.040867835 0.0181502 -0.013929695 0.021490045 -0.05378273 0.029067378
0.0020254776 0.059089124 0.014626246 0.022749268 0.00058653165 -0.032236174 0.045050062 -0.052956864
-0.067303464 -0.02030003 -0.016524322 -0.01204501 -0.013414614 0.06961569 0.019421212 0.026847234
-0.013834721 0.054349925 0.021573976 0.06550532 -0.014004923 0.031754907 0.0028441758 0.029315813
-0.0078100367 0.023985773 0.046009064 -0.04450253 0.061552197 0.01005941 0.07309991 -0.005220288
0.036151174 0.04648363 -0.021248393 0.03478233 0.02087865 -0.0040247547 -0.032439724 -0.027232982
-0.06314188 0.014930582 -0.051151637 0.032254115 -0.013495637 -0.057461616 -0.06114053 0.043911573
0.05367654 0.013088252 -0.057586994 -0.018052494 -0.025580201 0.018348288 -0.0010125001 0.04299634
-0.04436514 0.030144721 -0.054177325 0.08934384 -0.0021370177 0.037895028 0.029882539 0.02731314
0.0051925257 0.010866968 -0.029360907 0.03469086 0.0487874 -0.008154786 0.019307882 0.041370053
-0.016589317 0.052327104 0.035307083 -0.041345607 0.017470406 0.03717613 -0.04548049 -0.016295813
0.024798524 0.026119359 0.07074756 -0.009772186 -0.03501574 0.045855347 0.061009917 0.0014576303
-0.009989935 0.045723923 -0.038278025 0.03235828 0.017455177 -0.03704099 0.05236958 -0.0025459938
0.08715053 0.071455166 0.054296717 -0.027376337 -0.030890938 0.01539985 -0.0041083125 0.010425213
0.013875538 -0.012863843 -0.0023476775 0.03422942 0.05250809 -0.0072651273 -0.06666261 -0.032202914
-0.032718077 0.06726286 0.014967848 -0.03562908 -0.03349362 0.07802461 -0.01346792 0.067687854
-0.05972495 0.027435403 0.00309199 -0.0060999375 -0.07401591 0.043989163 0.066212736 0.016689587
0.018532876 -0.025638238 0.022559427 -0.057682868 -0.01020558 -0.044909835 0.009628683 -0.0068724304
0.032420937 0.02091483 0.019436069 -0.07561235 0.016388923 0.05136054 -0.057394058 -0.07119987
-0.02153533 -0.017326815 0.040655576 0.041595057 -0.039942693 -0.03854743 0.003272113 0.047660377
0.030510833 -0.013707086 0.022975195 0.00912086 -0.04383653 -0.041858703 0.011318042 -0.01164796
0.055586778 0.013355428 0.011567149 -0.0077039106 -0.008826645 -0.011610545 0.0074672983 -0.02949764
-0.020974271 0.0037587627 -0.03890515 0.06757334 -0.021604793 0.01809562 0.042188946 0.03918759
-0.010096937 0.05572866 -0.0667767 -0.002772886 0.07909008 -0.00019240222 0.03851921 -0.045751963
-0.02567204 0.01510303 0.0037048205 0.044600252 0.0080641275 0.0103106275 -0.061167732 -0.00773162
00000000: 3303 51bb 7d89 9e3d e99a 9e3d 71e6 7f3c
00000010: 1aa0 9abc 1794 ca3b 2980 f6bc 24e8 8c3d
00000020: 7814 6d3d fc1e f73c 7e86 cabb 6b84 1d3a
00000030: 3475 1a3d 2816 79bc 60d2 49bb c39b 03bc
00000040: 8797 89bd 3001 103d 011b 8a3c 3164 05bd
00000050: 55c7 dbbc 9615 733b 62ed 333c 7920 083c
00000060: 33e6 58bd 3c96 efbc b12c 80bd 6cb4 b43c
00000070: f0b4 ae3c 2b06 c83c 3010 173d 0366 653d
00000080: 3c35 91bc 5486 733d 1060 ab3d b460 493d
00000090: 1559 e5bc adb2 383d 1883 173c 75ff 213c
000000a0: 5fab 8a3c 886b fa3c ed0b f33c cc4a ef3c
000000b0: eab5 eb3c 4384 193b caba 363d f8ec 04bc
000000c0: d8e8 313c 7ee6 39bd d3f6 27bb bf95 aa3d
000000d0: 0056 41b9 6e73 2bbd d7b2 2bbd cf66 123d
000000e0: ee10 053d 001b cc3c 0865 273d baaf 943c
000000f0: 6039 64bc e40b b03c 484b 5cbd b61e ee3c
00000100: e0bd 043b 7007 723d eca2 6f3c ac5c ba3c
00000110: 79c1 193a 140a 04bd 6a86 383d 4ce9 58bd
00000120: 66d6 89bd 404c a6bc 045e 87bc 6f58 45bc
00000130: f8c8 5bbc ac92 8e3d 3c19 9f3c bbee db3c
00000140: 07ab 62bc 079e 5e3d e8bb b03c a727 863d
00000150: e874 65bc 6f11 023d 5a65 3a3b b727 f03c
00000160: 56eb ffbb d07d c43c 0074 3c3d 4948 36bd
00000170: 281e 7c3d 39d0 243c 68b5 953d f30e abbb
00000180: 4113 143d 9e65 3e3d 1c11 aebc eb77 0e3d
00000190: b409 ab3c 17e2 83bb 84df 04bd b417 dfbc
000001a0: 8850 81bd 669f 743c 6184 51bd e41c 043d
000001b0: ce1c 5dbc df5c 6bbd 7e6e 7abd 9fdc 333d
000001c0: eedb 5b3d 1c70 563c 57e0 6bbd d3e2 93bc
000001d0: 928d d1bc 264f 963c deb5 84ba ee1c 303d
000001e0: 39b8 35bd 10f2 f63c 0be9 5dbd e7f9 b63d
000001f0: 350d 0cbb d137 1b3d 3acc f43c cebf df3c
00000200: 1026 aa3b 5e0b 323c 4986 f0bc 0118 0e3d
00000210: 4cd5 473d a79b 05bc 902b 9e3c a573 293d
00000220: 52e6 87bc f254 563d 299e 103d 035a 29bd
00000230: 191e 8f3c ff45 183d c049 3abd cc7e 85bc
00000240: 4626 cb3c 44f8 d53c 19e4 903d 851b 20bc
00000250: aa6c 0fbd d1d2 3b3d 89e5 793d f50d bf3a
00000260: d3ac 23bc 0249 3b3d 6bc9 1cbd 1e8a 043d
00000270: 29fe 8e3c 4bb8 17bd 7c81 563d b0da 26bb
00000280: fa7b b23d 1657 923d 3c66 5e3d 5744 e0bc
00000290: fe0e fdbc a74f 7c3c 069f 86bb 83ce 2a3c
000002a0: 3956 633c dec2 52bc 7edb 19bb 2634 0c3d
000002b0: b912 573d 4e10 eebb 6886 88bd 34e7 03bd
000002c0: 6403 06bd 1cc1 893d b43b 753c ccef 11bd
000002d0: 9b30 09bd 5ecb 9f3d 8da8 5cbc ee9f 8a3d
000002e0: 26a2 74bd 36c0 e03c fca2 4a3b fce1 c7bb
000002f0: a795 97bd fb2d 343d 8b9a 873d 9ab8 883c
00000300: 42d2 973c 4807 d2bc 8cce b83c df44 6cbd
00000310: 4e35 27bc 60f3 37bd a0c1 1d3c 2032 e1bb
00000320: d1cb 043d 9455 ab3c 6438 9f3c a6da 9abd
00000330: 1042 863c 6e5f 523d 0816 6bbd 3dd1 91bd
00000340: dc6a b0bc f7f0 8dbc 7686 263d 945f 2a3d
00000350: f39a 23bd e9e3 1dbd f270 563b 8737 433d
00000360: dbf1 f93c b093 60bc 7a36 bc3c a96f 153c
00000370: ef8d 33bd 0874 2bbd 4f6f 393c 16d7 3ebc
00000380: f6ae 633d bad0 5a3c 2484 3d3c 1671 fcbb
00000390: a29d 10bc 283a 3ebc 3db0 f43b 09a5 f1bc
000003a0: 3cd2 abbc 9355 763b 025b 1fbd e463 8a3d
000003b0: 89fc b0bc 443d 943c 51ce 2c3d 2b83 203d
000003c0: a06d 25bc bc43 643d 39c2 88bd 4fb9 35bb
000003d0: fbf9 a13d 94bf 49b9 52c6 1d3d 6966 3bbd
000003e0: 2c4e d2bc b372 773c 93cc 723b c1ae 363d
000003f0: 671f 043c e8ed 283c 048b 7abd 8859 fdbb

deconv.2.bias f4 [16]
0.32124028 0.41730708 0.41200912 0.34932405 0.4690777 0.30193025 0.2535342 0.34162074
0.24631411 0.3993775 0.40636986 0.24651551 0.2685137 0.26817346 0.3481893 0.23949285
00000000: 9b79 a43e 46a9 d53e dcf2 d23e 9ada b23e
00000010: f42a f03e 9a96 9a3e 3ccf 813e eae8 ae3e
00000020: c439 7c3e 357b cc3e b60f d03e 906e 7c3e
00000030: a17a 893e 084e 893e de45 b23e 9d3d 753e

deconv.4.weight f4 [16, 8, 8, 8]
0.3696129 0.06796982 -0.25267872 0.040916037 0.13581969 0.2609445 -0.27757913 0.3881966
-0.8535156 -0.37288663 -0.31730193 -0.45927423 -0.37044054 -0.6890417 -0.0052734893 -0.020164749
0.98900795 0.16397056 0.49477997 -0.03779658 0.4403199 0.2102092 0.26784772 0.30840316
0.36447537 -0.20417874 0.1489876 -0.089362726 0.10529215 -0.12585296 -0.12106251 0.00792298
-0.9662041 -0.20564534 -0.66427004 -0.39734316 -0.17160127 -0.26624793 0.22936358 0.18980841
0.011636471 -0.24586236 -0.2150423 -0.16355307 -0.3670687 -0.023843616 -0.35210603 0.04804521
-0.37403366 -0.15989086 -0.2136238 -0.21717894 -0.44676882 -0.1716479 -0.23675057 -0.49049628
0.056811247 0.09954393 -0.053007122 -0.19753493 0.002910723 0.10089238 -0.10547421 -0.2746147
-0.017627215 -0.42295077 -0.0038550498 -0.3018323 -0.015664078 0.19205996 -0.226118 0.3393481
-0.103399344 -0.07192191 0.04722525 0.47107723 -0.16043963 0.067356326 0.00048987265 -0.46447062
-0.17280027 0.31511676 0.106417835 -0.16704477 0.095893495 -0.35841274 0.1426559 0.2011451
0.102046445 0.1492268 0.11660541 0.3334308 -0.3272437 0.21350871 -0.38088027 -0.17109379
-0.20066488 0.04108851 -0.08358243 -0.138564 0.24846123 -0.19398682 -0.048297893 0.05557894
-0.6815227 -0.21144262 0.2708733 -0.23519298 0.037669886 -0.3420793 -0.35013294 -0.4896589
0.18167228 -0.8134976 -0.13862354 0.23765044 -0.08802535 -0.090534166 -0.106716536 -0.11870651
-0.83924145 -0.58337694 -0.49598354 -0.293407 -0.7079506 -0.3537834 -0.7911375 -0.9483665
0.7015407 -0.105804384 -0.34256524 -0.018500896 0.040250633 -0.06824072 -0.0014920704 -0.020267418
-0.38365695 -0.26184782 -0.104880646 -0.14401802 -0.05230036 -0.09275885 -0.11041384 -0.08620386
-0.62550294 0.09525327 -0.15775603 0.1409016 -0.08122011 -0.011319171 -0.038829282 -0.1349742
-0.12820737 -0.20725757 -0.0136115085 -0.07657868 -0.054534897 -0.11600845 -0.12553242 -0.15972064
-0.11441816 -0.08407479 -0.026344322 -0.052072298 -0.06725551 0.0051041655 -0.14568253 -0.12084045
-0.0039632004 -0.17362447 -0.04887524 -0.07554429 -0.11755106 -0.1041185 -0.12469112 -0.24068654
-0.3105287 -0.021640258 -0.010800337 -0.09798761 -0.12518649 -0.08440562 -0.36728528 -0.031236505
-0.03022948 0.114657864 0.0013684699 0.0073312717 -0.021959443 -0.020483743 -0.1246146 -0.31574816
-0.4922085 -0.47543454 -0.43183973 0.5890159 0.050616242 -0.3628067 -0.28613788 -0.073604465
-0.016032767 -0.17327707 0.06875579 0.33326206 -0.46403027 -0.1772489 -0.051921442 -0.0131519055
0.2982361 0.026773531 -0.06503379 -0.23872823 -0.14955449 -0.0075555 0.14709425 -0.028208777
-0.16060773 0.1063674 -0.30861917 -0.15113765 -0.26925477 0.17003062 0.113415875 0.009884111
-0.030697575 0.0040004523 -0.25504348 -0.30895397 -0.13840389 0.25653732 0.073311545 0.05591021
-0.13430049 0.10749676 -0.1626842 -0.143689 -0.09495453 0.18720494 0.029574858 -0.045731563
-0.0008692887 0.11017276 -0.27017543 -0.91185975 0.027090536 0.08870284 0.039376896 0.020039842
-0.044800393 0.17932878 -0.21058373 -0.042866673 -0.035939213 0.195081 0.04122683 -0.05180015
00000000: e73d bd3e c333 8b3d 1b5f 81be 9397 273d
00000010: 5114 0b3e 849a 853e da1e 8ebe b4c1 c63e
00000020: 0080 5abf ffea bebe 6675 a2be fe25 ebbe
00000030: 62aa bdbe 0965 30bf 3ccd acbb 8b30 a5bc
00000040: a02f 7d3f e6e7 273e cd53 fd3e 96d0 1abd
00000050: 9c71 e13e 1541 573e 5623 893e 05e7 9d3e
00000060: 849c ba3e 3b14 51be 3590 183e ce03 b7bd
00000070: 69a3 d73d 99df 00be 9fef f7bd 63cf 013c
00000080: 2759 77bf b194 52be 9a0d 2abf 9070 cbbe
00000090: 3eb8 2fbe a651 88be 49de 6a3e 235d 423e
000000a0: e6a6 3e3c 58c3 7bbe 0c34 5cbe 757a 27be
000000b0: 6ef0 bbbe b053 c3bc 3e47 b4be 0ecb 443d
000000c0: 5781 bfbe 6eba 23be 33c0 5abe 2864 5ebe
000000d0: e2be e4be 78c4 2fbe be6e 72be 5422 fbbe
000000e0: e9b2 683d b0dd cb3d ff1d 59bd 9946 4abe
000000f0: d4c1 3e3b aaa0 ce3d dd02 d8bd 4c9a 8cbe
00000100: f366 90bc 018d d8be 01a5 7cbb c389 9abe
00000110: f451 80bc 5eab 443e 7a8b 67be 09bf ad3e
00000120: 09c3 d3bd cb4b 93bd 446f 413d 0931 f13e
00000130: 494a 24be 1df2 893d cc6a 003a 18cf edbe
00000140: 8ef2 30be fc56 a13e 98f1 d93d c90d 2bbe
00000150: cf63 c43d e081 b7be 6314 123e fbf8 4d3e
00000160: bafd d03d e9ce 183e d1ce ee3d 71b7 aa3e
00000170: 7c8c a7be 07a2 5a3e bd02 c3be 3633 2fbe
00000180: 187b 4dbe 6d4c 283d 442d abbd b9e3 0dbe
00000190: 9f6c 7e3e 7ba4 46be 03d4 45bd bea6 633d
000001a0: 4678 2ebf 6a84 58be e8af 8a3e 6ed6 70be
000001b0: bd4b 1a3d 0525 afbe a044 b3be 92b4 fabe
000001c0: 4c08 3a3e 6141 50bf 54f3 0dbe a35a 733e
000001d0: a246 b4bd fa69 b9bd 338e dabd 661c f3bd
000001e0: 87d8 56bf 3158 15bf 8ef1 fdbe 7139 96be
000001f0: 403c 35bf 1923 b5be fd87 4abf 26c8 72bf
00000200: 2c98 333f f8af d8bd b664 afbe 318f 97bc
00000210: d9dd 243d cac1 8bbd 9391 c3ba db07 a6bc
00000220: af6e c4be eb10 86be aacb d6bd 7679 13be
00000230: e738 56bd 5af8 bdbd a720 e2bd a68b b0bd
00000240: f620 20bf 2514 c33d cc8a 21be 8248 103e
00000250: bb56 a6bd 0b74 39bc 740b 1fbd ad36 0abe
00000260: cb48 03be 543b 54be ce02 5fbc 48d5 9cbd
00000270: fc5f 5fbd d795 edbd 928b 00be cf8d 23be
00000280: 1154 eabd 672f acbd 0cd0 d7bc c349 55bd
00000290: 42bd 89bd d840 a73b cd2d 15be 337b f7bd
000002a0: bcdd 81bb 9dca 31be 6731 48bd f7b6 9abd
000002b0: 9cbe f0bd 153c d5bd 0f5e ffbd 8876 76be
000002c0: 9efd 9ebe e946 b1bc e6f3 30bc baad c8bd
000002d0: e330 00be dbdc acbd d10c bcbe b3e3 ffbc
000002e0: d0a3 f7bc bed1 ea3d 3b5e b33a 2a3b f03b
000002f0: 4ae4 b3bc 86cd a7bc f035 ffbd bea9 a1be
00000300: c102 fcbe 286c f3be 191a ddbe bfc9 163f
00000310: fa52 4f3d cdc1 b9be aa80 92be f0bd 96bd
00000320: 2657 83bc 8b6f 31be d6cf 8c3d 53a1 aa3e
00000330: 6095 edbe bc80 35be 94ab 54bd 177b 57bc
00000340: 67b2 983e 2a54 db3c 7030 85bd 2c75 74be
00000350: d024 19be 2194 f7bb e09f 163e 1816 e7bc
00000360: 5a76 24be 27d7 d93d 5503 9ebe d4c3 1abe
00000370: c3db 89be 821c 2e3e 9546 e83d f7f0 213c
00000380: 7b79 fbbc 3a16 833b 0f95 82be 372f 9ebe
00000390: c0b9 0dbe dc58 833e 5d24 963d 1b02 653d
000003a0: 1186 09be 4327 dc3d b096 26be 3623 13be
000003b0: 8577 c2bd a7b2 3f3e f946 f23c 0551 3bbd
000003c0: fae0 63ba 42a2 e13d 6f54 8abe a46f 69bf
000003d0: f9ec dd3c d6a9 b53d ab49 213d 982a a43c
000003e0: 9e80 37bd f7a1 373e 43a3 57be f794 2fbd
000003f0: ff34 13bd 50c3 473e 77dd 283d 652c 54bd

deconv.4.bias f4 [8]
0.20270383 0.28762543 0.12824568 -0.0675532 0.020193655 -0.1712637 -0.06919565 0.07052341
00000000: 9891 4f3e a443 933e d652 033e 5559 8abd
00000010: 2a6d a53c c05f 2fbe 73b6 8dbd 946e 903d

deconv.6.weight f4 [8, 1, 8, 8]
0.0071511953 0.0046577 0.0038074318 0.015578173 0.016367799 0.017223718 0.01816271 0.0038832978
0.16505396 0.15279606 0.15163279 0.16444948 0.14192915 0.13123563 0.13505207 0.14254384
0.6089899 0.59894603 0.58511454 0.58927023 0.55401796 0.5354452 0.5326534 0.5341359
0.61770755 0.61837083 0.6021362 0.59674317 0.5624539 0.5606085 0.5580989 0.54534477
0.6451117 0.6598584 0.64544183 0.6291286 0.5963071 0.6144375 0.6140709 0.5841164
0.30301762 0.30300313 0.29651022 0.2958236 0.2766848 0.27616218 0.27569634 0.27319753
0.010806931 0.0056345337 0.0029308607 0.0094793625 0.0042943144 -0.0017753529 -1.3050401e-06 0.0065946127
0.003947735 -0.003739176 -0.0031523665 0.006626735 -0.001407067 -0.0056366166 -0.0019171832 0.0019827778
0.0032961783 0.004640245 0.0033813724 0.00066452584 0.007220041 0.011833425 0.013920819 0.0068166917
0.15493107 0.15325677 0.15566441 0.15511687 0.1517395 0.15220374 0.15643299 0.15294066
0.53300214 0.53601176 0.53773355 0.5351509 0.52920264 0.52819073 0.53171194 0.5241699
0.53734255 0.5480512 0.55161476 0.54159325 0.5322319 0.5421569 0.54848903 0.53229386
0.5454469 0.56814915 0.5747351 0.5582879 0.54710203 0.5667863 0.57692254 0.55081284
0.5355931 0.546357 0.55416906 0.54430896 0.53393745 0.5461116 0.55693406 0.54532206
0.52309173 0.5304861 0.53837854 0.5330023 0.52307546 0.5307273 0.5405712 0.5345353
0.52152157 0.5254301 0.5318751 0.5269539 0.5212895 0.52675664 0.5346401 0.5276895
-0.45164582 -0.4479107 -0.4472015 -0.4600436 -0.09259006 -0.007559414 -0.012263221 -0.011172412
-0.14964972 -0.13067509 -0.12964496 -0.14658052 -0.12773705 -0.11828041 -0.12116993 -0.1276345
-0.53875273 -0.52721965 -0.51419264 -0.5192431 -0.48744348 -0.47363397 -0.47021985 -0.47135216
-0.5450572 -0.54286814 -0.527415 -0.5253779 -0.49400473 -0.4942829 -0.49178955 -0.48049536
-0.56600446 -0.57693195 -0.5626889 -0.55278 -0.521536 -0.53217596 -0.5316108 -0.5133857
-0.2759672 -0.2743431 -0.26843494 -0.27083212 -0.2490399 -0.24124247 -0.2345585 -0.24453574
-0.0412544 -0.035571057 -0.031869166 -0.04045558 -0.029551422 -0.008150267 0.005839211 -0.009908276
-0.03576341 -0.02932758 -0.029555611 -0.038934704 -0.025254544 -0.00011974264 0.016607305 -0.0014863018
0.0036134361 0.0031625323 0.001599281 0.0019015137 -0.01761612 -0.10927433 -0.12443505 0.045629244
0.0044996343 0.0015882173 -0.0011214027 0.001730136 -0.020221556 -0.1747127 -0.274291 -0.021878196
0.00080858835 -0.00014323056 -0.0031092537 0.004016728 -0.010932963 -0.34466848 -0.6095321 -0.34467447
0.0001258236 -0.0008499952 -0.0022520176 0.004307014 -0.00010741575 -0.43958583 -0.8108639 -0.4618294
0.0025567787 0.0005987517 -0.00092505617 0.007386273 -0.038440455 -0.5754509 -1.0265396 -0.61718905
0.002282706 0.0012595536 -0.0035076605 -0.0020320453 -0.1553174 -0.63727075 -1.0544323 -0.65327054
0.006395558 0.005857173 -0.0026787631 -0.004760072 -0.17553802 -0.60951936 -0.9746277 -0.6050865
0.009905708 0.009683411 0.0011160562 -0.0060560554 -0.23037934 -0.5600647 -0.8026978 -0.40218943
00000000: 9354 ea3b 9f9f 983b 1b86 793b 983b 7f3c
00000010: c315 863c c118 8d3c f7c9 943c ed7e 7e3b
00000020: e803 293e 9276 1c3e a045 1b3e 7265 283e
00000030: e055 113e a262 063e 174b 0a3e 03f7 113e
00000040: c3e6 1b3f 8754 193f 11ca 153f 6ada 163f
00000050: 1fd4 0d3f f012 093f f95b 083f 21bd 083f
00000060: 1522 1e3f 8d4d 1e3f 9925 1a3f 29c4 183f
00000070: fbfc 0f3f 0a84 0f3f 92df 0e3f b79b 0b3f
00000080: 0a26 253f 7bec 283f ad3b 253f 920e 213f
00000090: 95a7 183f c74b 1d3f c033 1d3f a788 153f
000000a0: 2025 9b3e 3a23 9b3e 30d0 973e 3176 973e
000000b0: a1a9 8d3e 2165 8d3e 1228 8d3e 8ce0 8b3e
000000c0: 8e0f 313c e5a1 b83b af13 403b 544f 1b3c
000000d0: 52b7 8c3b f5b2 e8ba d628 afb5 9f17 d83b
000000e0: 005c 813b f70c 75bb ef97 4ebb 1525 d93b
000000f0: 556d b8ba 5eb3 b8bb fe49 fbba 7ef1 013b
00000100: b204 583b 320d 983b 049a 5d3b 9333 2e3a
00000110: 1896 ec3b fbe0 413c 2614 643c 8e5e df3b
00000120: 40a6 1e3e 58ef 1c3e 7e66 1f3e f5d6 1e3e
00000130: 9961 1b3e 4cdb 1b3e f82f 203e 7a9c 1c3e
00000140: d472 083f 1138 093f e8a8 093f a6ff 083f
00000150: d379 073f 8237 073f 461e 083f 0030 063f
00000160: 488f 093f 154d 0c3f a036 0d3f dba5 0a3f
00000170: 5a40 083f cbca 0a3f c769 0c3f 6944 083f
00000180: 68a2 0b3f 3972 113f d721 133f f5eb 0e3f
00000190: e10e 0c3f e818 113f 32b1 133f 1202 0d3f
000001a0: a11c 093f 0dde 0b3f 06de 0d3f d557 0b3f
000001b0: 20b0 083f f8cd 0b3f 3b93 0e3f 3a9a 0b3f
000001c0: 57e9 053f f0cd 073f 2dd3 093f d772 083f
000001d0: 46e8 053f bfdd 073f e062 0a3f 4ed7 083f
000001e0: 7082 053f 9682 063f f728 083f 73e6 063f
000001f0: 3b73 053f 86d9 063f 2cde 083f a916 073f
00000200: 1f3e e7be 8d54 e5be 98f7 e4be d68a ebbe
00000210: db9f bdbd f6b4 f7bb adeb 48bc 7e0c 37bc
00000220: c73d 19be b1cf 05be a6c1 04be 3419 16be
00000230: 80cd 02be 003d f2bd f127 f8bd 9eb2 02be
00000240: b3eb 09bf def7 06bf 21a2 03bf 1eed 04bf
00000250: 3192 f9be 2780 f2be a8c0 f0be 1255 f1be
00000260: de88 0bbf 68f9 0abf ab04 07bf 2b7f 06bf
00000270: 30ee fcbe a612 fdbe d7cb fbbe 7d03 f6be
00000280: abe5 10bf d0b1 13bf 610c 10bf fd82 0dbf
00000290: 6283 05bf af3c 08bf a517 08bf 3f6d 03bf
000002a0: 934b 8dbe b376 8cbe 4e70 89be 82aa 8abe
000002b0: 5104 7fbe 4408 77be 1a30 70be 9467 7abe
000002c0: 60fa 28bd f5b2 11bd 3e89 02bd c0b4 25bd
000002d0: d315 f2bc b388 05bc da56 bf3b 5256 22bc
000002e0: a77c 12bd 6540 f0bc 9c1e f2bc ff79 1fbd
000002f0: 9ee2 cebc 571e fbb8 0b0c 883c 03d0 c2ba
00000300: 66cf 6c3b 7d42 4f3b f79e d13a 363c f93a
00000310: ae4f 90bc 38cb dfbd ced7 febd bbe5 3a3d
00000320: ab71 933b bb2b d03a 08fc 92ba bbc5 e23a
00000330: ada7 a5bc e3e7 32be df6f 8cbe e739 b3bc
00000340: 72f7 533a 2930 16b9 9fc4 4bbb c29e 833b
00000350: 2c20 33bc 6378 b0be 4c0a 1cbf 2c79 b0be
00000360: 84ef 0339 36d2 5eba 9696 13bb da21 8d3b
00000370: 6444 e1b8 6511 e1be c794 4fbf e774 ecbe
00000380: a18f 273b 8cf5 1c3a 787f 72ba 8c08 f23b
00000390: bd73 1dbd c050 13bf a665 83bf 1a00 1ebf
000003a0: 7499 153b 9b17 a53a c7e0 65bb 102c 05bb
000003b0: 860b 1fbe 2d24 23bf a3f7 86bf bd3c 27bf
000003c0: d491 d13b 87ed bf3b 308e 2fbb 61fa 9bbb
000003d0: 3dc0 33be 7609 1cbf 3381 79bf f3e6 1abf
000003e0: 8d4b 223c 2ba7 1e3c a248 923a e071 c6bb
000003f0: 90e8 6bbe 6660 0fbf 9a7d 4dbf c6eb cdbe
