experiments/latent_only/decoder_features_dim_3136.pt (torch, 289175 bytes, 5 tensors)

deconv.0.weight f4 [64, 64, 3, 3]
000000 35 24 bb be ca 3a 1c bd 78 71 fe 3b 9e 3c 29 be
       -0.3655106 -0.038142003 0.0077649914 -0.1652703
000010 3a f4 2b 3d 79 0c e9 bd 11 a4 b9 37 5b 35 e7 bd
       0.04198096 -0.11379332 2.2130118e-05 -0.112894736
000020 1f ef 60 be 49 c8 3f be 6c 9c 53 bd 10 b0 94 3e
       -0.21966217 -0.18728746 -0.051662847 0.29040575
000030 9e dd 73 be 7e b9 0b 3d 7d 95 00 bd 61 d5 ea bd
       -0.23815009 0.034112446 -0.031392563 -0.1146648
000040 f0 a4 f8 3d d6 45 0b be 5d 61 df bd e0 42 32 3c
       0.12140834 -0.13600859 -0.109072424 0.010880202
000050 2f 62 33 bd 62 e9 fd bd c8 3d 17 3f 9a 79 21 bd
       -0.043794807 -0.1239803 0.59078646 -0.03942261
000060 ea 31 9c bc 49 b9 46 3d f1 f8 bd 3d 71 52 35 be
       -0.01906677 0.048516545 0.092759974 -0.1770723
000070 88 38 0b 3d 5e 42 d8 3d a4 2f 5a be 99 90 81 be
       0.03398946 0.105595335 -0.21307236 -0.25305632
000080 94 db 6b 3e d8 b5 46 be eb f1 37 3c bb 58 30 bf
       0.23032981 -0.19405305 0.011227111 -0.6888539
000090 46 85 9a 3d 04 b1 73 bd 28 29 63 3c f1 a0 b1 bd
       0.07544951 -0.059494987 0.013864793 -0.08673275
0000a0 d9 50 82 3c b6 e5 0b 3e 0f 67 78 3d cc 43 11 bd
       0.015907692 0.13661847 0.06064516 -0.035465047
0000b0 f6 0d 14 be 63 6f 85 bc 97 14 22 3b da 28 c3 bc
       -0.1445845 -0.016288465 0.002473151 -0.02382319
0000c0 1a 7c 01 3c db 33 19 3c 56 05 c5 bc c3 ad 89 3c
       0.007903123 0.009350742 -0.024050396 0.016806489
0000d0 94 36 12 bc a3 29 aa 3b 63 ba ca bd b1 84 02 3d
       -0.008924145 0.0051929518 -0.09898832 0.031864826
0000e0 e3 5f f0 bc 10 70 ab 3d 66 a4 86 be 01 9f 90 bc
       -0.029342597 0.083709836 -0.262973 -0.017653944
0000f0 3b cb 9e bc e2 63 e6 3d c4 4c 47 3c e1 80 4e bc
       -0.019384017 0.1124952 0.012164298 -0.012603969
000100 ed e1 b7 be 38 a7 84 be 97 21 ec 3d de 4a 02 be
       -0.35914555 -0.25908828 0.11529844 -0.12723872
000110 3d c3 76 be 45 4d ea bd 47 27 5e bd 64 e4 4d be
       -0.24097915 -0.11440519 -0.054236677 -0.20106655
000120 54 e6 80 bd 48 22 8d be f2 94 87 be c2 fd 64 be
       -0.062939316 -0.27565217 -0.26480824 -0.22362426
000130 1d 20 a2 3d 7f ba 96 be f1 ea 1b 3e d7 da 2b be
       0.07916281 -0.2943916 0.15226342 -0.167827
000140 6b 4e 1d 3e a1 0e 95 bc 6e 84 88 3d 22 2f 2f be
       0.15361945 -0.018195452 0.06665884 -0.17107823
000150 a6 7f f6 bd cb 83 48 bc 31 18 95 be d2 0c 13 be
       -0.12036066 -0.012238453 -0.2912002 -0.1436036
000160 0d 15 6e bd ac eb 5f be 82 20 c1 3d e4 15 6d bd
       -0.058125544 -0.21867245 0.094300285 -0.057882205
000170 9d 6f a0 bb 32 27 0e be 1f 1f 6c 3c 6c 79 4e bd
       -0.004896118 -0.1388214 0.014411717 -0.050408766
000180 86 72 be bd 78 86 1e bd 45 1b e6 bc 26 14 56 3d
       -0.09299187 -0.03870246 -0.028089175 0.05226531
000190 11 c5 50 bc 63 97 d4 bd 03 12 b4 bd 44 a4 20 bd
       -0.012742297 -0.10380437 -0.08792498 -0.039219156
0001a0 ab 70 d8 bc 5f 67 93 bc 3d ec 1b bd f4 0d d2 bc
       -0.026420912 -0.017993627 -0.03806709 -0.025641419
0001b0 f7 44 6b 3d 58 4b ae bc ef b3 32 3d 75 1d 28 be
       0.057438817 -0.021276161 0.04362863 -0.16417487
0001c0 24 70 a8 bd c8 ee 1c bf 2b 97 10 3c bf 94 89 be
       -0.08224514 -0.6130185 0.008825104 -0.26871297
0001d0 12 f0 cb bd dc ec 2a bd f0 1d a5 bc b7 05 b3 3c
       -0.09957899 -0.041729793 -0.020155877 0.021853311
0001e0 09 64 1d bc 90 9e a9 3e 27 58 7d be 34 ae dc 3d
       -0.00960637 0.33128786 -0.24740659 0.10775414
0001f0 aa 45 4a bb f8 53 03 3d 50 8b d7 3c 02 f8 1c bd
       -0.0030864277 0.0320625 0.026311547 -0.038322456
000200 b8 c8 da 3c 23 3a 40 bc 42 71 37 bd 2e b9 05 bc
       0.026707038 -0.011732611 -0.044785745 -0.008161826
000210 4a b2 63 bc 0d 9e 04 bd 7e f4 c3 bc eb 7f 24 bd
       -0.013897488 -0.03237729 -0.023920294 -0.040161055
000220 e7 bd eb be 6a 38 e8 bd 83 b4 cf 3d 92 51 6a 3e
       -0.46043321 -0.11338885 0.10141852 0.22882679
000230 cf 25 bb 3d 00 06 69 be 5e 06 a6 bd 8d f0 5d 3e
       0.09138071 -0.22756195 -0.08106683 0.21673794
000240 01 27 11 be 50 98 3d bd 5b 16 47 be d3 4a d2 3b
       -0.14175035 -0.046287835 -0.19442122 0.006417611
000250 ce 7c 8f be 03 44 9a be 8c 61 41 bf 2c fd e0 3e
       -0.28024906 -0.30130014 -0.7553947 0.43943155
000260 59 22 9f 3e 10 b9 2f be 04 f3 04 bf 2a 5b fd bb
       0.31080893 -0.1716044 -0.5193331 -0.007731815
000270 02 3c 06 3e 7b 7f 50 bd 3c d8 a3 bd d1 a5 1f be
       0.13108829 -0.050902825 -0.08000228 -0.15590598
000280 d4 e2 42 be 1d f1 b9 bd 5c 94 c1 be 52 eb 9f 3d
       -0.1903184 -0.09079192 -0.37808502 0.07808556
000290 19 8c 0b be ad ba 9b 3d 86 56 cd be d9 2c f9 be
       -0.13627662 0.07603965 -0.40105075 -0.4866703
0002a0 48 71 f7 3b 95 8e f0 bd 22 d2 28 3e 04 fb 50 be
       0.007551346 -0.11745945 0.1648641 -0.20408255
0002b0 7c ce 95 3b 68 f2 5f be fd a8 81 be ed 78 20 3f
       0.004571734 -0.21869814 -0.2532424 0.6268452
0002c0 c0 2c 31 be 83 df db b9 2e 78 08 3e d2 da 95 be
       -0.17302227 -0.00041937464 0.13327095 -0.2926851
0002d0 06 29 3e 3c 2c 5d b9 bc 33 97 1a bd 9a 1e e7 bd
       0.01160646 -0.022627436 -0.03774185 -0.11285134
0002e0 99 a4 4f be 72 bc 77 be 14 c7 49 be d4 33 99 be
       -0.20277633 -0.2419298 -0.19704849 -0.29922354
0002f0 7c 8f 6f 3e 36 9b ee bd 73 88 55 bd 1c c8 2a be
       0.23394579 -0.11650698 -0.05213208 -0.16677898
000300 06 53 46 be ff 15 01 bd f1 59 ea be d2 b4 b0 3c
       -0.19367608 -0.031515118 -0.45771745 0.021570597
000310 a5 3b 4b be 92 a1 3f 3d 74 e8 b6 bd 7f a3 4c 3e
       -0.19846971 0.046784945 -0.08931056 0.19984244
000320 b5 8f 53 be c2 e7 cf 3d 17 fb 17 3f 9a 11 9f be
       -0.20660289 0.10151626 0.5936751 -0.31068116
000330 70 63 c5 bd 29 a2 1e 3e 12 0b 25 bb 68 f4 0a be
       -0.09638107 0.15491547 -0.00251836 -0.13569796
000340 75 37 b6 be 61 c6 2d 3d 7d f9 a5 bd 0d 5c a4 bd
       -0.35589185 0.042425517 -0.08104227 -0.0802537
000350 1a d8 51 3e 2f 4f 91 bc 35 89 2c be 9a 75 b3 bc
       0.20492592 -0.017737953 -0.16849215 -0.021906663
000360 0a 51 7c be c0 20 17 3e a3 3e 00 3e 12 4f a1 be
       -0.24640289 0.14758587 0.12523894 -0.31505638
000370 e7 5b fa bc 7f 6f 03 3d a1 f5 a9 be d6 30 aa bc
       -0.0305614 0.032088753 -0.33195212 -0.02077524
000380 ec d9 6d 3d 9d 2b 89 3c 96 ea 5a bc 31 ed 07 bd
       0.058069155 0.01674443 -0.013361594 -0.033185188
000390 88 1a 77 be 18 e7 2b bd ad 9b 43 3e 50 73 87 bd
       -0.24131215 -0.041968435 0.19102354 -0.06613791
0003a0 92 93 07 bd f8 49 2e be e9 8d 0e 3e 5a 9d f6 bd
       -0.03309972 -0.17020404 0.13921322 -0.12041731
0003b0 5d 0e d1 bd 49 79 e9 bd f2 7c aa 3c d1 69 00 be
       -0.10207818 -0.114000864 0.020811532 -0.12540366
0003c0 f1 fb f8 3c 8a af be 3d 94 a5 0f be e9 bb ad 3c
       0.030393573 0.09310825 -0.14028007 0.021207767
0003d0 7c b8 10 bd 8a d1 f3 bd d2 88 2e 3d 63 6b 1d bd
       -0.035332188 -0.11905201 0.04261095 -0.03843249
0003e0 09 1a c7 bc 59 1b a8 3d b8 f2 60 bd 3c de a3 bd
       -0.024304407 0.08208341 -0.054918975 -0.08001372
0003f0 f3 f6 f6 bd eb 7c 4e 3b 5c 6c 3c be 3c d1 c5 3d
       -0.120588206 0.0031507562 -0.18400711 0.09659049

deconv.0.bias f4 [64]
000000 57 4a db 3e ba f1 b7 3e dc 93 84 3e 8d 9f 99 bd
       0.42830154 0.3592661 0.25894058 -0.07501135
000010 c2 80 cf 3d 4d 81 85 bd 40 4f 14 3d ea 9e 31 3f
       0.101319805 -0.06518803 0.03620839 0.6938311
000020 55 91 2d 3e 55 ce e9 3e 7f 31 dc 3d 9f 7b 1c 3d
       0.16949971 0.4566523 0.10751628 0.03820383
000030 f1 96 be 3e e2 8c 9c 3e f3 0e 57 bd 2e 8a 2d 3e
       0.37224534 0.30576235 -0.05250449 0.16947243
000040 d4 44 7a be fa 50 6f 3e 50 f2 89 3e 41 99 21 bd
       -0.24440318 0.23370734 0.26942682 -0.039452795
000050 bf 45 f3 bd 27 f6 ac 3e a0 1c 90 3d ac 03 fe 3d
       -0.118785374 0.3378155 0.0703671 0.12403044
000060 c5 82 1b 3e 42 61 c8 3e 7a e0 bd 3e 18 dc 54 3e
       0.15186603 0.39136702 0.37085325 0.20787084
000070 7e 8d 74 bd 47 5f 39 be cc 01 ea 3e f4 45 b2 3e
       -0.05970525 -0.18102752 0.45704496 0.34818995
000080 07 ac 7f 3d 57 a9 3c 3f ca 7f b4 3d 55 39 f6 3e
       0.062419917 0.7369589 0.08813436 0.48090616
000090 34 bb fc bc 23 9a ae 3e 73 d6 bb 3e 99 97 b9 3e
       -0.030850984 0.34101972 0.3668705 0.36248472
0000a0 22 80 1b be ea 20 a5 3d 7a 83 93 3e 49 2c d0 3e
       -0.15185598 0.080629185 0.28811246 0.40658787
0000b0 48 fa 1f 3d 9d de 17 bc 85 be 06 bc 2b bc 98 3d
       0.039057046 -0.009269384 -0.008224134 0.07457765
0000c0 ec 26 b7 3e 63 57 3a 3d db e1 5b bd 26 8f 8c bd
       0.35771883 0.045493495 -0.05368219 -0.06863241
0000d0 3b 3b 1c 3e 0d 5d e5 3d 42 6c 95 bd cd 89 f5 bd
       0.1525697 0.11199389 -0.07296039 -0.11989174
0000e0 cd 21 a0 3e d6 db e7 3e ae a9 11 3e 9b 6c 96 3e
       0.31275788 0.4528491 0.14224884 0.29379734
0000f0 dd 5b 0f 3f 51 e1 14 3e d0 1f c4 3e d3 6d 06 3c
       0.5599955 0.14539076 0.3830552 0.008204895

deconv.2.weight f4 [64, 32, 4, 4]
000000 a4 86 43 bd e3 b9 13 be a4 56 e7 3b 59 2d 04 3d
       -0.047735825 -0.14426379 0.007059889 0.03226981
000010 81 d4 7d be 00 01 2f bd 0c 1e ef bd 7e 35 46 bd
       -0.24788095 -0.042725563 -0.11675653 -0.048390858
000020 6c f2 44 bd ab 62 54 be 01 9f 94 be 1f e4 7a be
       -0.048082754 -0.20740764 -0.2902756 -0.24501084
000030 83 c5 6d be ed 7b 66 bd f7 3e 13 be 05 0f bb bd
       -0.23219876 -0.05627053 -0.14379488 -0.09133724
000040 6e a3 a8 bd fe db 44 3e 29 f5 39 bd 78 53 34 3b
       -0.08234297 0.19224545 -0.04539982 0.0027515572
000050 25 8a b2 bd ec 14 3a 3e e9 e3 a0 be e4 16 c2 be
       -0.08717755 0.18172044 -0.31423882 -0.3790809
000060 7d f0 84 bd 2f 03 0a be 2f 7f 1f 3e b9 13 8c 39
       -0.06491182 -0.13477777 0.1557586 0.00026717575
000070 3b 58 2c 3e c1 10 0e 3e 2f e3 91 3d 53 fd 9e 3c
       0.16830532 0.13873579 0.0712341 0.019407904
000080 47 f0 a5 bc d8 03 de be c9 2f 49 3e a9 76 cc bd
       -0.020256175 -0.43362308 0.19647135 -0.0998357
000090 48 c3 64 3e 09 02 5a bd c8 54 da 3d 2c e2 f2 bd
       0.22340119 -0.053224597 0.10660702 -0.11859545
0000a0 7f 0e 37 bd b9 f3 19 3c 7d d4 3e be f6 5e 0d 3c
       -0.04469156 0.009396487 -0.18635745 0.0086285975
0000b0 d9 80 c1 3b a2 0c c1 bd 4b bb e7 bc 2b 99 9b 3d
       0.0059052524 -0.09426238 -0.02828755 0.07597574
0000c0 a0 4c 62 be c4 fe 2e 3e 49 0e 0a bf a1 ca bb bc
       -0.22099543 0.17089373 -0.5392805 -0.02292377
0000d0 34 fc 1e bd a5 00 9c be d3 36 59 bd d4 3b 0e 3e
       -0.03881474 -0.30469242 -0.0530308 0.1389001
0000e0 36 76 93 3e a5 c4 57 3e c7 7a 54 bc 75 45 2e 3d
       0.28801125 0.21071108 -0.0129687255 0.042546708
0000f0 1f ff 58 bd bb 49 fd 3c 96 62 32 bd 23 64 7f be
       -0.052977677 0.030918946 -0.04355105 -0.24940543
000100 f7 22 c2 bd 7f 86 43 be 56 d5 c1 be 8d ad 64 be
       -0.09479325 -0.19094275 -0.37858075 -0.2233183
000110 d0 10 c1 bd c5 90 28 be 72 3c 4c 3e 17 4b 2c bd
       -0.09427035 -0.16461475 0.19944933 -0.0420638
000120 79 71 be 3e a5 1e c1 3e dc 18 87 3e 7b 09 bb 3e
       0.37195948 0.37718692 0.26386154 0.3653067
000130 a8 88 27 3e f3 8c 78 bd 49 7d be bd 9e 9e 09 bd
       0.16360724 -0.060681295 -0.0930124 -0.033598535
000140 52 65 13 be 25 e6 19 3e 34 c5 fa bc 33 20 16 be
       -0.1439412 0.150292 -0.030611612 -0.1466072
000150 59 7a ea 3d e2 d6 80 b9 14 14 e3 3d 4c 62 0e bd
       0.11449117 -0.00024574163 0.11087814 -0.034761712
000160 6e 16 27 bd 7f 57 82 be 0d 3d 19 bd 6d a2 79 be
       -0.040792875 -0.2545738 -0.03741174 -0.24378367
000170 6f e0 d2 3f 1b 43 a8 bc 41 91 3f bf 2e 5f 58 3b
       1.6474742 -0.02053981 -0.74831015 0.0033015716
000180 4c a1 77 be 76 a6 c2 bc 99 88 86 be 21 de e6 3c
       -0.24182624 -0.023761015 -0.2627609 0.028182091
000190 b0 c3 bb bc 99 7e bb bd 28 eb f3 3c b8 60 3d be
       -0.02292046 -0.09155006 0.029775217 -0.18493927
0001a0 9c 80 9d bd dc c2 ff 3c a0 9a c8 bd 1e 1f a1 bb
       -0.07690546 0.031220846 -0.097951174 -0.0049170395
0001b0 d4 01 ce 3e fd 55 24 be 1d b1 83 be 6d 15 34 3d
       0.4023577 -0.16048427 -0.25721064 0.043965746
0001c0 87 ec 2c 3e cf 3e a2 3d 8c 74 be be ca 8f 87 bd
       0.16887103 0.07922136 -0.37198293 -0.066192225
0001d0 25 49 d5 bd 80 78 1e bf b0 9f 25 be 19 cb 41 be
       -0.10414342 -0.6190262 -0.16174197 -0.18925132
0001e0 d1 40 82 be 37 30 0c be 06 1d 31 3e dd d1 a5 bd
       -0.25440076 -0.13690268 0.17296228 -0.08096669
0001f0 7d a8 f8 bd 3a bd 10 be 1e d4 ed bd 26 95 9e bb
       -0.121415116 -0.14134684 -0.11612724 -0.004839557
000200 8b 0b 13 bd 97 aa 00 3e 59 8f 66 bb 84 0a 2e 3d
       -0.03589968 0.12565075 -0.0035180657 0.042490497
000210 48 f9 4a bd 82 f7 5a 3d ab 32 94 3d 88 f2 26 be
       -0.04955414 0.053458698 0.07236227 -0.16303456
000220 da 50 d6 3c ff 7c 20 be 59 33 60 ba f9 cf a9 3e
       0.0261616 -0.15672682 -0.0008552573 0.33166483
000230 13 cf 7d 3e e6 71 9b bd 65 4d 4d be c8 cc e5 bd
       0.24786024 -0.07590084 -0.20049055 -0.112206995
000240 b7 a5 e5 bc c6 48 56 3f 1f 6d 38 bf fc 93 20 be
       -0.02803312 0.83704793 -0.72041506 -0.15681452
000250 98 64 60 b9 73 ab 04 3f 0b a7 0a be 7c eb e7 bd
       -0.00021399779 0.5182411 -0.13540284 -0.11324212
000260 a1 af 40 bd 37 0a 0b be 34 5b 1b 3e e8 47 0c bd
       -0.047042493 -0.13578115 0.1517151 -0.034248263
000270 1c 13 c7 bd ac 55 7d bd ff 32 9d bd 4d 53 f4 bd
       -0.09720442 -0.06184928 -0.07675742 -0.11929951
000280 4b c6 5b bd 86 8f 8e 3e fa b4 6f bc 44 d0 f3 bd
       -0.053655904 0.27843875 -0.0146305505 -0.11904958
000290 a5 9b 54 3e 2f 4e d8 3e f8 2b 7c 3e 2b 2d 0c bc
       0.20762499 0.4224715 0.24626148 -0.008555691
0002a0 c4 75 18 be 83 bd 46 3e fa 57 46 bd fb e4 a4 3d
       -0.14888674 0.1940823 -0.048423745 0.08051487
0002b0 36 eb 76 bc 22 a1 b6 bc 40 7f 93 bd 4c 29 93 bc
       -0.015070727 -0.022293631 -0.072020054 -0.017964028
0002c0 13 8c 8e be 08 7d 00 bd 0e 91 af 3c f5 44 42 bd
       -0.27841243 -0.03136924 0.021431472 -0.047429044
0002d0 af bf ff bd a0 64 cd 3e 6e 54 6c 3e b3 39 0c 3c
       -0.124877326 0.40115833 0.23079082 0.008558678
0002e0 aa 03 9f bc bd 95 6f 3b a3 89 d5 3b e2 9f 32 3c
       -0.019410927 0.0036557757 0.0065166517 0.010902377
0002f0 4e 40 9c 3e 23 a3 08 bd f7 bb bb be 4d d3 c7 bd
       0.3051781 -0.033358704 -0.36666843 -0.09757099
000300 10 ec 5c 3d ae bf 63 3e e0 07 18 be b8 97 ec 3d
       0.053936064 0.22241089 -0.14846754 0.115523756
000310 ed 4e 24 be cc 06 97 3c 34 80 6b 3d 85 c3 19 3e
       -0.16045733 0.018435858 0.05749531 0.15015991
000320 2d a4 54 be ec bb 12 be cd 1c 12 3e 91 ee e7 3c
       -0.20765753 -0.14329499 0.14268799 0.028312
000330 af 0e 94 be 28 b9 05 3d 6c 12 3c bd bf e6 b1 bd
       -0.28917453 0.032647282 -0.045916006 -0.086865894
000340 9b cd d7 bd 6a 71 3f be 58 c3 56 bd 4a 48 86 bd
       -0.10537263 -0.18695608 -0.052432388 -0.06556757
000350 a5 9f 75 bd 72 11 00 bf 0a 64 00 be 9d 92 9a bd
       -0.059966702 -0.5002662 -0.12538162 -0.075474955
000360 b7 c7 61 bc 96 bc 31 bd 56 48 11 bd 89 68 76 3d
       -0.013780526 -0.04339274 -0.035469376 0.060158286
000370 82 c1 9f be 63 61 69 be bf 05 03 3e 09 ee 87 bd
       -0.31202322 -0.22791056 0.1279516 -0.066371985
000380 e9 cb e9 3d 30 19 c7 bd 9a 26 97 3c 0e ae d8 3d
       0.11415846 -0.09721601 0.018451024 0.10580073
000390 7b f3 d6 bd 34 58 09 bd f3 72 c3 bd d3 49 f0 3d
       -0.10495659 -0.033531383 -0.09543409 0.11732831
0003a0 e3 0b b6 3c cb 5b 02 be 3b 80 96 3d bd 22 08 3f
       0.022222465 -0.12730329 0.07348677 0.53178006
0003b0 78 91 13 3f 80 e6 45 3d 13 0b ce b9 19 41 76 3d
       0.5764384 0.048315525 -0.00039299633 0.060120676
0003c0 a1 a6 68 bd 1f f9 bb 3d 31 ef e1 bc dc 71 04 bd
       -0.056799535 0.091783755 -0.027579876 -0.032335147
0003d0 4e f1 e1 be 50 f5 04 3f d6 91 97 3e a8 82 70 be
       -0.44129413 0.5193682 0.29603451 -0.23487341
0003e0 de a2 10 3c 58 c4 39 3e 94 d4 d3 3c 8e 7b d7 bc
       0.008827893 0.18141305 0.025858201 -0.026304033
0003f0 11 64 ea 3c 6c fb e5 3d cf 50 c5 bc cd e7 c5 3d
       0.028612169 0.112295955 -0.024086384 0.09663353

deconv.2.bias f4 [32]
000000 7f cd 9d 3d 6c e8 be 3e be ce 96 3d 49 d5 2e 3e
       0.07705211 0.372867 0.07363652 0.1707355
000010 38 8b 48 3f 3c 9c e6 bc 95 48 22 3d ab a3 5f 3d
       0.7833743 -0.02815067 0.03962 0.054599445
000020 0e 7a 7e bd 84 5a 6b 3e 66 b9 6c 3e 22 b8 95 3d
       -0.06212812 0.22983748 0.23117599 0.07310511
000030 4a 13 71 bc d3 18 d5 bc ab 25 7f 3e b6 61 cc bd
       -0.0147140715 -0.026012814 0.24916713 -0.099795744
000040 e4 a5 9c 3d 98 5e 33 3d e1 5c 95 3c 31 b1 10 3e
       0.076488286 0.043791384 0.018232765 0.14130093
000050 bc ef e9 bd ed 89 00 3f 5f 3f 35 bb 34 6f 00 3e
       -0.11422679 0.5021046 -0.002765618 0.1254242
000060 b2 e4 26 3f 08 56 8b 3d f5 6e 65 3e d8 19 11 bd
       0.6519271 0.068035185 0.22405608 -0.035425037
000070 13 52 4b bd 4a d3 4a 3d 32 16 d5 3e 0f 6c c5 3c
       -0.04963882 0.049517907 0.41618496 0.024099378

deconv.4.weight f4 [32, 1, 8, 8]
000000 10 87 c7 3c 0f 71 1d 3c f8 d3 ab 3c e2 c0 7f 3d
       0.024356395 0.009609475 0.020975098 0.062439807
000010 25 95 0a 3d 0a e0 f0 bc 39 ee aa 3c 0a d5 e3 3c
       0.03383364 -0.029403705 0.020865547 0.027811546
000020 7c d6 97 3b a9 b0 5b 3c 1c 18 e2 bc 98 58 36 3c
       0.004633723 0.013408818 -0.027599387 0.011129521
000030 4a ae c5 bd 43 99 43 bd a1 a0 24 bd 1f 3f 2d bd
       -0.096523836 -0.047753584 -0.04019225 -0.042296525
000040 1f e2 8c 3b 2c 9e 0b 3d a9 7f 59 bc ed ca 04 3a
       0.0042994167 0.03408639 -0.013275065 0.00050656387
000050 b4 a4 36 bd 8d e8 c5 bc 5d d9 1f be ba ed 0c 3d
       -0.044590667 -0.02415874 -0.15610261 0.0344064
000060 69 02 96 3b 76 df d9 bb ec 8f bb 3c 02 ff e9 bc
       0.004577924 -0.006648953 0.022895776 -0.02856398
000070 ce aa 88 3e 89 f0 fc 3c 29 8a e7 3d 11 d4 d6 bd
       0.26692814 0.030876415 0.11305649 -0.10489667
000080 b0 29 f1 3c 72 31 0e bb 22 4e 90 bc 35 7b 9f 3c
       0.029438823 -0.0021696952 -0.017615382 0.01946793
000090 45 d4 1a be 26 9d b6 bb 41 28 d5 3f 65 c6 20 bf
       -0.15120037 -0.005572933 1.665291 -0.62802726
0000a0 3d d6 85 3c 5b cd a4 3c 85 12 4c bc 00 4d 9c bc
       0.016337508 0.020117452 -0.012455587 -0.019079685
0000b0 91 eb 9a bd df eb 39 bc da 3c 90 3f 84 97 4e be
       -0.07564462 -0.01134774 1.126857 -0.20174986
0000c0 7c f0 18 3c 02 27 c7 3c 51 c4 de bc 33 c4 85 3d
       0.00933468 0.024310593 -0.02719322 0.06531563
0000d0 02 c0 df bb 99 ae e9 3c 2a df 8b bd 6f 48 ac bd
       -0.006828309 0.028525637 -0.068296745 -0.08412253
0000e0 7a 89 a1 3c de 61 11 3d 1a 5e e8 bc b8 9b b4 3c
       0.019718874 0.035493724 -0.028365184 0.022046909
0000f0 91 7d 49 bd fe a8 84 3b 42 5b d3 bd f3 2e 04 be
       -0.049192015 0.0040484658 -0.103201404 -0.12908535
000100 9f 5a 93 bb 27 ac 25 bb 21 49 51 bb 63 32 72 bc
       -0.004496887 -0.0025279613 -0.0031934457 -0.014782521
000110 46 c2 e6 3b 6f 96 1a 3d 52 22 80 3d 83 c6 03 3d
       0.007042202 0.03774112 0.06256546 0.032171737
000120 db 85 0f 3b ae 89 ac 39 6c 7d f1 3a 76 96 c7 3b
       0.0021899852 0.00032908976 0.001842422 0.0060909344
000130 09 97 1d 3c 3c cf 27 3c e0 bc d6 3d c3 29 83 bc
       0.009618529 0.01024228 0.10485244 -0.016011124
000140 46 78 37 3b 78 39 f7 3b de 50 03 bb d6 cb f1 3c
       0.0027995273 0.0075446926 -0.0020037214 0.029516142
000150 4f 7a 00 3d 1f 28 6c 3d 82 e2 05 3d ff 95 70 bd
       0.031366643 0.05765545 0.032686718 -0.058736797
000160 4a 5e c2 3b cf ff 0e 3c 69 a3 8e bb 98 88 5a bd
       0.0059316503 0.008727982 -0.004352976 -0.053352922
000170 43 b2 d7 3e 91 50 8e 3f d6 5c a0 3e bc 2a f5 bd
       0.4212819 1.1118337 0.31320828 -0.119710416
000180 76 c7 b8 3b 69 63 8a 3b ff 30 93 3b 95 91 34 3c
       0.005639012 0.0042232764 0.004491925 0.011021038
000190 d1 8f 15 3e 99 39 c3 3e 54 82 54 3e a3 f5 1a bd
       0.14605643 0.3812988 0.20752841 -0.037831914
0001a0 41 44 26 bb 85 3b e0 ba ed 32 22 3c 25 63 e8 3c
       -0.0025370272 -0.0017107582 0.009899837 0.028367588
0001b0 ea db 24 bd b4 82 98 bd 5b 58 a4 3d 3b df 03 bc
       -0.04024879 -0.07446805 0.08024665 -0.008048828
0001c0 37 ab 59 bb 7b 1f a5 bb d8 b4 1d 3b c4 1f 28 bc
       -0.0033213624 -0.005039153 0.002406409 -0.01026148
0001d0 f9 8d d4 bb d9 c4 b3 3c 52 89 9b 3d e2 b7 2e 3c
       -0.006486651 0.02194445 0.07594551 0.010663958
0001e0 23 a3 98 bb 10 d2 4a 3b 4b c8 02 bc 32 17 34 ba
       -0.0046581193 0.003094796 -0.007982324 -0.00068699114
0001f0 58 72 88 bb 4a 59 5a 3d bd a6 94 3b db 57 cc bc
       -0.0041640215 0.05330781 0.0045364783 -0.024944237
000200 39 1a 52 3c 89 2c c2 3b ef be 11 bc bd 6e 20 bb
       0.012823635 0.005925719 -0.00889562 -0.0024480068
000210 7f c2 a4 ba d6 86 bb ba 89 d6 76 37 c0 a7 55 bb
       -0.0012570171 -0.0014307152 1.4712693e-05 -0.0032601207
000220 78 a2 51 3c 52 31 37 3c ae e4 10 3c cd 96 68 3b
       0.012795083 0.0111811925 0.008843584 0.0035490275
000230 62 d7 78 39 2d b6 8f 3a ef 51 cb 3a 05 fa 77 bb
       0.0002373136 0.0010964327 0.0015512089 -0.0037838232
000240 bb 88 ac 3a b2 a3 73 39 57 a3 28 3c 80 0a 60 bc
       0.0013163307 0.00023235267 0.0102928495 -0.013674378
000250 3d 13 15 bb b2 2f c3 b9 9e 9e 35 3a 98 45 b3 3a
       -0.0022747063 -0.00037228834 0.0006928238 0.0013677357
000260 26 ec 12 bd ec 7e 67 3d 55 5d c1 bb 73 2e de bb
       -0.03586974 0.056517527 -0.0059010186 -0.0067804395
000270 60 3f 68 3a d9 f9 35 bb 29 5b 54 3a 98 18 31 ba
       0.0008859541 -0.002776733 0.0008100742 -0.0006755679
000280 ec 1c 1c 3e 38 8e 4c 3f 32 cf a5 3e a0 12 cc bd
       0.15245408 0.7990451 0.3238464 -0.0996449
000290 98 16 e2 3a a4 37 72 3b 9a 73 88 b8 09 43 00 bb
       0.0017249165 0.0036959434 -6.506518e-05 -0.0019571206
0002a0 e1 1a 33 3e b5 0e 28 3f 63 0b 8b 3e 32 b7 e9 bc
       0.17490722 0.6564744 0.27157125 -0.028529737
0002b0 e4 18 8b 3a bc ef 31 3a 78 8f 47 bb c2 b3 e0 ba
       0.0010612276 0.00067877374 -0.0030450504 -0.0017143416
0002c0 5c fc 6f bc 5d 3e 9c 3c fb b2 66 3d 31 6a 2b 3d
       -0.0146475695 0.019072706 0.056323033 0.04184932
0002d0 ac 3a 35 3b 73 ed 51 39 12 37 2f bb 33 3f 5c bb
       0.002765338 0.0002002025 -0.0026735705 -0.0033607006
0002e0 9a 23 1e 39 62 49 64 bd 72 d1 83 bd 25 4c c0 bc
       0.00015081317 -0.055734046 -0.06436433 -0.023473809
0002f0 0f 6d b9 ba 09 df fb 3a 6c fa ac ba 7e 2f 4c ba
       -0.0014146882 0.001921625 -0.001319719 -0.00077890593
000300 d0 f8 ea 39 ec f9 10 bc e0 ff 6c 3c 91 8c bf 3e
       0.00044817338 -0.0088486485 0.014465302 0.3741193
000310 6d 20 d4 3e 96 b1 ca 3d 37 ad d8 3c de 79 7c bb
       0.4143099 0.09897153 0.026449783 -0.0038524787
000320 ad 9c c6 bc 20 02 de 39 9a 7c 2e 3c c6 6e 0a 3f
       -0.02424463 0.00042344723 0.0106498245 0.54075277
000330 57 4d 22 3f 10 1c aa 3d 49 22 84 bd 94 e0 74 bd
       0.6339926 0.08306134 -0.06451852 -0.059784487
000340 a8 c1 0c bd 15 8d a0 3c 32 87 fd ba 3d 14 24 3f
       -0.034364372 0.019598523 -0.001934266 0.6409338
000350 8b ec 88 3f 49 b7 b3 bb e0 c2 1b be eb a8 0e be
       1.0697187 -0.005484496 -0.15211058 -0.13931625
000360 2a e7 19 3d 1c 64 9e 3d 3b 94 f4 3d c9 c8 33 3f
       0.03757397 0.07733938 0.11942335 0.7022825
000370 07 20 8e 3f 6d 26 dd 3c 85 36 da bd 44 89 14 be
       1.1103524 0.026995862 -0.1065493 -0.14505488
000380 53 19 26 bd cd a9 9c bd 03 d5 b4 bd ec e5 88 3e
       -0.040551495 -0.076495744 -0.08829691 0.26737916
000390 ac 6e e7 3e 3d 29 87 bd 59 67 19 be 40 06 ca 3c
       0.45201623 -0.065996625 -0.1498083 0.024661183
0003a0 48 4e 1f bd 97 f5 df bc 9c 51 c9 3c 22 e1 b1 3d
       -0.038893014 -0.027338786 0.024575047 0.08685519
0003b0 95 84 5a 3e 55 34 46 be 20 6f f8 bd db d9 1a 3d
       0.21339639 -0.193559 -0.121305704 0.03780542
0003c0 0e 62 24 bc 10 bb ba bd 0d cf 01 3d 8b a7 c5 3b
       -0.010033144 -0.091177106 0.0316916 0.0060319356
0003d0 a4 ce af 3e 83 88 ed ba e8 b6 9d 3d 00 33 06 bb
       0.34337342 -0.0018122349 0.07700902 -0.0020477176
0003e0 8f 6b 9a bd b5 e2 a3 bd e8 50 3c bd a2 03 20 be
       -0.075400464 -0.08002225 -0.045975596 -0.15626386
0003f0 c3 b6 35 3d 50 fc 45 3a a6 e4 12 3b 4f fd 67 bb
       0.04436375 0.0007552551 0.0022414117 -0.0035398786
