experiments/latent_only/decoder_features_dim_576.pt (torch, 334735 bytes, 7 tensors)

deconv.0.weight f4 [64, 64, 2, 2]
0.03038894 0.06414658 0.010618089 0.0017960905 -0.030206844 0.031054286 -0.017703054 0.01703046
-0.02837301 -0.060242347 -0.005336061 0.01381436 -0.038439687 -0.022462059 0.04624662 -0.036218334
0.065551855 0.04782506 0.0634579 0.053762123 -0.02430653 0.035554007 0.019110454 -0.05203879
0.016920086 -0.037129983 -0.045844786 -0.059905864 0.005548534 0.051991537 0.040606163 0.03701102
-0.047694348 -0.019421522 -0.042433616 -0.020932563 -0.013970683 0.052573774 0.051756147 0.06598322
0.016016036 0.0222896 0.052999087 -0.046318896 -0.061563455 -0.0024355724 0.025412932 -0.012826577
0.015419328 -0.02288434 -0.061681315 -0.023746468 0.05173274 -0.00013678658 -0.033002622 0.038561292
0.065544784 0.057159785 0.053543277 -0.018204378 -0.023842108 -0.046127003 -0.038689267 0.011060038
0.03079307 -0.06235455 -0.017324142 0.0015942901 0.013967672 -0.045124866 -0.052477494 -0.019219222
0.05090782 0.026940338 -0.036167584 -0.054171458 0.003494881 -0.006252773 0.030764997 -0.021548003
0.019060463 -0.0057670474 -0.032348484 -0.032295346 0.012939393 0.024873503 0.04101558 -0.026259862
-0.055930413 0.056705303 -0.020396397 0.04925113 0.04985796 0.015501611 -0.007855862 0.009346329
-0.027352525 0.03068514 -0.042013884 -0.0496579 -0.04229115 0.0524989 0.0012029037 -0.0129849985
0.010851773 -0.03150248 -0.0649494 0.009030209 0.05615752 0.008544819 0.010253024 -0.047582712
0.028929103 -0.053370167 0.0024743013 -0.016506687 -0.011686878 0.048215672 -0.051422138 0.03189286
-0.04475876 -0.036663406 -0.0042163506 -0.015622728 -0.016217234 -0.03216674 -0.024802564 0.015720174
0.06606802 -0.0035982048 0.068393566 -0.020866416 0.009553358 0.043598928 -0.047355488 -0.045802042
0.011700125 -0.043353915 -0.044673346 -0.0009229199 0.06393132 -0.034536682 -0.035004884 0.0444886
-0.038052976 0.012023091 0.014508091 0.018493868 -0.0049451813 -0.05542957 -0.044865802 -0.023581885
-0.03920079 -0.05335998 -0.0074278913 0.018645002 0.0110578975 -0.0072001093 -0.037285887 -0.050518367
-0.03464213 0.025285283 0.015040701 0.061217558 -0.007432565 0.059178643 -0.022576414 0.060303196
-0.03744401 -0.033485785 -0.025174916 0.041466866 -0.05059555 0.05932898 -0.051789507 0.020654231
0.05986642 -0.057433426 0.01960323 -0.034472644 0.05426014 0.014861612 0.057395082 0.058680892
-0.01652363 0.053673476 -0.052499793 0.021497041 0.021442924 -0.03435674 0.059958033 0.0141907735
-0.014087893 -0.018797964 0.029060908 -0.03976757 0.043496177 -0.03038813 0.013903536 0.026873231
0.0068246415 -0.011656884 0.021039255 -0.015361734 0.0056373514 0.036066826 -0.04617918 0.016358722
0.057217434 0.00838493 0.011179166 0.0033178744 0.048278064 -0.03671562 0.011494622 -0.006341532
-0.0200702 -0.021866601 0.06972318 -0.008923535 0.044961642 0.009317645 0.06251108 0.061106693
-0.031282965 -0.013386677 0.046697456 0.017585322 -0.02543053 0.025530972 0.009997383 0.022155724
-0.0037259548 -0.015989875 -0.028752856 -0.04956475 0.018048415 0.0038646674 -0.026188413 -0.024569998
-0.013142168 -0.03173 -0.009052426 -0.017491566 0.006713532 0.037609026 0.05514337 0.0051570013
-0.019460328 -0.05585867 -0.030850962 0.058357827 -0.020675957 0.05524841 -0.06061704 -0.0042064325
00000000: 3af2 f83c 485f 833d 7ef7 2d3c cc6a eb3a
00000010: 5874 f7bc 8f65 fe3c ff05 91bc 7783 8b3c
00000020: 846e e8bc aec0 76bd 20da aebb a055 623c
00000030: ef72 1dbd 5a02 b8bc 196d 3d3d ad59 14bd
00000040: 0d40 863d 36e4 433d 37f6 813d ac35 5c3d
00000050: 7d1e c7bc 14a1 113d 878d 9c3c a026 55bd
00000060: fe9b 8a3c 9c15 18bd bec7 3bbd da5f 75bd
00000070: 7ad0 b53b 14f5 543d a652 263d de98 173d
00000080: 265b 43bd e219 9fbc dfce 2dbd c47a abbc
00000090: 4be5 64bc 9957 573d 41fe 533d 3622 873d
000000a0: 1034 833c ae98 b63c 9215 593d e2b8 3dbd
000000b0: f629 7cbd 209e 1fbb c82e d03c 9026 52bc
000000c0: 59a1 7c3c f077 bbbc 8ca5 7cbd f487 c2bc
000000d0: b6e5 533d 5e6e 0fb9 c22d 07bd 72f2 1d3d
000000e0: 583c 863d 6120 6a3d 3250 5b3d 5921 95bc
000000f0: 8650 c3bc abef 3cbd a378 1ebd 2935 353c
00000100: c041 fc3c 7c67 7fbd 5ceb 8dbc 80f7 d03a
00000110: aad8 643c dad4 38bd a4f2 56bd a171 9dbc
00000120: b884 503d fcb1 dc3c 7624 14bd e4e2 5dbd
00000130: 600a 653b 10e4 ccbb e006 fc3c 7085 b0bc
00000140: b024 9c3c 80f9 bcbb d87f 04bd 2048 04bd
00000150: bfff 533c 84c3 cb3c f4ff 273d ec1e d7bc
00000160: 4a17 65bd d243 683d 5816 a7bc 8ebb 493d
00000170: dc37 4c3d 78fa 7d3c e0b5 00bc 5821 193c
00000180: 6712 e0bc 675f fb3c c016 2cbd 1566 4bbd
00000190: 7c39 2dbd 1609 573d c0aa 9d3a 08bf 54bc
000001a0: a3cb 313c bf08 01bd 3104 85bd 71f3 133c
000001b0: 6d05 663d 92ff 0b3c 4dfc 273c 17e6 42bd
000001c0: bafc ec3c ad9a 5abd e327 223b 0839 87bc
000001d0: 527a 3fbc cc7d 453d 05a0 52bd 16a2 023d
000001e0: f654 37bd 5e2c 16bd 5029 8abb 78f6 7fbc
000001f0: 01da 84bc 46c1 03bd bf2e cbbc 98c7 803c
00000200: ac4e 873d dccf 6bbb ed11 8c3d 0cf0 aabc
00000210: b085 1c3c ca94 323d d4f7 41bd ec9a 3bbd
00000220: e2b1 3f3c e093 31bd 66fb 36bd 1bf0 71ba
00000230: 6dee 823d 5676 0dbd 4861 0fbd ae39 363d
00000240: 70dd 1bbd 80fc 443c 58b3 6d3c 7480 973c
00000250: 300b a2bb 1e0a 63bd 34c5 37bd cc2e c1bc
00000260: 0291 20bd ff8f 5abd ab65 f3bb 67bd 983c
00000270: 2f2c 353c e5ee ebbb 16b9 18bd 59ec 4ebd
00000280: e8e4 0dbd 1523 cf3c 466d 763c 43bf 7a3d
00000290: e08c f3bb 4e65 723d 2cf2 b8bc 7c00 773d
000002a0: e45e 19bd 6428 09bd a03b cebc 29d9 293d
000002b0: 483d 4fbd f202 733d 3c21 54bd 1033 a93c
000002c0: 7e36 753d 503f 6bbd f496 a03c 3033 0dbd
000002d0: e13f 5e3d 1e7e 733c 1b17 6b3d 605b 703d
000002e0: 905c 87bc b8d8 5b3d 060a 57bd 901a b03c
000002f0: 12a9 af3c a7b9 0cbd 8e96 753d 6b80 683c
00000300: e8d0 66bc 30fe 99bc 2411 ee3c 52e3 22bd
00000310: 0c29 323d 87f0 f8bc a8cb 633c 4025 dc3c
00000320: 3ea1 df3b 84fc 3ebc 845a ac3c c8af 7bbc
00000330: 88b9 b83b cfba 133d 6126 3dbd ba02 863c
00000340: d45c 6a3d f260 093c d228 373c b270 593b
00000350: 38bf 453d 1e63 16bd f053 3c3c a0cc cfbb
00000360: 436a a4bc 9621 b3bc 07cb 8e3d 0534 12bc
00000370: b329 383d 09a9 183c cf05 803d 034b 7a3d
00000380: 9122 00bd cb53 5bbc d545 3f3d 180f 903c
00000390: b053 d0bc 5426 d13c 10cc 233c ec7f b53c
000003a0: 262f 74bb 33fd 82bc 1c8b ebbc 6804 4bbd
000003b0: 45da 933c 5c46 7d3b 1589 d6bc 0547 c9bc
000003c0: 3f52 57bc 51f7 01bd a050 14bc 794a 8fbc
000003d0: 30fd db3b ec0b 1a3d 04de 613d 10fc a83b
000003e0: 446b 9fbc 10cc 64bd 28bb fcbc 9e08 6f3d
000003f0: a060 a9bc 284c 623d 9349 78bd 1dd6 89bb

deconv.0.bias f4 [64]
0.005397984 -0.068977244 -0.07492989 0.10813387 0.047403254 0.017065952 -0.050511293 0.1063836
0.0713764 -0.08593111 0.021458967 0.18242162 -0.09877129 0.041994445 -0.03228778 0.11335735
0.12408483 0.09856735 0.06139585 -0.02875241 0.020320281 0.025703864 0.12311437 0.040998314
0.03686965 0.009940496 0.051587105 0.085417025 0.12347097 0.096121944 0.1161122 0.02823936
-0.0201036 0.0011761151 0.15076084 0.032894112 -0.07193706 -0.026612282 0.05612035 -0.03807892
-0.071287304 -0.14417085 0.052505497 0.11931931 0.114421494 0.04047545 0.09712334 0.16594502
0.031225456 0.061990205 0.108888306 0.055445515 0.05961779 0.07433647 0.1363068 0.006435192
0.0639688 0.012015043 0.10949224 0.05285692 0.037893254 -0.024835164 -0.033832636 0.1135639
00000000: 92e1 b03b f143 8dbd d874 99bd 4a75 dd3d
00000010: ea29 423d e5cd 8b3c eee4 4ebd a5df d93d
00000020: ca2d 923d a6fc afbd b7ca af3c bccc 3a3e
00000030: 9a48 cabd 5e02 2c3d 3140 04bd e627 e83d
00000040: 3020 fe3d aedd c93d 377a 7b3d 2d8a ebbc
00000050: b876 a63c e990 d23c 6323 fc3d d9ed 273d
00000060: a104 173d 76dd 223c 004d 533d 1fef ae3d
00000070: 59de fc3d 95db c43d 3ccc ed3d 3b56 e73c
00000080: 4eb0 a4bc e027 9a3a 0d61 1a3e fabb 063d
00000090: bd53 93bd 0002 dabc 74de 653d a4f8 1bbd
000000a0: 14ff 91bd 86a1 13be 0110 573d af5d f43d
000000b0: d155 ea3d 96c9 253d 9ae8 c63d 7eed 293e
000000c0: 87cc ff3c 71e9 7d3d d500 df3d d61a 633d
000000d0: c931 743d b83d 983d 0394 0b3e 4ede d23b
000000e0: 1302 833d beda 443c 783d e03d 7f80 583d
000000f0: f535 1b3d 1d73 cbbc 1794 0abd 3194 e83d

deconv.2.weight f4 [64, 32, 4, 4]
0.0050120424 -0.114645086 -0.010360585 0.14187226 0.06753614 0.023175701 -0.045256983 -0.039682366
0.020576319 0.11026276 0.058956556 -0.107678846 0.06210625 -0.07378987 0.10793731 -0.13524173
-0.0785806 -0.025268916 -0.08674104 -0.017335063 -0.020223863 0.0013632812 0.02002644 -0.051193234
0.09005865 0.03668905 -0.022034334 -0.03906957 0.027383342 0.03191616 -0.047963824 0.08012106
-0.013535852 0.032406144 0.0012457999 -0.017831916 -0.03650282 -0.021515546 0.002946333 0.048364542
0.029125094 -0.01901023 0.024325002 -0.05616194 0.09095696 -0.053892978 0.08229871 -0.07513517
-0.059210334 -0.016536864 0.011011799 0.023810802 -0.041419085 0.010087661 0.001286227 -0.37770218
0.04234287 -0.08055578 -0.091893494 -0.04536761 -0.0062142755 -0.030111529 0.041028537 -0.025630545
-0.0480731 -0.010553519 0.018211855 0.06872122 0.02713936 -0.014258419 0.017900506 -0.25394014
-0.026442247 0.10706659 -0.028006438 0.073153086 0.045959245 0.07223261 0.050136074 -0.049129315
-0.0462527 -0.0212576 0.004819087 -0.07885495 0.03068139 -0.023037389 0.025033105 0.03972175
-0.052232254 0.044001345 0.023166666 -0.050678115 0.14176297 -0.08490993 -0.044918876 0.2327684
-0.048890088 -0.020952567 -0.051042374 -0.025937637 0.08016816 0.051636726 -0.03327772 -0.047484767
0.11283674 -0.046547014 -0.035025977 -0.023492843 0.07765509 -0.056047186 0.0726419 -0.113793515
-0.08909173 -0.030411666 -0.12635359 -0.06863602 0.05051356 -0.01979749 -0.04437731 0.017405175
0.15331717 -0.0076892185 0.076620296 -0.069054194 0.22394459 -0.1514609 0.071668275 -0.037526757
-0.03266492 -0.050166953 -0.011210465 -0.01602361 -0.044891723 0.029238427 0.023576029 -0.0511054
-0.080879636 0.09090202 0.0031086868 -0.034357533 0.08507686 0.10978981 -0.022988105 0.15680079
-0.100418985 -0.03382512 -0.06948472 -0.06873677 -0.010654119 0.08040169 -0.07292803 0.024083532
-0.07539623 -0.05991124 -0.014430314 -0.04291636 -0.06078059 -0.015580987 -0.013360825 -0.062252257
-0.033106398 0.023262884 -0.042993113 0.001573705 0.010905814 -0.06098203 -0.036754128 -0.048395865
-0.03463927 0.087008014 -0.035009768 0.04024425 -0.0360717 -0.019375555 -0.02657318 -0.08263318
-0.022703674 -0.035231672 0.0035049592 -0.01392157 -0.096166566 -0.0021985837 -0.044014808 0.048087604
0.002282502 -0.031280555 -0.079159044 0.06968977 0.068534784 -0.21474767 -0.10361009 -0.0050975075
0.006567245 -0.0025528953 0.021414407 0.044992864 0.036620826 -0.010851789 -0.093501344 -0.03527493
-0.1070542 -0.013415742 -0.020262118 0.06018016 0.0509123 0.08125117 -0.08139917 -0.08802857
0.09539934 -0.057619166 0.009581803 0.012223162 0.035960566 -0.024163267 -0.031140149 -0.13053487
0.022964245 -0.1041786 -0.10568504 0.03477514 0.030125223 -0.0499681 -0.23088394 0.17894979
0.035590086 0.053219937 -0.04615143 0.010319257 0.20374525 0.00046009044 -0.091917016 0.008608798
-0.09686346 -0.16441944 -0.0016590493 0.028049896 -0.010942665 0.02879773 0.11154908 0.015881872
0.09249884 -0.03674098 -0.012717211 -0.048224684 0.022539739 -0.04020863 -0.015442687 -0.058621313
-0.12599374 -0.07317135 -0.047439147 0.058310032 0.19056252 0.19150142 0.021101864 0.054973397
00000000: 0f3c a43b 0bcb eabd 71bf 29bc f646 113e
00000010: 6350 8a3d f8da bd3c 635f 39bd fa89 22bd
00000020: ab8f a83c 71d1 e13d 6e7c 713d ba86 dcbd
00000030: 2063 7e3d 251f 97bd 3d0e dd3d cf7c 0abe
00000040: deee a0bd c200 cfbc 49a5 b1bd 4302 8ebc
00000050: 84ac a5bc 20b0 b23a 7d0e a43c ffaf 51bd
00000060: ab70 b83d 4247 163d 5981 b4bc 6a07 20bd
00000070: 0853 e03c 85ba 023d b775 44bd 8316 a43d
00000080: 7ac5 5dbc 4ebc 043d 1c4a a33a 3d14 92bc
00000090: fb83 15bd 5f41 b0bc 4417 413b e619 463d
000000a0: c097 ee3c 58bb 9bbc 3a45 c73c 100a 66bd
000000b0: a547 ba3d e2be 5cbd 3a8c a83d 78e0 99bd
000000c0: 8986 72bd 5178 87bc d56a 343c df0e c33c
000000d0: 0fa7 29bd b846 253c 9e96 a83a 2e62 c1be
000000e0: b86f 2d3d 6efa a4bd a832 bcbd 63d3 39bd
000000f0: 1fa1 cbbb 74ac f6bc 8a0d 283d 26f7 d1bc
00000100: 4de8 44bd abe8 2cbc 0731 953c b6bd 8c3d
00000110: 5d53 de3c 259c 69bc 15a4 923c 7104 82be
00000120: 699d d8bc ba45 db3d c26d e5bc 49d1 953d
00000130: c33f 3c3d b1ee 933d 7c5b 4d3d d23b 49bd
00000140: 7973 3dbd 6b24 aebc 6fe9 9d3b b47e a1bd
00000150: 8a57 fb3c e8b8 bcbc 3a12 cd3c 46b3 223d
00000160: 7df1 55bd c13a 343d 05c8 bd3c db93 4fbd
00000170: 502a 113e 42e5 adbd dbfc 37bd d75a 6e3e
00000180: f940 48bd b8a4 abbc cf11 51bd 2b7b d4bc
00000190: 342f a43d 0881 533d 384e 08bd 637f 42bd
000001a0: f316 e73d 15a8 3ebd 6677 0fbd 1074 c0bc
000001b0: a209 9f3d bc91 65bd 47c5 943d 930c e9bd
000001c0: ba75 b6bd e321 f9bc d662 01be 0b91 8cbd
000001d0: 4fe7 4e3d 592e a2bc fbc4 35bd 4c95 8e3c
000001e0: 2dff 1c3e d7f5 fbbb 1aeb 9c3d 496c 8dbd
000001f0: bb51 653e 9118 1bbe d1c6 923d a8b5 19bd
00000200: a7cb 05bd dd7b 4dbd 19ac 37bc f243 83bc
00000210: 62e0 37bd 6d85 ef3c 8422 c13c e553 51bd
00000220: 39a4 a5bd d72a ba3d 1cbb 4b3b 7cba 0cbd
00000230: c73c ae3d 7bd9 e03d 8d51 bcbc 6390 203e
00000240: 78a8 cdbd 368c 0abd 014e 8ebd ddc5 8cbd
00000250: 9d8e 2ebc a4a9 a43d 4a5b 95bd d44a c53c
00000260: 5769 9abd 7d65 75bd 206d 6cbc 11c9 2fbd
00000270: 11f5 78bd 6547 7fbc 5de7 5abc 39fc 7ebd
00000280: 939a 07bd ce91 be3c 8c19 30bd c744 ce3a
00000290: 4dae 323c 4bc8 79bd 7f8b 16bd be3a 46bd
000002a0: e8e1 0dbd 4231 b23d 6766 0fbd 28d7 243d
000002b0: ebbf 13bd 7cb9 9ebc ffaf d9bc 963b a9bd
000002c0: 0efd b9bc 164f 10bd 75b3 653b 4c17 64bc
000002d0: faf2 c4bd 1d16 10bb df48 34bd 82f7 443d
000002e0: 0796 153b 0a20 00bd 231e a2bd 83b9 8e3d
000002f0: f75b 8c3d d0e6 5bbe 8731 d4bd fe08 a7bb
00000300: 0b32 d73b 7a4e 27bb 446d af3c 704a 383d
00000310: b8ff 153d b4cb 31bc a27d bfbd 727c 10bd
00000320: 3b3f dbbd b3cd 5bbc befc a5bc 797f 763d
00000330: 6a89 503d 0367 a63d 9cb4 a6bd 5348 b4bd
00000340: bb60 c33d 1302 6cbd fffc 1c3c a843 483c
00000350: 634b 133d 0bf2 c5bc a019 ffbc efaa 05be
00000360: 831f bc3c 975b d5bd 6671 d8bd 6170 0e3d
00000370: 2cc9 f63c 5aab 4cbd d76c 6cbe 9d3e 373e
00000380: e9c6 113d 26fd 593d 4809 3dbd 1a12 293c
00000390: 98a2 503e 4b38 f139 fd3e bcbd ea0b 0d3c
000003a0: 5a60 c6bd 925d 28be 7574 d9ba e5c8 e53c
000003b0: dd48 33bc 38e9 eb3c d873 e43d b31a 823c
000003c0: 0870 bd3d b67d 16bd d95b 50bc 3f87 45bd
000003d0: 42a5 b83c ceb1 24bd 5303 7dbc e71c 70bd
000003e0: 8104 01be dcda 95bd 8d4f 42bd 80d6 6e3d
000003f0: d222 433e f318 443e d1dd ac3c c92b 613d

deconv.2.bias f4 [32]
0.104613155 0.09933875 0.09735062 0.08757108 0.12216319 0.061805997 0.09349178 0.17103186
0.042252876 0.056005754 0.09776811 0.03207963 0.05872048 0.14522165 0.10117976 0.060266476
0.06835281 0.058585756 0.053249326 0.10685399 0.1677054 0.12048092 0.035330117 0.068872765
0.10915319 0.089116104 0.051630303 0.062986456 0.066809304 0.03695678 0.02919438 0.06028175
00000000: 6c3f d63d 1d72 cb3d c35f c73d 7758 b33d
00000010: b230 fa3d 4928 7d3d 9e78 bf3d fa22 2f3e
00000020: 5a11 2d3d 4a66 653d a63a c83d ee65 033d
00000030: e384 703d fcb4 143e 5637 cf3d fbd9 763d
00000040: 8ffc 8b3d 9ef7 6f3d f71b 5a3d 44d6 da3d
00000050: f7ba 2b3e b3be f63d 50b6 103d 2a0d 8d3d
00000060: b58b df3d 8182 b63d 4c7a 533d 0bff 803d
00000070: 51d3 883d fe5f 173d 0d29 ef3c ffe9 763d

deconv.4.weight f4 [32, 16, 8, 8]
0.025450531 0.06504505 0.057676207 0.027380392 -0.006987787 -0.061615393 0.019416893 0.027765067
-0.016809227 -0.05167022 0.0027303253 -0.013905426 -0.001384969 -0.03617149 0.0151018035 -0.043972656
-0.13110445 0.077552 0.091518 0.052518506 -0.06317504 0.035506986 -0.13829274 -0.0940416
-0.007424511 0.052373327 0.105577864 0.047468323 -0.009392451 0.09778307 0.13488188 0.05087234
0.03191947 0.10856103 0.07534115 0.06720476 -0.0076506985 0.061064873 0.03498618 0.06810707
-0.033429973 -0.075704135 -0.117043704 -0.013677311 -0.06805907 -0.135968 0.0055882405 0.07899148
-0.095517166 -0.07104406 0.092627645 -0.021159947 -0.07123123 0.12960742 0.08086228 0.05993467
-0.14035793 0.17689198 -0.0041255252 0.03404166 -0.015191159 0.0777403 -0.03507293 -0.053099282
0.035669383 0.0053315456 0.030169478 -0.081597075 0.11968278 0.08089642 0.014066129 0.03426465
-0.008712614 0.0017040828 0.006388343 -0.0026416813 0.003942407 -0.0044136965 -0.053052757 -0.0059448997
0.013099593 -0.054082017 0.0025725146 0.0790376 -0.05388591 0.040931102 -0.09134999 -0.0083675375
-0.021361062 0.005158041 0.030541936 0.04090143 0.011428063 0.026016988 0.04724778 -0.046362363
-0.02826957 0.07822854 0.029537123 0.07551621 0.034552872 0.041535024 0.052283067 0.04383159
0.003151058 0.021443749 0.015905006 -0.01071951 0.009968023 0.001515188 0.009580204 0.014234741
-0.008603834 -0.055743296 -0.13371137 0.027479284 -0.08753066 0.124407165 -0.10266568 0.021881394
0.036026545 -0.13215727 -0.07915455 -0.11741896 0.003432282 0.021772541 0.01775092 0.10288262
0.071504116 0.02168965 -0.008964395 -0.10506805 -0.030019542 -0.029091688 0.09772933 0.0034285965
-0.05765357 -0.058311403 -0.048097074 0.057936456 0.15654068 0.002728606 -0.10020654 0.004605364
-0.08473674 -0.008824744 0.03317765 -0.016015682 0.05969454 0.05524923 0.042008106 0.043439616
-0.15800679 -0.029947694 0.047383588 0.038554415 -0.0033476965 0.025454057 -0.0049334774 -0.02165585
-0.11432598 0.07146306 -0.02002708 -0.16381362 0.091897815 0.014267426 0.06352273 -0.01411873
-0.15013653 -0.07885016 -0.19788708 0.19855991 -0.17362748 -0.013227195 0.12802774 -0.103024304
-0.0441785 -0.12832625 0.01616346 -0.23518991 -0.006668653 0.027058885 0.27431402 0.030904166
0.12586668 -0.098735414 -0.19969113 -0.027201198 -0.0352269 -0.06744399 0.0013644273 0.10065269
0.07595056 0.051164612 0.05787451 0.0144285755 0.046936687 0.0934588 0.0012594376 0.05731916
-0.008356629 -0.09700782 0.0027679515 -0.0397774 0.029782027 -0.034724843 0.53045094 -0.008768333
-0.18058497 -0.01885539 -0.11548995 0.01712552 0.1301487 -0.09111147 -0.05468 -0.054276556
-0.014093811 -0.015964892 0.008586069 0.017137673 0.018356597 0.038815953 -0.07736043 -0.045470804
-0.024243385 0.0755958 -0.09589964 0.03377689 -0.18267123 -0.06013263 -0.010897489 0.013434687
-0.22557802 -0.15875193 0.22133976 0.022091549 -0.0030603623 -0.11024604 -0.113672934 0.065532826
-0.03578101 -0.07133322 -0.019823538 -0.10005326 -0.004643165 0.061851047 -0.034238536 -0.09940416
0.04013993 0.01893556 0.0545412 -0.015043656 -0.041127477 -0.19571334 0.14814132 -0.060570285
00000000: a27d d03c 5736 853d e33d 6c3d d84c e03c
00000010: cef9 e4bb 6c60 7cbd 2d10 9f3c 9173 e33c
00000020: 81b3 89bc 27a4 53bd 42ef 323b 95d3 63bc
00000030: d987 b5ba 8e28 14bd 8e6d 773c ac1c 34bd
00000040: 3f40 06be 95d3 9e3d ca6d bb3d a51d 573d
00000050: ea61 81bd c66f 113d 9d9c 0dbe e298 c0bd
00000060: 5049 f3bb 6a85 563d 3539 d83d 256e 423d
00000070: cbe2 19bc 7d42 c83d 7a1e 0a3e 845f 503d
00000080: fdbd 023d 3f55 de3d 764c 9a3d a6a2 893d
00000090: b6b2 fabb 291f 7a3d ab4d 0f3d b87b 8b3d
000000a0: deed 08bd c50a 9bbd 9cb4 efbd cd16 60bc
000000b0: 8e62 8bbd 323b 0bbe 8f1d b73b 49c6 a13d
000000c0: 819e c3bd 8c7f 91bd 90b3 bd3d a057 adbc
000000d0: aee1 91bd cfb7 043e 209b a53d 0e7e 753d
000000e0: fdb9 0fbe 2c23 353e 6a2f 87bb 456f 0b3d
000000f0: 57e4 78bc 4e36 9f3d a2a8 0fbd a27e 59bd
00000100: 0f1a 123d 3fb4 ae3b fb25 f73c 5e1c a7bd
00000110: 3f1c f53d 06ad a53d 9f75 663c 1759 0c3d
00000120: 5abf 0ebc 885b df3a 4e55 d13b 0f20 2dbb
00000130: 4f2f 813b c5a0 90bb d94d 59bd 6fcd c2bb
00000140: ad9f 563c 1b85 5dbd a297 283b 77de a13d
00000150: 79b7 5cbd 5fa7 273d b415 bbbd ff17 09bc
00000160: 65fd aebc c904 a93b 1533 fa3c 4288 273d
00000170: c53c 3b3c 9421 d53c e386 413d 76e6 3dbd
00000180: 9695 e7bc 4936 a03d d6f7 f13c 3ea8 9a3d
00000190: 5087 0d3d a120 2a3d c526 563d c188 333d
000001a0: fb81 4e3b cdaa af3c 374b 823c e2a0 2fbc
000001b0: eb50 233c 4699 c63a 4af6 1c3c d538 693c
000001c0: 18f7 0cbc 1553 64bd a2eb 08be 3c1c e13c
000001d0: 4643 b3bd 2fc9 fe3d 6242 d2bd 9c40 b33c
000001e0: 9290 133d 3c54 07be c81b a2bd 5a79 f0bd
000001f0: 23f0 603b 545c b23c 616a 913c 20b4 d23d
00000200: c070 923d 7eae b13c 66df 12bc eb2d d7bd
00000210: 8beb f5bc b151 eebc 5126 c83d 4eb2 603b
00000220: 2626 6cbd f0d7 6ebd 7001 45bd c74e 6d3d
00000230: 334c 203e 6ad2 323b 1639 cdbd 98e8 963b
00000240: 758a adbd a995 10bc 4ae5 073d 5233 83bc
00000250: 4382 743d 044d 623d b110 2c3d bded 313d
00000260: 88cc 21be de54 f5bc 4b15 423d 3ceb 1d3d
00000270: 0765 5bbb 0785 d03c 02a9 a1bb 9c67 b1bc
00000280: bd23 eabd 3a5b 923d d50f a4bc c2be 27be
00000290: ec34 bc3d ecc1 693c 3418 823d 3f52 67bc
000002a0: 64bd 19be 317c a1bd e9a2 4abe 4a53 4b3e
000002b0: 67cb 31be e0b6 58bc b419 033e 68fe d2bd
000002c0: 84f4 34bd f567 03be 3c69 843c a0d5 70be
000002d0: b784 dabb 98aa dd3c e372 8c3e bc2a fd3c
000002e0: 32e3 003e cb35 cabd d57b 4cbe 0cd5 debc
000002f0: 154a 10bd 1320 8abd 95d6 b23a ff22 ce3d
00000300: f88b 9b3d fc91 513d d20d 6d3d d565 6c3c
00000310: af40 403d 5467 bf3d b713 a53a 7fc7 6a3d
00000320: 3eea 08bc 09ac c6bd 8566 353b a1ed 22bd
00000330: 70f9 f33c a33b 0ebd a2cb 073f 0ea9 0fbc
00000340: 44eb 38be 9e76 9abc ff85 ecbd d24a 8c3c
00000350: b345 053e a698 babd 23f8 5fbd 1851 5ebd
00000360: bae9 66bc cec8 82bc 95ac 0c3c 4e64 8c3c
00000370: 9360 963c 7afd 1e3d 256f 9ebd 983f 3abd
00000380: 109a c6bc f9d1 9a3d 0867 c4bd a359 0a3d
00000390: 2b0e 3bbe a24d 76bd 628b 32bc 291d 5c3c
000003a0: edfd 66be de8f 22be e4a6 623e 56f9 b43c
000003b0: 5c90 48bb adc8 e1bd 5bcd e8bd 1336 863d
000003c0: 1c8f 12bd 2717 92bd f964 a2bc b9e8 ccbd
000003d0: b125 98bb 8657 7d3d b53d 0cbd 6994 cbbd
000003e0: c469 243d bf1e 9b3c 9866 5f3d ab79 76bc
000003f0: 4975 28bd 1469 48be 5cb2 173e 8c18 78bd

deconv.4.bias f4 [16]
0.18290728 0.15573283 -0.0136876535 0.14338961 0.04859428 -0.06696252 0.0387993 0.017682044
0.05119687 0.19191796 0.107602976 0.14123724 0.1571448 -0.0032460368 0.07228394 -0.025953993
00000000: 0c4c 3b3e 6d78 1f3e 2e42 60bc bad4 123e
00000010: cc0a 473d a523 89bd 04ec 1e3d efd9 903c
00000020: cfb3 513d 2486 443e f35e dc3d 7fa0 103e
00000030: 91ea 203e 76bb 54bb 9a09 943d 789d d4bc

deconv.6.weight f4 [16, 1, 8, 8]
0.043769155 0.047918122 0.03241292 0.02351482 0.0017801718 -0.024237592 -0.025346966 -0.014306498
-0.047330238 -0.07870325 -0.09046074 -0.105823755 -0.0839869 -0.13249578 -0.16002987 -0.14119072
-0.082148135 -0.29800105 -0.5160096 -0.61000997 -0.36220875 -0.23842578 -0.11591857 -0.011504328
-0.059367105 -0.18800004 -0.29135385 -0.42257386 0.36050603 0.28695446 0.09605724 0.16611585
-0.062034268 -0.14108877 -0.19339418 -0.21101528 0.25209343 0.36840025 0.102404535 0.118771665
-0.025306754 -0.1803977 -0.21153854 -0.30833513 -0.33191338 -0.1590551 -0.05762217 0.006586839
0.0035517379 -0.0018815857 -0.009958747 -0.014976916 -0.040835492 -0.068145245 -0.092241 -0.09458296
-0.0021237598 -0.01515568 -0.034285005 -0.025623322 -0.027973367 -0.028286474 -0.04498533 -0.04512973
0.060435884 0.019358758 -0.17838533 -0.18596642 -0.120795876 0.023022307 0.04273681 0.010434916
0.06813177 0.007066715 -0.22681956 -0.26711074 -0.26723492 -0.13078044 -0.029900696 0.0001623179
-0.051798027 0.09472201 0.0849879 -0.083437845 -0.1325284 -0.08688734 -0.026580121 0.03333445
-0.07274893 0.037454456 0.072245404 -0.04152287 -0.15382287 -0.2407379 -0.15906069 -0.0574612
-0.11787308 -0.10819037 -0.07777803 -0.087349504 -0.14249994 -0.15793157 -0.1811081 -0.16809753
-0.03609289 -0.019440776 0.013227116 -0.02407849 -0.112653226 -0.12751377 -0.1535528 -0.12249786
-0.039477598 -0.0072188126 -0.002093104 -0.029680725 -0.07622065 -0.10742846 -0.10350968 -0.06978214
-0.058869045 -0.047641512 -0.0019081435 -0.004973299 -0.019021586 -0.028549036 -0.0066916016 0.0054819155
0.08621066 0.057454195 -0.023039326 -0.029786015 -0.007041622 0.03925722 0.01513783 -0.00014180761
0.11873573 0.085149534 0.007567027 -0.010324934 0.01975782 0.05672612 0.04919996 0.03502658
0.0059550954 0.0025293478 0.017144674 0.048155926 0.048663393 0.04684355 0.074104995 0.015499303
-0.043828186 -0.65404105 -0.76064587 -0.77697295 -0.15598835 0.0030519872 0.050876282 0.009355508
-0.1158746 -0.74830544 -0.8497848 -0.7897317 -0.19462454 -0.045837134 0.021042721 -0.010348046
-0.06129483 -0.45660123 -0.39430538 -0.4193599 -0.12302753 -0.022117212 0.0017117033 -0.04855436
-0.038748447 -0.53804666 -0.55060416 -0.4824894 -0.3653893 -0.1838224 -0.106795765 -0.14568508
-0.13637404 -0.20415315 -0.25338048 -0.27256864 -0.34418127 -0.30040276 -0.18200083 -0.15796025
-0.24876504 -0.16426115 0.05488977 0.06892602 0.008790178 -0.005959012 0.0111027695 0.011539187
-0.28704882 -0.17724428 0.031720724 0.06918054 0.032813467 0.026038807 0.020539466 0.008706616
-0.08399588 0.024879457 0.08450354 0.077012956 0.09419848 0.106202506 -0.030314542 0.017937243
-0.020138703 -0.16780618 -0.244808 0.18138374 0.15172015 0.025359003 -0.0008105703 0.03324422
-0.1045378 -0.26483092 -0.4127926 0.15770856 0.10499792 0.007795339 -0.0054986356 -1.2529919e-06
-0.15767805 -0.07913323 0.054734416 0.06948309 0.0051800273 -0.007391712 -0.10283788 -0.010107238
-0.07962783 -0.06312864 -0.04598373 -0.048427813 -0.13293059 -0.10316613 -0.0824063 -0.025836954
-0.010972392 -0.0052370657 0.0016763108 -0.0038066825 -0.019659158 -0.021294791 -0.01655428 -0.008859985
00000000: 4947 333d cb45 443d 69c3 043d 27a2 c03c
00000010: a754 e93a ea8d c6bc 71a4 cfbc cd65 6abc
00000020: 5add 41bd 2b2f a1bd 7b43 b9bd 20ba d8bd
00000030: 5301 acbd f9ac 07be dfde 23be 4d94 10be
00000040: 483d a8bd 9893 98be 3519 04bf 9d29 1cbf
00000050: 6d73 b9be e325 74be b766 edbd a67c 3cbc
00000060: ec2a 73bd 1583 40be 552c 95be 9a5b d8be
00000070: 3f94 b83e b2eb 923e a9b9 c43d 461a 2a3e
00000080: a517 7ebd 9379 10be 2009 46be 6414 58be
00000090: 6412 813e f59e bc3e 78b9 d13d 8f3e f33d
000000a0: 1c50 cfbc 2dba 38be 8f9d 58be 1ade 9dbe
000000b0: 8df0 a9be 57df 22be 3905 6cbd 69d6 d73b
000000c0: 46c4 683b 8a9f f6ba 032a 23bc bd61 75bc
000000d0: 1e43 27bd bc8f 8bbd d9e8 bcbd b6b4 c1bd
000000e0: c72e 0bbb 874f 78bc 6f6e 0cbd 00e8 d1bc
000000f0: 6728 e5bc 09b9 e7bc 8a42 38bd f4d9 38bd
00000100: 9e8b 773d 4296 9e3c a5aa 36be fb6d 3ebe
00000110: d463 f7bd 4799 bc3c cb0c 2f3d 36f7 2a3c
00000120: ab88 8b3d e78f e73b 6343 68be bdc2 88be
00000130: 04d3 88be 4feb 05be 4ef2 f4bc e133 2a39
00000140: 2b2a 54bd 9dfd c13d 230e ae3d 76e1 aabd
00000150: 86b5 07be fdf1 b1bd 8ebe d9bc b489 083d
00000160: 64fd 94bd d869 193d 66f5 933d e313 2abd
00000170: be83 1dbe ff83 76be cee0 22be 6f5c 6bbd
00000180: 7167 f1bd ea92 ddbd 164a 9fbd 4ce4 b2bd
00000190: 81eb 11be d0b8 21be 6774 39be c221 2cbe
000001a0: 23d6 13bd 4342 9fbc 8cb6 583c 4140 c5bc
000001b0: bcb6 e6bd f892 02be f23c 1dbe 28e0 fabd
000001c0: 43b3 21bd ca8b ecbb 752c 09bb fe24 f3bc
000001d0: 9219 9cbd 7403 dcbd e2fc d3bd f0e9 8ebd
000001e0: ab20 71bd bf23 43bd ac1a faba 0ef7 a2bb
000001f0: 28d3 9bbc abdf e9bc 3945 dbbb a4a1 b33b
00000200: 378f b03d 1755 6b3d f8bc bcbc cd01 f4bc
00000210: 68bd e6bb 2ecc 203d a904 783c 31b2 14b9
00000220: b82b f33d e162 ae3d d3f4 f73b e929 29bc
00000230: 27db a13c a659 683d e685 493d 0878 0f3d
00000240: f622 c33b 6ac3 253b fd72 8c3c 263f 453d
00000250: 4453 473d 06df 3f3d 5cc4 973d caf0 7d3c
00000260: 2f85 33bd 3c6f 27bf b0b9 42bf b3e7 46bf
00000270: 69bb 1fbe d903 483b a663 503d d847 193c
00000280: aa4f edbd f290 3fbf 7f8b 59bf db2b 4abf
00000290: a84b 47be b8bf 3bbd c961 ac3c da8a 29bc
000002a0: 4a10 7bbd a3c7 e9be 65e2 c9be 57b6 d6be
000002b0: dcf5 fbbd 282f b5bc 3b5b e03a f0e0 46bd
000002c0: b1b6 1ebd 6dbd 09bf 65f4 0cbf da08 f7be
000002d0: 4e14 bbbe f03b 3cbe bdb7 dabd 782e 15be
000002e0: a3a5 0bbe 860d 51be 16bb 81be 1e8e 8bbe
000002f0: 8738 b0be 64ce 99be 6d5e 3abe 55c0 21be
00000300: 43bc 7ebe 1334 28be 18d4 603d 1629 8d3d
00000310: ae04 103c d143 c3bb 64e8 353c dc0e 3d3c
00000320: 10f8 92be 867f 35be 97ed 013d 87ae 8d3d
00000330: 6a67 063d 564f d53c 6242 a83c 32a6 0e3c
00000340: 0806 acbd 01d0 cb3c 3110 ad3d f8b8 9d3d
00000350: 22eb c03d b380 d93d 3456 f8bc 20f1 923c
00000360: ecf9 a4bc 62d5 2bbe f3ae 7abe a9bc 393e
00000370: 875c 1b3e afbd cf3c 747c 54ba 172b 083d
00000380: ea17 d6bd eb97 87be 8d59 d3be 5a7e 213e
00000390: 2609 d73d 0b70 ff3b e62d b4bb 792c a8b5
000003a0: 5b76 21be 9a10 a2bd 3231 603d 264d 8e3d
000003b0: 38bd a93b 2d36 f2bb ab9c d2bd d498 25bc
000003c0: ea13 a3bd 9749 81bd 7059 3cbd 3e5c 46bd
000003d0: f51e 08be c448 d3bd a2c4 a8bd 05a8 d3bc
000003e0: 8cc5 33bc b19b abbb a8b7 db3a 8979 79bb
000003f0: 3e0c a1bc 6a72 aebc d79c 87bc 7829 11bc
