experiments/latent_only/encoder.pt (torch, 289431 bytes, 6 tensors)

encoder.0.weight f4 [32, 1, 8, 8]
0	0x3d2bc7ab	0.041938465
1	0xbd816e86	-0.06319909
2	0x3dc4f42d	0.09616885
3	0xbce02b58	-0.027364418
4	0xbdc8262a	-0.09772904
5	0xbae3ef8d	-0.0017390117
6	0xbdf8b999	-0.12144775
7	0x3ddcfb03	0.10790064
8	0xbb4f1b95	-0.0031602134
9	0x3d0fb1b9	0.0350816
10	0xbc90e1c3	-0.017685777
11	0xbd3137fb	-0.043266278
12	0xbca5e15d	-0.020249063
13	0x3d820e8e	0.06350432
14	0x3dc28a72	0.094990626
15	0x3d626246	0.055269502
16	0x3de9ff62	0.114256635
17	0x3cd54dbf	0.026038049
18	0xbdb9fa65	-0.09080962
19	0xbceb6ec6	-0.028739344
20	0xbcc39ec6	-0.02387942
21	0xbd92b4ff	-0.071634285
22	0x3cf8a3f8	0.030351624
23	0xbdc47931	-0.09593428
24	0xbbf4f618	-0.0074756257
25	0xbdc2e7ab	-0.095168434
26	0x3df81a63	0.12114408
27	0x3d92cf23	0.071684144
28	0xbca51956	-0.020153683
29	0xbdf03899	-0.11729545
30	0xbd74f366	-0.059802435
31	0x3d5ba49a	0.053623773
32	0x3bd6674e	0.0065430766
33	0xbcfef900	-0.031124592
34	0x3d5c3b14	0.05376728
35	0xbcf7f479	-0.03026794
36	0xbd5d4552	-0.054021187
37	0x3d4bfbf0	0.049800813
38	0x3cebbc71	0.02877638
39	0xbcb5f756	-0.022212666
40	0xbda235e1	-0.07920433
41	0xbd63311e	-0.055466764
42	0x3d5296cd	0.051413346
43	0xbb8a02ae	-0.004211745
44	0xbcb1fe96	-0.021727841
45	0xbdb21771	-0.08695877
46	0x3de40779	0.11134238
47	0xbdd68795	-0.10475079
48	0xbb0dd9e3	-0.0021644763
49	0xbd1265fa	-0.035741784
50	0xbd75ceb2	-0.060011573
51	0x3d975d23	0.07390811
52	0x3d301faa	0.042998947
53	0xbd6af2eb	-0.05736057
54	0xbde90dc9	-0.113795824
55	0xbd8ab0b9	-0.067719884
56	0x3c38e46c	0.011284929
57	0xbbf08f12	-0.007341274
58	0x3a9a8eb6	0.0011791799
59	0xbcfdabd6	-0.030965727
60	0x3d1d37b9	0.03838322
61	0x3dbec3d1	0.09314693
62	0x3daa6a89	0.08321101
63	0x3ba2340e	0.004950053
64	0x3c77264d	0.015084815
65	0x3d97e75d	0.07417176
66	0xbdc51c8d	-0.09624586
67	0xbd578c14	-0.052623823
68	0xbd6d6a14	-0.057962492
69	0x3e6e9cf3	0.23302059
70	0xbd4a9d0b	-0.049466174
71	0xbd81f8cf	-0.063462846
72	0xbdde1075	-0.10842983
73	0xbbccbe3a	-0.0062482627
74	0xbd4d501f	-0.050125238
75	0xbd829997	-0.06376951
76	0x3c130258	0.008972727
77	0xbdbe3940	-0.09288263
78	0xbcf1efad	-0.029533232
79	0xbdaadcb9	-0.08342881
80	0xbc660bd7	-0.014040909
81	0x3c7f0c48	0.015566893
82	0xbe6906ff	-0.22756575
83	0x3e84fb08	0.25972772
84	0x3d12d093	0.035843443
85	0xbe22b2aa	-0.15888467
86	0xbb82eb50	-0.0039953366
87	0xbdb94ee8	-0.09048253
88	0xbd67b733	-0.056571197
89	0xbaf55c4d	-0.0018719524
90	0x3e0d34f6	0.13789734
91	0xbd4305ce	-0.047612958
92	0xbe1dccf2	-0.15410212
93	0xbd3d3495	-0.046192724
94	0xbe14b2ab	-0.14521281
95	0xbdea9d79	-0.11455817
96	0xbd192311	-0.037386958
97	0x3e2b28fe	0.16714856
98	0x3e1b5219	0.15168037
99	0xbe66d614	-0.22542602
100	0xbdc47b0c	-0.09593782
101	0x3ea7c6a0	0.32768726
102	0x3ece2853	0.4026514
103	0x3dade82b	0.08491548
104	0xbdc8ce83	-0.09805014
105	0x3df13531	0.117777236
106	0xbe6f9cd5	-0.2339967
107	0x3e43d2f8	0.19123447
108	0x3dc51e06	0.09624867
109	0xbc333a5c	-0.010939207
110	0x3e57dbca	0.21079937
111	0xbe6b9cd4	-0.23009044
112	0xbd6feaae	-0.058573417
113	0x3e2b359f	0.16719674
114	0xbe1f049d	-0.15529104
115	0x3e2ebb4a	0.17063633
116	0x3e408f04	0.18804556
117	0x3e941c2f	0.28927752
118	0xbdb9b8be	-0.0906844
119	0xbe48fa8a	-0.19626823
120	0xbe7e40ff	-0.24829482
121	0x3df470ab	0.11935552
122	0xbbbf3aaa	-0.0058358507
123	0x3dc9ff07	0.09863096
124	0xbe72deba	-0.23717776
125	0xbe6212f7	-0.22077547
126	0xbdc976e3	-0.09837129
127	0x3e613d1b	0.21995966
128	0xbdeb49ee	-0.1148871
129	0xbcedb798	-0.029018208
130	0xbdc7ed3e	-0.09762047
131	0x3c93dac8	0.018048659
132	0xbce53890	-0.027981073
133	0x3d24bf0c	0.04022126
134	0xbc81e3e0	-0.01585573
135	0xbc3efca0	-0.01165691
136	0xbd8d0892	-0.068864
137	0x3cb619b0	0.022229046
138	0x3dfc6612	0.12324156
139	0x3dfdc6b4	0.12391415
140	0xbdaae1d6	-0.08343856
141	0x3dc9de9c	0.098569125
142	0x3c8c9cb0	0.017164558
143	0xbd86b8ca	-0.065782145
144	0xbd3404f4	-0.043950036
145	0x3d525160	0.051347136
146	0xbd6237b0	-0.05522889
147	0x3903cc00	0.0001256913
148	0x3de24612	0.11048521
149	0xbde5b46a	-0.11216052
150	0x3ccadb20	0.02476269
151	0x3d95d06e	0.073151454
152	0x3b7f4e80	0.0038956702
153	0x3d2802c4	0.041018263
154	0x3dd3543e	0.10318802
155	0x3d08c2b0	0.033388793
156	0xbdf8a980	-0.121417046
157	0x3d546e9c	0.051863298
158	0xbcb3b700	-0.021937847
159	0xbd2ba0f4	-0.041901544
160	0x3ddd3a94	0.108021885
161	0xba91f680	-0.0011136085
162	0x3d2ee550	0.04269916
163	0xbde1bb70	-0.11022079
164	0xbdac2cf2	-0.0840701
165	0xbdc80eb2	-0.09768428
166	0xbd819ffa	-0.06329341
167	0xbdb956b2	-0.09049739
168	0xbc39a150	-0.011329964
169	0xbd999bd8	-0.07500428
170	0xbd232aa4	-0.039835587
171	0xbd408e84	-0.047010913
172	0xbb8448e0	-0.0040370077
173	0x3bcb8660	0.006211087
174	0x3cd94a80	0.026524782
175	0x3bcdd140	0.006281048
176	0xbd03b1b8	-0.032151908
177	0x39c94e00	0.00038395822
178	0x3c855278	0.016274676
179	0xbdc2b682	-0.09507467
180	0x3d2979f0	0.041376054
181	0xbdade72a	-0.08491357
182	0xbdca40c0	-0.09875631
183	0x3d4e233c	0.05032657
184	0x3dc59f64	0.09649542
185	0x3dab96ba	0.08378358
186	0xbdef7626	-0.11692457
187	0x3d91a8b0	0.07112253
188	0x3cd8e3a0	0.026475728
189	0x3ce0cde0	0.027441919
190	0x3d9afd6c	0.07567868
191	0xbdda5a20	-0.10661721
192	0xbd20bc69	-0.039242182
193	0x3da991cd	0.082797624
194	0x3c9fdb2c	0.019513689
195	0xbcebf432	-0.028802965
196	0xbe00c8ee	-0.12576649
197	0xbdf03650	-0.11729109
198	0xbdcdabf0	-0.1004256
199	0x3d1e403b	0.038635474
200	0xbdd3abfa	-0.10335536
201	0x3db16144	0.0866113
202	0x3d58c539	0.05292246
203	0x3c61d9c5	0.01378483
204	0xbcb6749a	-0.022272397
205	0x3d575b22	0.052577145
206	0xbd625b48	-0.055262834
207	0xbdf8e80f	-0.12153637
208	0xbd6348c5	-0.05548932
209	0x3da548e6	0.08070545
210	0x3de3ce37	0.11123317
211	0x3db0e5f8	0.08637613
212	0xbde3a86a	-0.11116107
213	0x3deaeacf	0.114705674
214	0xbd3809e4	-0.044931307
215	0x3d10f0a0	0.035385728
216	0xbdff6ea7	-0.12472277
217	0xbcea02f6	-0.028565865
218	0xbda7009f	-0.08154415
219	0xbc916ac4	-0.017751105
220	0xbdcb739e	-0.099341616
221	0x3cba8379	0.02276777
222	0xbda866c9	-0.0822273
223	0xbd144bf0	-0.036205232
224	0x3c93030f	0.017945794
225	0xbcbbffb5	-0.022949079
226	0x3dd60e44	0.1045194
227	0xbd0320d3	-0.032013725
228	0x3d7ebdb2	0.062192626
229	0x3db37e32	0.08764304
230	0xbd486a02	-0.048929222
231	0x3cffd497	0.0312293
232	0xbdd3daa1	-0.103444345
233	0xbdb3526f	-0.08755957
234	0xbc4f9fdb	-0.01267239
235	0xbdcee4a3	-0.10102203
236	0x3de576be	0.11204289
237	0x3d52cf9e	0.05146753
238	0x3d277fb7	0.040893283
239	0xba4007b2	-0.00073253654
240	0x3cde13b7	0.02710901
241	0xbc9a2a81	-0.018819096
242	0xbc0dbb8d	-0.008650673
243	0xbdafc2d3	-0.08582082
244	0x3d8da025	0.06915311
245	0x3db93ca6	0.09044771
246	0xbdbc166b	-0.091839634
247	0xbb29cee9	-0.0025910682
248	0x3d398a95	0.045298178
249	0xbdb433dc	-0.08798954
250	0xbd4f7b7e	-0.05065488
251	0xbdb3c9ec	-0.08778748
252	0x3d8e8c2d	0.0696033
253	0xbd966143	-0.0734277
254	0x3dbb48f8	0.09144777
255	0xbd2b09d7	-0.04175743

encoder.0.bias f4 [32]
0	0xbb8995b0	-0.0041987523
1	0x3e29eda8	0.16594565
2	0xbde5295e	-0.11189531
3	0x3d5f1331	0.05446166
4	0x3d2611a2	0.04054416
5	0x3d25f8d9	0.040520523
6	0x3d7a13ad	0.06105392
7	0x3e1f0b3d	0.15531631
8	0xbd005653	-0.031332325
9	0x3dc48b41	0.09596873
10	0xbd683d1e	-0.05669891
11	0xbd6424a8	-0.05569902
12	0xbcca5167	-0.024697019
13	0xbddc9fad	-0.10772643
14	0xbcf861c3	-0.030320054
15	0x3df2fbad	0.118644096
16	0xbc086a3e	-0.008326111
17	0xbe041908	-0.12900174
18	0x3ba372e0	0.0049880594
19	0xbc213f40	-0.00984174
20	0xbd0ff0e4	-0.03514184
21	0xbd63b580	-0.055593014
22	0x3d9e260e	0.07722102
23	0x3e248fac	0.16070431
24	0x3ab0cf80	0.0013489574
25	0x3d1c505a	0.038162567
26	0xbdf31c43	-0.11870625
27	0x3da5008c	0.08056745
28	0xbd5ffb39	-0.054682944
29	0xbddb51ac	-0.10708937
30	0x3d09d59a	0.033650972
31	0x3d0764eb	0.033055227

encoder.2.weight f4 [64, 32, 4, 4]
0	0xbd1afd1a	-0.037839033
1	0x3ccae049	0.02476515
2	0xbb643f3a	-0.0034827725
3	0xbb773459	-0.003772041
4	0xbd2bffa4	-0.041991845
5	0x3c680435	0.014161159
6	0x3d24606a	0.04013101
7	0xbc2b2f8e	-0.01044835
8	0x3c92dde4	0.017928071
9	0x3c0a8872	0.008455383
10	0xbb3beeeb	-0.0028676342
11	0x3c72e536	0.014825156
12	0xbcbf2778	-0.02333425
13	0xbcf11762	-0.029430095
14	0x3c92ed14	0.017935313
15	0xbabcff48	-0.0014419341
16	0x3e149ca8	0.14512885
17	0x3ca2ef4d	0.019889498
18	0x3cde7b63	0.027158445
19	0xbe1a18c0	-0.15048504
20	0x3e4b5c02	0.19859317
21	0xbe973ad4	-0.2953707
22	0xbd80304d	-0.06259213
23	0x3da8ef3a	0.08248754
24	0xbc959dd0	-0.018263727
25	0x3d986088	0.07440287
26	0xbd33355e	-0.043752067
27	0x3d6c4590	0.057683527
28	0x3b59152d	0.0033124194
29	0xbc397c67	-0.011321164
30	0xbbf4445a	-0.007454437
31	0xba74ddaa	-0.0009340892
32	0xbc68848f	-0.014191761
33	0x3c31bf12	0.010848777
34	0x3c103704	0.008802179
35	0x3c8f4cd8	0.017492697
36	0xbc98634a	-0.018602032
37	0xbb97b8a0	-0.0046301633
38	0xbce339b5	-0.027737478
39	0x3ce687af	0.02814087
40	0x3d1f8693	0.0389467
41	0xbd056916	-0.03257092
42	0x3d25cf4f	0.040480908
43	0xbcf4140b	-0.029794713
44	0x3ceb2c24	0.028707571
45	0x3cb04f9f	0.021522341
46	0xbcb46377	-0.022020085
47	0x3d1f0e75	0.038832147
48	0xbcdda3a4	-0.027055569
49	0xbcfaf2c7	-0.030633343
50	0x3c844caf	0.016149847
51	0xbbf61edb	-0.0075110025
52	0xbcde9327	-0.027169777
53	0x3d12891f	0.0357753
54	0xbc31ec27	-0.010859526
55	0xbd3098c5	-0.043114442
56	0xbd38c123	-0.045106065
57	0xbc572f84	-0.013133887
58	0x3cc31d8f	0.023817806
59	0xbc8fd10a	-0.017555732
60	0xbd0033a8	-0.031299263
61	0xbc0a333c	-0.008435067
62	0x3d01115d	0.0315107
63	0x3caac6c2	0.020846728
64	0xbe0e2be2	-0.13883927
65	0x3e3479bf	0.17624567
66	0xbddb24cc	-0.10700378
67	0x3e50eb6d	0.20402308
68	0xbd97baa1	-0.074086435
69	0xbe4c0aba	-0.19925967
70	0x3d5b4664	0.053533927
71	0xbe80b235	-0.2513596
72	0x3dc4ea64	0.09615019
73	0x3da84217	0.08215731
74	0x3dcb2aab	0.09920248
75	0x3dd32548	0.10309845
76	0x3b1f0fc4	0.0024270872
77	0xbd310da1	-0.04322589
78	0xbd8e4063	-0.069458745
79	0xbd0b5949	-0.034020696
80	0x3d9f160c	0.07767877
81	0x3cb9b266	0.022668075
82	0x3d40e395	0.04709204
83	0xbd3217c3	-0.043479692
84	0xbd65d8ac	-0.056114838
85	0x3e3e5fff	0.18591307
86	0xbdfb7370	-0.12277877
87	0xbd21c030	-0.039489925
88	0xbd94a2ab	-0.07257589
89	0xbcedb3be	-0.029016372
90	0xbd179f74	-0.0370173
91	0xbd841676	-0.064495966
92	0x3b313f20	0.0027045682
93	0x3ab32db0	0.0013670232
94	0xbd63afa1	-0.055587415
95	0x3e1b94a6	0.15193424
96	0xbddd4267	-0.10803681
97	0xbc97f0da	-0.018547464
98	0xbe0b02ce	-0.13575289
99	0xbcbbae93	-0.022910392
100	0x3e3576f5	0.1772116
101	0x3d554c2a	0.05207459
102	0x3e4625fc	0.19350427
103	0xbd576bf2	-0.05259318
104	0x3dd0366d	0.10166631
105	0xbd329d63	-0.043607127
106	0xbd4d64c2	-0.05014492
107	0xbdc808d9	-0.097673126
108	0xbe15b1b0	-0.14618564
109	0x3ea7fc77	0.32809803
110	0xbef920ef	-0.4865794
111	0xbbf7c91c	-0.007561816
112	0xbd113538	-0.035451144
113	0x3df0ca93	0.11757388
114	0xbe1d3b71	-0.15354706
115	0xbd38cdee	-0.045118265
116	0xbe1c540a	-0.15266433
117	0xbd1efec7	-0.038817193
118	0xbd9bdfd6	-0.07611053
119	0x3e0ced28	0.13762343
120	0x3c127c9c	0.008940842
121	0x3d87a20d	0.066227056
122	0xbe3c15fe	-0.18367764
123	0xbdb4bbd9	-0.088248916
124	0x3e22fe35	0.15917285
125	0xbd8373fc	-0.06418607
126	0x3e33d39d	0.17561193
127	0x3d25149d	0.04030286
128	0xbcb2a69f	-0.021807967
129	0x3d05ea2b	0.032694023
130	0xbd403ca5	-0.046932835
131	0xbbb6220b	-0.0055582575
132	0xbd14fc0c	-0.036373183
133	0xbd2b4b90	-0.04182011
134	0x3cdb32ff	0.026757715
135	0x3c2cc7ed	0.010545713
136	0xbc12ba46	-0.008955544
137	0x3d0bbaef	0.03411382
138	0x3cfb7523	0.030695504
139	0x3cbd0360	0.023072898
140	0x3d11e8b9	0.035622332
141	0xbd0b9324	-0.03407587
142	0x3d235e3b	0.039884787
143	0xbcae0d5a	-0.0212466
144	0xbc8021c1	-0.015641095
145	0xbcc72ec5	-0.024314294
146	0xbd187812	-0.037223883
147	0xbd715669	-0.058920298
148	0x3c518d4e	0.012790037
149	0x3d01630a	0.03158859
150	0xbcaf1e77	-0.021376831
151	0xbd28795a	-0.041131355
152	0xbd327c65	-0.043575663
153	0xbd076ff7	-0.033065762
154	0x3ba612cd	0.005068159
155	0xbb88c25f	-0.0041735615
156	0xbd6b3190	-0.057420313
157	0x3b80c33f	0.003929525
158	0xbbc44f11	-0.0059908708
159	0xbd35aa4a	-0.044351853
160	0xbcac4dd9	-0.021033214
161	0x3d07aa64	0.03312148
162	0x3ccad11f	0.02475792
163	0xbda310b8	-0.07962173
164	0xba7416aa	-0.00093112385
165	0xbe05880e	-0.13040182
166	0xbd334a81	-0.043772224
167	0xbe0354a6	-0.1282526
168	0xbaac9388	-0.0013166526
169	0xbddd591d	-0.10808013
170	0xbbbf6a44	-0.0058415253
171	0xbb51f601	-0.00320375
172	0xbd065fd4	-0.032806233
173	0x3cf03097	0.029320044
174	0x3d21da6a	0.039514937
175	0xb824f24c	-3.9326304e-05
176	0x3cde345a	0.027124573
177	0xbcb84216	-0.02249245
178	0xbcc52520	-0.024065554
179	0x3b6c28bf	0.0036035029
180	0x3bd3eb44	0.006467255
181	0x3ce85dbc	0.028365009
182	0x3d12f74e	0.03588038
183	0xbc9452d7	-0.018105907
184	0x3cf59cb8	0.029981956
185	0x3bcacd3d	0.006189017
186	0xbd22ce30	-0.039747417
187	0xbb82b4f5	-0.003988857
188	0x3cfc32b7	0.030785901
189	0x3ccfd84e	0.025371697
190	0x3cf05cf9	0.029341208
191	0xbcff7243	-0.031182414
192	0x3dac32ad	0.08408103
193	0x3e8ebd8c	0.27878988
194	0xbe38b6b2	-0.18038443
195	0x3ddd0cfb	0.107934915
196	0xbd0b9db4	-0.034085944
197	0xbe3c7de3	-0.18407397
198	0xbe5724aa	-0.2101008
199	0x3d49d07a	0.049271084
200	0xbe87d665	-0.26530758
201	0x3e11bafc	0.14231485
202	0xba56a293	-0.00081876776
203	0xbd1f8688	-0.03894666
204	0xbd045e66	-0.032316588
205	0x3d7046de	0.058661334
206	0x3e26278e	0.16226026
207	0x3cbf30dc	0.023338728
208	0x3c89bfa2	0.01681501
209	0x3ec90538	0.39261794
210	0x3ee4ef06	0.4471361
211	0x3d8b1177	0.067904405
212	0x3e885832	0.26629788
213	0xbea827a0	-0.3284273
214	0x3e94c0da	0.29053384
215	0x3d37b09f	0.044846173
216	0xbd7da0f5	-0.06192108
217	0x3d099ed0	0.03359872
218	0x3ecfda5c	0.40596282
219	0xbf171f32	-0.59031975
220	0xbd7d130a	-0.061785735
221	0xbf08f7af	-0.53502935
222	0xbb4f0d6e	-0.0031593698
223	0xbea001ba	-0.31251317
224	0x3d08797f	0.033318993
225	0xbc1a45f4	-0.009416092
226	0xbd7d52ac	-0.06184642
227	0x3d5159d8	0.051111072
228	0x3d1fb90b	0.03899483
229	0xbcb48ddc	-0.0220403
230	0x3d95e3de	0.07318853
231	0xbe0e5a4f	-0.13901637
232	0x3df4f08a	0.11959942
233	0xbe506b2c	-0.20353383
234	0x3db02084	0.08599952
235	0xbddbf45a	-0.10739966
236	0x3d179976	0.037011586
237	0x3d6694a4	0.0562941
238	0x3d328bf0	0.043590486
239	0xbd87030c	-0.06592378
240	0x3bc749ed	0.0060818107
241	0xbbf8d49c	-0.0075937044
242	0xbdf50361	-0.11963535
243	0xbd3104eb	-0.04321758
244	0xbc1799b7	-0.009252957
245	0xbdd75ae8	-0.10515386
246	0x3c2c569f	0.010518699
247	0xbd0337f7	-0.032035794
248	0x3d33aea7	0.043867733
249	0x3d1ad9f8	0.037805527
250	0x3dae316e	0.08505522
251	0x3d6bb873	0.05754895
252	0x3c8a9198	0.016915128
253	0x3d686767	0.056739237
254	0xbcb93b6a	-0.022611339
255	0xbbddd84b	-0.006770169

encoder.2.bias f4 [64]
0	0x3d829ee9	0.06377966
1	0xbc7c92eb	-0.015415887
2	0xbd70940f	-0.05873495
3	0xbcf28450	-0.029604107
4	0x3cff127a	0.03113674
5	0xbd34e957	-0.044167843
6	0xbc90ffc7	-0.01770009
7	0xbd3ecccb	-0.046582025
8	0xbcabfbb7	-0.02099405
9	0x3d8a4e3a	0.06753202
10	0xbc893177	-0.01674722
11	0x3d82505c	0.063629836
12	0xbd3bc9bf	-0.045846697
13	0xbd25c5ea	-0.04047195
14	0x3bfedd9b	0.0077778823
15	0xbd6dd902	-0.058068283
16	0x3c6cc314	0.014450807
17	0xbd2523ba	-0.040317275
18	0xbc576cbf	-0.013148486
19	0x3d26a63f	0.04068589
20	0x3c9123e4	0.01771731
21	0x3d393a18	0.04522142
22	0xba91e81c	-0.0011131796
23	0x3be6a52d	0.0070387335
24	0xbd8a6861	-0.0675819
25	0x3d2e3696	0.042532526
26	0xbd93dc9b	-0.072198115
27	0x3c1d494d	0.009599996
28	0xbd80ab4b	-0.062826715
29	0x3d0cafdf	0.03434741
30	0xbc311ce2	-0.010810109
31	0xbc770ebb	-0.015079196
32	0xbc9f7c9c	-0.019468598
33	0x3cca018d	0.024658943
34	0x3d168034	0.036743358
35	0xbc68866a	-0.014192203
36	0xbd05ec65	-0.032696147
37	0x3a44d39b	0.00075083383
38	0xbc3b1b80	-0.011420131
39	0xbc9fddd3	-0.019514954
40	0xbd16bc4b	-0.036800664
41	0x3d8dd305	0.069250144
42	0xbd2b385f	-0.041801807
43	0x3d369353	0.044574093
44	0x3bfa994a	0.007647668
45	0xbd3c2df6	-0.04594227
46	0x3d18cb59	0.037303302
47	0xbd013d0b	-0.031552356
48	0x3d9ba7ce	0.076003656
49	0xbd48a786	-0.048987888
50	0xbd083075	-0.033249337
51	0x3d944c19	0.07241077
52	0x3dac0789	0.08399875
53	0xbd446c30	-0.04795474
54	0xbd94029b	-0.072270595
55	0x3c3d60cc	0.011558723
56	0xbcf577dd	-0.029964382
57	0xbd61e3c3	-0.05514885
58	0xbd2ea974	-0.04264207
59	0x3db043aa	0.08606656
60	0x3d25e8d3	0.04050524
61	0xbc8cca08	-0.01718618
62	0x3cde65c7	0.02714814
63	0xbcf4d16c	-0.029885016

encoder.4.weight f4 [64, 64, 3, 3]
0	0xbec0a5a3	-0.3762637
1	0xbe16e0cd	-0.14734192
2	0x3e6b70dd	0.22992273
3	0xbddf1372	-0.10892381
4	0x3eea97bb	0.45818886
5	0x3e3e801d	0.18603559
6	0x3d4fac5d	0.050701488
7	0xbc3b0a71	-0.011416064
8	0x3c06f08e	0.008236064
9	0xbdc7097e	-0.09718607
10	0x3e3596a9	0.17733254
11	0xbd9d0d39	-0.07668538
12	0x3e9d25d4	0.30692923
13	0xbe259da2	-0.16173413
14	0xbe9e205a	-0.30884057
15	0xbe2a05e0	-0.16603804
16	0x3d240563	0.0400442
17	0x3e845be3	0.25851354
18	0x3c936537	0.017992599
19	0x3d17bd46	0.03704574
20	0x3d117ed9	0.035521362
21	0x3a686316	0.00088648626
22	0xbc6ce5ca	-0.014459083
23	0x3d27f345	0.041003484
24	0x3bcc41d6	0.006233434
25	0x3a3885ab	0.0007038961
26	0x3d185e2a	0.037199177
27	0xb98eb4d7	-0.00027219087
28	0xbc6346a3	-0.013871822
29	0xbc81aa75	-0.01582835
30	0x3d46c6b7	0.048529353
31	0xbbaffff9	-0.0053710905
32	0xbcf048fe	-0.02933168
33	0x3c8e395e	0.01736134
34	0x3d49c9c9	0.049264703
35	0x3c848d60	0.016180694
36	0x3cef20a4	0.029190369
37	0x3d02ff2b	0.03198163
38	0x3dd25e6a	0.10271914
39	0xbd850ad9	-0.0649621
40	0x3e9fc906	0.31208056
41	0x3cc85cd5	0.024458328
42	0xbe6d1567	-0.23152696
43	0xbd9eebbd	-0.07759807
44	0x3ebee48b	0.3728374
45	0xbc54011f	-0.01293972
46	0xbbd38c23	-0.0064559146
47	0xbabb0af1	-0.0014270229
48	0xbce2ea97	-0.027699752
49	0xbc0cfb42	-0.008604826
50	0x3c1e3fa0	0.009658724
51	0x3bf95e64	0.007610129
52	0xbcb6cd97	-0.02231483
53	0x3d06c331	0.032900993
54	0xbd29aed8	-0.04142651
55	0x3cc09e66	0.02351303
56	0x3b74895d	0.003731332
57	0x3ce8d21e	0.028420504
58	0xbd03d987	-0.032189872
59	0xbd2a8006	-0.041626
60	0xbcaa00fb	-0.02075242
61	0xbd0ed7d1	-0.034873787
62	0x3cd6438c	0.026155256
63	0xbd24642c	-0.040134594
64	0xbbc6f644	-0.0060718376
65	0x3b9562b9	0.004558888
66	0xbc616fbe	-0.013759552
67	0x3cd954cb	0.02652969
68	0xbc30c446	-0.010788983
69	0x3bba8269	0.0056918156
70	0xbd1b53db	-0.037921768
71	0x3b6b52b8	0.0035907459
72	0x3d85b989	0.06529529
73	0xbd17e5ab	-0.037084263
74	0x3bf98890	0.0076151565
75	0x3d076374	0.03305383
76	0x3cae4932	0.021275137
77	0xbcbea740	-0.02327311
78	0xbbf0bea6	-0.007346946
79	0xbbc652fc	-0.006052373
80	0x3d054806	0.03253939
81	0x3d92cda8	0.07168132
82	0x3e0673f2	0.13130167
83	0x3c9817b9	0.018566
84	0x3e1cf8b7	0.15329252
85	0x3e0171f6	0.12641129
86	0x3ded1a20	0.115772486
87	0xbc8e0cfd	-0.017340178
88	0xbe9c9431	-0.3058181
89	0x3ebf4f27	0.37365076
90	0x3dc7a1bf	0.097476475
91	0x3e178e65	0.14800413
92	0xbdf0533b	-0.11734625
93	0xbe63763a	-0.22213069
94	0xbd9c70f3	-0.07638731
95	0x3da2e460	0.07953715
96	0x3da37ee5	0.079831876
97	0xbd3467ae	-0.04404419
98	0xbe78664c	-0.24257773
99	0xbd8cddb4	-0.06878224
100	0x3bcfb76d	0.0063390047
101	0x3d274b92	0.040843554
102	0x3dc5aab9	0.096517034
103	0x3ee69b57	0.4504039
104	0x3db13796	0.0865318
105	0x3df682c7	0.120366625
106	0xbd3b9bd4	-0.045802906
107	0xbe9cc223	-0.30616865
108	0xbc92e05b	-0.017929247
109	0xbc9900d2	-0.018677149
110	0x3cadd0f8	0.021217808
111	0xbce1441a	-0.027498294
112	0xbcce9870	-0.025219172
113	0xbce0f74e	-0.027461674
114	0x3c827907	0.015926851
115	0xbd3359b5	-0.043786723
116	0x3cec63f9	0.028856264
117	0x3c8f5bfb	0.017499914
118	0x3ca2b2eb	0.019860705
119	0x3bc8b082	0.006124557
120	0x3d047884	0.032341495
121	0x3b18bd00	0.0023306012
122	0xbbc396ad	-0.0059688897
123	0xbca398ab	-0.019970259
124	0x39822abb	0.0002482737
125	0xbc26be3e	-0.010177193
126	0xbd9124cd	-0.07087097
127	0x3e019c51	0.12657286
128	0x3df1cdc5	0.118068255
129	0xbdf9c687	-0.12196069
130	0x3f1fcdb6	0.62423265
131	0xbd0c28f5	-0.034218747
132	0xbdf62a8a	-0.120198324
133	0xbce1304d	-0.027488852
134	0xbd4a0a2c	-0.049326107
135	0x3ba06178	0.0048944317
136	0xbc776b7b	-0.015101309
137	0x3a978c3e	0.0011562181
138	0x39ac9131	0.00032914573
139	0xbccdd29a	-0.025124837
140	0xbc8859af	-0.016644327
141	0x3cdb35d2	0.026759062
142	0x3c977916	0.018490355
143	0x3b9bb9f0	0.00475239
144	0xbe1b09ae	-0.15140411
145	0x3da2ff85	0.07958893
146	0x3b084b16	0.0020796708
147	0xbd8d8e59	-0.06911916
148	0x3df8a0ad	0.121400215
149	0xbe54a1e8	-0.20764887
150	0x3eaf0701	0.3418503
151	0x3b9e897e	0.0048381677
152	0xbe376dc8	-0.17912972
153	0x3d23ccbf	0.039990183
154	0x3cfd13b0	0.030893177
155	0x3bb6bbc1	0.005576581
156	0xba068fdd	-0.00051331316
157	0xbd220756	-0.039557777
158	0x3ce8978e	0.02839258
159	0xbb8d83f6	-0.0043187095
160	0x3c3bd632	0.011464642
161	0x3c9b68a9	0.018970804
162	0xbe730a35	-0.23734362
163	0x3e059be8	0.13047755
164	0xbdf0fe73	-0.11767282
165	0xbea75b98	-0.32687068
166	0xbe6fa8aa	-0.23404184
167	0xbdbf2234	-0.093326956
168	0x3e17821f	0.14795731
169	0x3d8615e4	0.06547144
170	0x3e1a84bb	0.15089695
171	0x3e88d7b8	0.2672708
172	0x3dc26fea	0.09494002
173	0xbd9813f0	-0.07425678
174	0xbe363489	-0.17793478
175	0xbea17e88	-0.31541848
176	0xbe4d94e7	-0.20076333
177	0x3eacc5cb	0.33744654
178	0x3dca488c	0.098771185
179	0x3a893c05	0.0010470158
180	0xbe76c078	-0.24096859
181	0xba108347	-0.0005512726
182	0x3dbb3d06	0.09142499
183	0x3d7162a2	0.058931954
184	0x3e4ef756	0.20211539
185	0x3da2c84d	0.079483606
186	0xbdaff66d	-0.08591924
187	0x3dbd20f2	0.092347994
188	0x3baa5364	0.005197929
189	0x3e3767b0	0.17910647
190	0xbea91cf3	-0.330299
191	0x3c4fd62c	0.01268534
192	0x3caf13c7	0.021371735
193	0xbc10ac0d	-0.008830083
194	0x3e8f9460	0.2804289
195	0x3bad6bab	0.005292376
196	0xbd16c8f7	-0.03681275
197	0x3e17a2f3	0.14808254
198	0x3c8780dc	0.016540937
199	0xbd2c7bc1	-0.04211021
200	0x3c9b9692	0.018992696
201	0xbc3138de	-0.010816781
202	0x3d0f1a23	0.034937035
203	0xbd0aa8f5	-0.033852536
204	0x3cb9090a	0.022587318
205	0xbccb723e	-0.024834748
206	0x3ce4bef5	0.027923087
207	0x3e2f5886	0.17123613
208	0xbcb6d0a5	-0.022316286
209	0x3e09c669	0.13454594
210	0xbe409d27	-0.18809949
211	0xbe1cb849	-0.15304674
212	0x3e162d16	0.14665636
213	0x3d40d120	0.047074437
214	0xbd3229fc	-0.04349707
215	0xbcd92bda	-0.026510168
216	0xbd6afcd9	-0.05737004
217	0xbd70752c	-0.058705494
218	0xbcccd7cd	-0.025005246
219	0x3c4d831c	0.012543466
220	0xbcc04ddc	-0.023474626
221	0xbb931be5	-0.0044894093
222	0x3bcc7a7a	0.0062401863
223	0x3c41bca1	0.011824758
224	0x3c0d5a69	0.0086275125
225	0xbd66e179	-0.05636737
226	0x3bfb3476	0.007666166
227	0x3e03c7a8	0.12869132
228	0x3de4206d	0.11138997
229	0xbe0c2638	-0.13686454
230	0xbd0677c4	-0.03282906
231	0xbd7d8816	-0.06189736
232	0xbe2e154f	-0.17000316
233	0x3cc2e9da	0.02379315
234	0xbce2a548	-0.027666703
235	0xbcaa0c3f	-0.020757793
236	0x3c728737	0.014802746
237	0x3ce06629	0.027392464
238	0x3d030cbf	0.031994577
239	0xbd2f546f	-0.04280513
240	0xbc0933f5	-0.008374204
241	0x3bab1488	0.0052209534
242	0xbcc21b58	-0.02369468
243	0x3c8e63db	0.0173816
244	0x3ca96f0a	0.02068283
245	0xbd22a4aa	-0.039707817
246	0x3bdb1f73	0.0066870986
247	0x3d962a0f	0.07332241
248	0xbbb5a148	-0.005542908
249	0xbca1ed08	-0.019766346
250	0x3cac65b3	0.021044588
251	0x3d2d4133	0.042298507
252	0xbcd09da3	-0.025465792
253	0x3cf7845e	0.030214485
254	0x3d02cf6c	0.031936094
255	0x3cc929e8	0.024556115

encoder.4.bias f4 [64]
0	0xbd249a31	-0.04018611
1	0xbd0cbbcc	-0.034358785
2	0xbd2d09f6	-0.042245828
3	0x3e11e65a	0.14248028
4	0x3b943d40	0.004523903
5	0xbd67ad38	-0.05656168
6	0x3da0c331	0.0784973
7	0xbe0b96de	-0.1363177
8	0x3e9996b6	0.29997796
9	0xbd09a31e	-0.033602826
10	0xbccf9741	-0.025340678
11	0x3dead2bf	0.11465978
12	0xbc544990	-0.012956992
13	0x3e079def	0.1324384
14	0xbcbe3462	-0.023218337
15	0x3dbef6ba	0.09324403
16	0x3de20c45	0.110374965
17	0x3e56f55a	0.20992032
18	0xbd86cd42	-0.065821186
19	0x3d240d58	0.040051788
20	0x3b9d69e9	0.0048038852
21	0xbcc1aadf	-0.023641048
22	0xbd206a06	-0.03916361
23	0x3e6ea239	0.2330407
24	0x3e6fa42f	0.23402475
25	0xbb9053f4	-0.0044045392
26	0x3e909e72	0.28245884
27	0xbd0e582b	-0.034752052
28	0x3b1ce2f2	0.002393898
29	0xbd7d627b	-0.061861496
30	0xbd2b180b	-0.041770976
31	0x3d1b859b	0.037969213
32	0x3c0e1232	0.00867133
33	0x3e3e1891	0.18564059
34	0xbdfa2643	-0.12214329
35	0xbd220597	-0.039556112
36	0xbd60ff98	-0.054931253
37	0x3c855c42	0.016279344
38	0xbc84baab	-0.016202291
39	0xbd23a5e0	-0.039953113
40	0x3dbe6564	0.092966825
41	0xbd57cd9e	-0.052686326
42	0xbd1235eb	-0.03569595
43	0x3d9334b7	0.07187789
44	0xbd4dcbe3	-0.05024327
45	0xbca77016	-0.020439189
46	0x3dbebeac	0.093137115
47	0xbbf6f6ce	-0.0075367456
48	0xbd4a1ef6	-0.049345933
49	0xbcbffc26	-0.023435663
50	0x3d62dc8b	0.055386107
51	0xbd3d469c	-0.046209916
52	0x3bcd9ada	0.0062745633
53	0x3c200fc7	0.009769387
54	0xbcfe5c04	-0.031049736
55	0x3da65ef4	0.081235796
56	0x3b9f4f56	0.0048617525
57	0x3e43ac9e	0.19108817
58	0xbd151b66	-0.036403082
59	0xbd5420a1	-0.05178893
60	0x3e626d54	0.22112018
61	0x3d385f4c	0.045012757
62	0x3c50bb2e	0.01273994
63	0x3e549896	0.20761332
