experiments/latent_only/encoder_features_dim_576.pt (torch, 335055 bytes, 8 tensors)

encoder.0.weight f4 [16, 1, 8, 8]
00000000: 6697 363d 2af5 d2bd f19d cdbd 2933 e53d
00000010: f3c5 7e3d f495 083e e8ee 033e 50c4 033e
00000020: c84d f83d c255 3a3c ef2b 363d 597c babd
00000030: ae1a 423c 57bf 553d 38e0 ec3d c6d9 cd3d
00000040: 38cd 2a3d 84f8 303c 8d38 883d 2775 343d
00000050: bd37 97bd 56d7 19bd 3d46 c1bd 6025 c63c
00000060: 4fd8 79bb 7337 0d3e b996 babd 02df e9bd
00000070: 3ad6 00be c601 dbbd 0a28 a43d b6e9 a4bd
00000080: 6d49 1fbd 16c7 2f3e 57c5 13bd 0031 f2bd
00000090: af28 793d 5f59 aabd 856c e3bd 74c5 c8bd
000000a0: 3bea 09bd 0d3b 47be 5d35 2ebd 302f 083d
000000b0: 77ed 7fbe ea9d 24be dc1b 1ebe bda2 06be
000000c0: afff f3bd 05b1 fdbc 3462 99bc d6cd a2be
000000d0: 8ab7 c3be f315 b4be 98bb 42be 1062 9ebe
000000e0: 749d 8d3e 46cc 3c3d dde3 acbe f358 d0be
000000f0: 20a3 5fbf 9db2 1bbf 3fb2 3ebf 6e3a 07bf
00000100: dc57 c5bd 8c8a 423d 5e3d c1bd 0a86 d6bd
00000110: c0ea 9c3b 4804 ba3d ec06 70bd 866e 93bd
00000120: 7c96 6bbd 1a85 c63d 0c57 85bd c82d 033d
00000130: 7c99 efbd 840a 07bd 341d d7bd 101c aa3d
00000140: ea6a b63d 80a9 8f3c ac53 023d d41e 40bd
00000150: 0c53 bd3d 5097 babd 2437 06bd 6036 dabb
00000160: 6c1d 22bd d830 a9bc 3062 7e3d 640c 7fbd
00000170: da76 88bd 20ad 1a3d d812 813d 308d 67bd
00000180: 0099 6b3b f091 3fbd 80f5 dbba 9e88 c43d
00000190: f8d6 a7bc 40da 0b3c 00da 83bd 68c5 2ebd
000001a0: f8a9 b3bd 80a5 cc3a b022 0ebc a02b b6bd
000001b0: e075 dabc de8a e5bd e06e 803b 1431 003d
000001c0: d89c d5bd 6026 bcbb c4a1 913d 66ee e6bd
000001d0: 9475 9c3d 6023 c9bd 7438 97bd 60c9 d5bd
000001e0: da0c cebd 7e96 8d3d c8ac 983d 3026 9bbc
000001f0: 800a efba c6e6 a1bd 4c1b cd3d c0a6 3cbd
00000200: d123 d13d 2415 0d3e fd66 fe3d 5e95 993b
00000210: 2934 473d a8c7 cbbd 4d91 92bd cec0 f4bd
00000220: 7ae3 80bd ec8a 7e3d c1f1 803d 1dd0 74bd
00000230: 83d8 18be 84ee 30be 6d79 00be f773 4bbe
00000240: 2101 723a 652d 4a3d f54b 753e e298 b33d
00000250: 9348 21be e3ac a13d 6fbf 42be 378e c9bd
00000260: 0a1a ea3b 311a 643e d949 4f3e ab5b 1d3c
00000270: 8976 adbd e4ea 1d3c 6c28 ddbd 7806 f0bd
00000280: 5cf7 7e3c c46f 0d3e 6ca6 1bbd 0be8 46bd
00000290: d6b4 f7bd c609 6c3d 13a0 5abd 79a3 fabc
000002a0: 90be f83d 5bb9 293e b5f5 d93d 2c1c 1e3c
000002b0: b7e5 04bd ba67 1ebe fea5 d33d 1326 acbd
000002c0: 9a42 353e bedc acbd 2627 1bbe b67d 0abe
000002d0: 520c dcbd ffda c03d 7961 c73d 2e18 0f3e
000002e0: b06c 1d3e 6e52 0bbe 3bda 2dbe 20d8 9abc
000002f0: e437 c0bd 274a b0bb ee29 cc3d aacd 8a3d
00000300: d58c 87bd 043d 963c 8a07 dfbb 08af 92bd
00000310: 5bc6 ba3d c7be 9f3d 2376 1c3e 532e dc3d
00000320: 8732 9fbd 9e36 e63d 5abd 873d ef1d 0d3e
00000330: 7a56 113e de69 133e a367 85bd 0c3d 143d
00000340: 5357 cf3d 32c2 d1bd 430f 063e 20a5 9dbc
00000350: df34 fe3d 9c54 96bc f746 70bd 545e 003e
00000360: d3ed 013e dba6 90bd 0cd6 34ba fc26 a43d
00000370: 4948 9bbd cb64 51bb cd88 c9bd f095 dfbd
00000380: d6da 90bd 38f9 9dbd 7d13 fbbd a7a7 40bc
00000390: 440a 60bb 7e1e e8bd db59 a7bd e687 90bd
000003a0: 6dfb 1dbd 1d44 af3d c5f9 b63b 03b4 d03c
000003b0: 6f2f 063e 2044 03be 69ed 20bd 232f 13be
000003c0: c197 7f3d 996b f93c c59b 94bd f531 df3c
000003d0: 72d4 0fbd cd1b 2fbe bd8c 40be 7d3b 10bd
000003e0: 957f 863d 191a 173e 1b4e dcbd 5b3f 6f3d
000003f0: 988c aabc cdd7 163d df42 04bc 3fc9 93bd
0.04457798 -0.103006676 -0.100398906 0.11191399 0.062200498 0.13338453 0.12884104 0.12867856
0.121242106 0.011372985 0.044475492 -0.09105749 0.011847181 0.05218443 0.11566204 0.100513026
0.041699618 0.010801438 0.06651411 0.044057038 -0.07383678 -0.037558876 -0.09437225 0.024187744
-0.0038123315 0.13790683 -0.09110779 -0.114194885 -0.12581721 -0.10693698 0.08015449 -0.08052389
-0.038888384 0.17165789 -0.03607687 -0.11825752 0.060829815 -0.083178274 -0.11104683 -0.09803286
-0.033670645 -0.1945612 -0.04253136 0.033248127 -0.2499293 -0.16075864 -0.15440315 -0.13148017
-0.11914002 -0.030968199 -0.018723585 -0.31797665 -0.38225967 -0.35172996 -0.19016874 -0.3093419
0.2765919 0.046093248 -0.33767596 -0.40692863 -0.87358284 -0.6081942 -0.7449073 -0.5282353
-0.096358985 0.04749541 -0.09435533 -0.10474785 0.0047887266 0.09082848 -0.05860035 -0.07198815
-0.05751656 0.09693356 -0.065107435 0.032026082 -0.11699197 -0.032969013 -0.10503617 0.08306134
0.08907111 0.017536879 0.031818077 -0.0469044 0.092443556 -0.09110892 -0.03276743 -0.006659314
-0.03957884 -0.020653173 0.062105358 -0.062267676 -0.06663294 0.03776276 0.06302422 -0.05653113
0.003594935 -0.046770036 -0.0016781539 0.0959637 -0.020488247 0.008535922 -0.064380646 -0.04266873
-0.08772653 0.0015613288 -0.008675262 -0.088950396 -0.026667535 -0.112081274 0.0039194673 0.031296805
-0.10430306 -0.0057418793 0.071109325 -0.1127594 0.07639614 -0.098212 -0.073838145 -0.104388
-0.10061045 0.0691347 0.074548304 -0.018939108 -0.0018237382 -0.07905345 0.10014972 -0.046057463
0.102119096 0.13777596 0.12421987 0.0046869954 0.04863373 -0.09950191 -0.0715662 -0.11950837
-0.06293388 0.062144205 0.06296111 -0.059768785 -0.14926343 -0.17278486 -0.1254632 -0.19868456
0.00092317356 0.049359698 0.23954757 0.087693945 -0.15750341 0.07894304 -0.19018339 -0.098415785
0.0071442174 0.22275616 0.20243014 0.009604375 -0.084698744 0.009638522 -0.107987255 -0.11719984
0.015561905 0.13812166 -0.03800051 -0.048561137 -0.120950386 0.05762651 -0.053375315 -0.030595528
0.12145722 0.16574614 0.10642568 0.009650271 -0.032445636 -0.15469256 0.10334395 -0.084056996
0.17701188 -0.08440541 -0.15151653 -0.13524517 -0.107445374 0.0941677 0.09735388 0.13974068
0.15373492 -0.13605663 -0.1697778 -0.018901885 -0.0938566 -0.0053799334 0.09968935 0.067775086
-0.066186585 0.018339641 -0.0068063186 -0.07162291 0.091198646 0.0780006 0.1527944 0.10751023
-0.07773309 0.11240886 0.06627913 0.1378095 0.14193144 0.14395854 -0.06513908 0.03619103
0.10124078 -0.10242118 0.1309176 -0.019243777 0.12412428 -0.018350892 -0.058661427 0.12535983
0.12688379 -0.07063075 -0.00068983505 0.08015248 -0.07582147 -0.0031950946 -0.09840546 -0.1091727
-0.0707299 -0.0771355 -0.122595765 -0.011758721 -0.0034185806 -0.11333941 -0.081714354 -0.070571706
-0.038569856 0.085579135 0.005583974 0.025476461 0.13104032 -0.12818956 -0.039288912 -0.1437345
0.062400583 0.030446814 -0.07256273 0.027245501 -0.035114713 -0.17100449 -0.18803687 -0.035212982
0.06567303 0.14756049 -0.10757085 0.05841003 -0.020818993 0.036826897 -0.008072584 -0.07216119

encoder.0.bias f4 [16]
00000000: 4276 a83d 901d a8bd ac93 cd39 8ce4 edbd
00000010: e858 88ba 3415 8c3c d63b 92bd 64ec 653d
00000020: 74fa 2d3d e6a2 e73c 5119 ce3d 196c 1f3a
00000030: 1114 d43a 4b10 9c3c 6b50 5dba 9683 abbd
0.08225681 -0.082087636 0.0003921067 -0.116158575 -0.0010402473 0.017099954 -0.07140319 0.056133643
0.04247518 0.028275918 0.100634225 0.00060814765 0.0016180297 0.019050738 -0.0008442464 -0.083747074

encoder.2.weight f4 [32, 16, 8, 8]
00000000: 395b f73a d42e 41bc 1c89 d1bb 7abd c4bc
00000010: 741a 71bc feef f1bc 4c38 60bc c04b da3c
00000020: 2d5e b7bc d90a cb3b 07f9 c3bc 59c5 b4bc
00000030: 0ffc d2bc 87bf cdba c826 8d3c 7e09 403c
00000040: 6001 7f3b 2267 cb3c e63a 50bc b44c d8bc
00000050: 7424 f1bc 4b19 8fbb 2e77 b4ba 3ba3 b0bb
00000060: b36c bdbc 3a67 13bc ddc9 d4bc 401f 21bb
00000070: 7367 b43c bfe1 943c 6902 33bc 3cd1 88bb
00000080: 003f de3c 2d89 2f3b b217 cdbc 4ad0 b6bc
00000090: 7884 e9bc 8266 f3bc a2ab 18bc fe05 443b
000000a0: 261a 7d3c 466f f6bc 5463 4d3a 0fb1 ffbc
000000b0: 8c28 c9bc 6a26 993c 843a d03c 3db8 abb9
000000c0: 5a25 22bc 5a1c 01bd d9fe 57bc 1669 01bd
000000d0: b46a e6bc 7c30 9abb 96bb 0cbc c894 933c
000000e0: 1f02 32ba 2f58 dcba 7752 78bc 3657 ffbc
000000f0: b4fb c83c 9b77 c5bb 0425 ec3c f66c 9bbc
00000100: 0063 b5bc 124e 83bc 3a79 fabc a674 a53c
00000110: 3887 df3b 5e8a eb3c d8d1 dd3c c039 213c
00000120: 0c75 17bc 48a2 13bc 70c9 34bb 50f4 ebbc
00000130: 7e82 8c3c e003 9dbb 00ff 033b 8445 e03c
00000140: 60c1 a3bb 2816 afbc 14bf 12bc 4837 a0bb
00000150: 00b0 d937 4c1b d5bc 2cd4 2c3c 84a8 0d3c
00000160: 143e fabc a05f 3f3b 78e8 a3bb a8b3 9b3b
00000170: 5857 613c 5857 55bc f850 773c 80a4 b0ba
00000180: 6402 b5bc b416 4a3c 1e1e 813c 9e72 a7bc
00000190: d03c c9bc 5285 e63c 001c 1bbb ac11 e93c
000001a0: a86c a8bb f04f 653c 1829 b0bc 50bf 26bc
000001b0: a47b 443c 7ae2 fabc f4ef 37bc 50cd ffbb
000001c0: 48e4 97bc 348c 78bc a48c febc 8801 39bc
000001d0: 606b f23b d822 d9bb 20bb b5ba 50a5 d9bc
000001e0: d0b7 4b3b fce7 36bc e0d5 913b a06c d6bc
000001f0: 9062 2bbb c035 513a c0a3 da3a cc57 aebc
00000200: dd48 16bb 1501 183c e382 ce3c e09f f33c
00000210: ce43 ab3c b3e1 19bc 1a21 b83c 8ab3 b3ba
00000220: b885 c33b ec06 70bc a873 d53b b883 e5bb
00000230: 84bb 65bc 5b7b 043c d7d9 523c 18fc da3c
00000240: d0c5 e23c aada a5bc c202 e8bc 7f18 2f3c
00000250: cdaf 09bc 7577 62bc 4762 1c3c 0014 9d3c
00000260: ca19 e3bc 88d8 973c 7bf8 71bc c3d2 7cbc
00000270: 6ca4 fd3b 6340 ffbc a8f8 4c3b b352 e1bc
00000280: f8be 473b b348 5cbc 2f0a acbc b522 ccbc
00000290: 1b28 f23c 9b11 d03c 89cc f5bc 3165 2a3c
000002a0: b9c9 3ebc c181 63bc c7e9 cf3c 708c f23c
000002b0: a6e3 fd3c 0572 1dbc 625f de3c 6608 aabc
000002c0: d6de 3839 d17d 0cbb d0eb 023c 7b5a 11bc
000002d0: 3d46 5dbc 18f4 f13c 6019 bdbb ef0f 333b
000002e0: f3b0 503c 4362 083c 18cc ed3c 66e1 9b3c
000002f0: ca86 863c 1132 5cbc 2e54 ecbc 0de9 49bc
00000300: 0c5c a5bc e19d 4abc 0055 e2bc f62a 6d3c
00000310: 9445 9c3c 53b5 cebc f7b0 febc fda5 8ebc
00000320: e54a dd3c 6aac d93a f71e d8bc 5a7b 5b3c
00000330: 994c c0bc 3021 57bc cea2 d8bc d418 723c
00000340: 942f cb3b c723 a5bc ef50 283c 9687 7c3c
00000350: 7f0e d4bb aa93 86bc 88e6 8cbc 94f3 b4bc
00000360: a184 b93b 0479 44bc 7c14 6abc 64d0 7abc
00000370: d248 efbc 0054 8eb8 5a80 e33c 28fe cf3c
00000380: 0073 0fbb c078 e43c 521d 8b3c 94fd 233c
00000390: e057 b4bb 26e8 c13c 6c22 1fbc 4862 a9bc
000003a0: c08e ceba 06a0 c73c d452 be3c 68ce 7d3c
000003b0: 9031 473c fc48 9ebc 88af f93b 34bd 6cbc
000003c0: 865b a7bc e6ae aa3c 04f7 af3c fc9c e3bc
000003d0: 402d 62bc 8026 4f3a e017 63bb 04fe 04bc
000003e0: 2c80 4abc 68e8 5ebc 8acc b53c dc0f 34bc
000003f0: 5662 d93c 14eb f9bc 3651 e6bc 86f4 b83c
0.0018871791 -0.01179095 -0.0063945185 -0.02401613 -0.01471578 -0.029533383 -0.013685297 0.026647449
-0.022383774 0.0061963615 -0.023922456 -0.022066759 -0.025754957 -0.0015697338 0.017230406 0.011721013
0.0038910732 0.024829451 -0.012709355 -0.026403762 -0.029436328 -0.004367029 -0.0013768428 -0.0053905523
-0.02312312 -0.008996779 -0.025975162 -0.0024585277 0.022021985 0.01817405 -0.010925868 -0.0041753333
0.02712965 0.0026784644 -0.025035713 -0.022316117 -0.028505549 -0.029711965 -0.009318264 0.0029910798
0.015448129 -0.030082356 0.00078349304 -0.031212358 -0.024555467 0.018695075 0.025418527 -0.0003275293
-0.009896601 -0.03152118 -0.013183319 -0.03159436 -0.028127052 -0.004705487 -0.008589646 0.01801528
-0.0006790477 -0.0016810949 -0.01515638 -0.031169515 0.024534084 -0.006026221 0.028826244 -0.018972855
-0.022141933 -0.016028438 -0.030575383 0.020197224 0.0068215393 0.028752502 0.0270776 0.009840429
-0.009244215 -0.009010859 -0.0027585886 -0.02880302 0.017152067 -0.0047917217 0.0020141006 0.027376898
-0.0049974173 -0.02137287 -0.008956689 -0.0048894025 2.5950372e-05 -0.026013993 0.010548633 0.008646134
-0.03054718 0.0029201284 -0.0050020777 0.0047516413 0.0137537345 -0.013021313 0.015094988 -0.0013476759
-0.022095867 0.012334514 0.015761431 -0.020440396 -0.02456513 0.028139744 -0.0023667812 0.02845081
-0.005139906 0.013996109 -0.02150397 -0.010177448 0.011992369 -0.03062557 -0.011226643 -0.0078064576
-0.01854147 -0.015170146 -0.031072922 -0.011291869 0.007398054 -0.006626468 -0.0013864972 -0.026568085
0.0031084903 -0.011163708 0.0044505447 -0.026174843 -0.0026151277 0.00079807267 0.0016680881 -0.0212821
-0.0022931613 0.009277602 0.025208896 0.02973932 0.020906355 -0.00939219 0.022476722 -0.0013710123
0.0059668683 -0.014650088 0.0065140314 -0.0070042275 -0.014021758 0.008086051 0.01286932 0.026731536
0.027682215 -0.020245869 -0.028321628 0.010686993 -0.008403731 -0.013822426 0.0095449155 0.019174576
-0.027722258 0.018535867 -0.014768715 -0.015431109 0.007740548 -0.031158632 0.003127614 -0.027505254
0.0030478816 -0.013445067 -0.02100095 -0.024918893 0.02956014 0.02539902 -0.030004757 0.0104001025
-0.011644774 -0.013885916 0.025380028 0.029607981 0.03099234 -0.009609704 0.027145091 -0.020755958
0.0001763062 -0.0021437297 0.007990792 -0.00887167 -0.013505516 0.029535338 -0.005770847 0.002732273
0.0127375005 0.008324209 0.029027984 0.019028377 0.016421694 -0.013439671 -0.028848734 -0.01232363
-0.020185493 -0.012366743 -0.027628422 0.014475575 0.019076146 -0.025232947 -0.031090243 -0.017413134
0.027013252 0.001660717 -0.026381953 0.0133961085 -0.023474025 -0.013130471 -0.026444819 0.014776427
0.00620074 -0.020158662 0.010273202 0.015413186 -0.0064714546 -0.016427834 -0.01719977 -0.022088803
0.0056615626 -0.011991743 -0.01428711 -0.015308473 -0.029209528 -6.786734e-05 0.027771164 0.025389746
-0.0021888614 0.02788961 0.016981754 0.010009188 -0.0055036396 0.023670267 -0.009712797 -0.020676747
-0.0015759096 0.024368297 0.023232855 0.015491106 0.012157813 -0.019321911 0.007619802 -0.014449406
-0.020429384 0.020835351 0.02148009 -0.027784817 -0.013804734 0.000790216 -0.0034651682 -0.008117203
-0.01235966 -0.013605215 0.022192258 -0.010990109 0.026536148 -0.030507602 -0.028114896 0.022577535

encoder.2.bias f4 [32]
00000000: 0b5c 82bc 6570 283d fe8b 1fbd 3cb8 493d
00000010: 1014 80bc e053 9e3a cb2d 603c 508c 093d
00000020: e335 28bc cc6b 1f3d 11b8 e33c ef77 0e3d
00000030: bece 01bc e0bd 1ebb d5ef bbbc f2a7 5f3b
00000040: 6bc5 233d 45ff 3a3d 60d1 20bd 942b 65b9
00000050: 6b7a 613c 4086 cc3c 4955 493d eae3 debc
00000060: edac 62bc 1300 d43c 74f2 eabc bb73 57bd
00000070: 81d1 593d 3215 52bd e7f9 eb3c 3d59 c4bc
-0.01591303 0.041122813 -0.038951866 0.049247965 -0.015634567 0.001207944 0.013682793 0.033581078
-0.010266754 0.038921162 0.02779773 0.034782346 -0.007922826 -0.002422206 -0.02294151 0.0034127203
0.039983194 0.0456536 -0.039262176 -0.00021855376 0.013762097 0.02496636 0.0491536 -0.027208287
-0.013835174 0.025878942 -0.028680064 -0.052600604 0.053178314 -0.051289745 0.028805686 -0.023968333

encoder.4.weight f4 [64, 32, 4, 4]
00000000: d401 96bc 3ee2 f9bc f11d 793c fd1b 9b3c
00000010: 75bb e03c 2da4 a1bc 955f a83c c25d 9c3b
00000020: 275f 41bc 202d 45bc 1a0a fc3c 5376 4bbc
00000030: 8c1c b1bc 7274 9bbc 0a01 0b3c a9a6 86bb
00000040: aa3a 923c e0b5 7abc 94b1 63bc 9844 fcbb
00000050: b04b 9cbc 5720 94bc 7644 2cbd 70cb b1bb
00000060: 26c3 b63c 452d f3bc f62b 013d a1ed 193d
00000070: 5aee 45bd f17d 40bd 0adb 27bc 92c9 3abd
00000080: 2209 963c ba90 3fbc 1659 9bbc 6fc8 01bd
00000090: dd7e 313d c86c 42bc 29f6 5fbc 8ff7 123d
000000a0: b3fc 303d b0cb 003d 6930 29bd bdc0 813b
000000b0: 20ba cabc 2844 abbb 99c3 883b e5ad 053d
000000c0: c0f5 5dbc 01e2 503b 7566 f5bb 6fd1 f73a
000000d0: a773 ba3c 0dd2 c9bb a6e0 a6bc 161b febc
000000e0: 5f3b 9ebb f2f2 df3c 4d03 6ebb fc72 febc
000000f0: c60d c1bc d10b 24bd 0ead 04bc 4aa4 173d
00000100: e02c 623c fd94 eabc a55c 763c 3ffd 1ebd
00000110: 1a83 8dbc a45f b1bc ea56 153d 1ec5 2b3d
00000120: 9f21 933b f651 f83c 6790 9aba bffd e2bc
00000130: f3ef 4abc 7ead 203d 830c d1bc 9346 2abd
00000140: 1b9f 0f3c 8804 faba 8209 dc3c f10b 9cbc
00000150: 7efd b63c fc93 753c 8613 1d3a 746b 01bd
00000160: f72c ce3b d69c 5a3c c300 453b e5be 5fbc
00000170: fd96 503c a728 afbc 6178 d4ba af4b 9f3b
00000180: 63f1 65bc 3602 2dbd 7927 e8bc 6af7 9d3c
00000190: 58f3 3cbd ce03 31bd 86e9 b5bc 343e 0b3d
000001a0: 7293 24bc 8d04 823c e245 1dbd 72ba 17bc
000001b0: bd4b c0bc 6a52 cbbb c07b 1ebc 7372 6b3c
000001c0: 36b1 0bbd 20ae 94bc 285c 0fbd 2150 0fbd
000001d0: 499d 11bd 851f 823c fe17 d4bb c3de 0d3c
000001e0: f1bd 343c 603d b4bb 28d9 13bd 6717 b03c
000001f0: e41f fd3c 336c c23c 86bf d93c cded 103d
00000200: 0359 de3c ad23 02bc 665b 3abc 7e03 20bd
00000210: d1cd 16bc bc5a cfbc 81d4 983a adec bcbc
00000220: 6ca0 15bc 235a 8fbc 8de4 31ba 3ce2 e43c
00000230: 30a3 2a3c 5c87 023a 24e0 643c f7c5 323a
00000240: 66f5 13bd a0d5 14bd 2e3a cfbc 029a e9bb
00000250: 2652 183d 6a10 02bd 5b5a 2dbd 8c4b a3bc
00000260: a1c7 163d d711 183d af76 dc3c 62af 9f3c
00000270: 59a8 4fbc b333 0c3d 2f46 15bd 346a cf3c
00000280: c75f 4cbc aa6b 5bbc 2c0f 0dbd c69b 0bbd
00000290: 9303 d0bc 102a cfbb deae e23c 3822 dc3c
000002a0: 8225 2fbc 26f2 ec3c 31da 51bc bf99 35bd
000002b0: 1517 cbbc e111 89bc b46d ab3b c2b1 24bd
000002c0: 2a5f 29bc f952 a23c 09a6 15bc caf6 6e3c
000002d0: 0d0e af3c 6978 41bd de01 0ebd de47 6a3c
000002e0: 836a 0a3d dd05 34bd 7226 0c3d 042d 6ebc
000002f0: 928e 103d 1fd2 a83c 84c0 163d 152b 393c
00000300: 5344 593c 907b d2bb 45d5 053d f993 e13c
00000310: 6058 903b 3a48 293d 07b0 f33b 4d2e 30bd
00000320: d262 223c 0ff5 0f3d 00ee 023d ed13 e23b
00000330: bf6b 27bd 47d6 013d db64 013d 054a f9bc
00000340: c0cb 083d 97a5 26bd a1f8 42bd 0d3f b83b
00000350: a480 41bd 9689 f43c 70f7 0f3c 3aa0 adbb
00000360: 54f7 19bc 0ed0 babc d600 bfbb 2af1 3ebb
00000370: 02da 8bbb 0061 c33c 75b4 efbc f863 3ebc
00000380: c5d7 58bc 4eba 10bd af23 efbc 4b2a 90bc
00000390: 18ac 633c bdfb 21bd 3176 e4bc c6af adbc
000003a0: 7420 9a3c 53c2 233d 8c36 9bbc c8df b6bc
000003b0: 7105 0e3d 2666 063d 2c31 0dbd 9ccc 203d
000003c0: 8f26 233d da0e d5bb 3d18 303c 6747 f23c
000003d0: a40d ffbc 3489 85bc 9a92 0ebd 509f 403b
000003e0: 1d7c 983b 6c5b 23bd c4a4 86bc 7719 e13c
000003f0: 0228 cf3b 9e6c e23c 33db 223d 13f0 93bc
-0.018311419 -0.030503388 0.0152048925 0.018934244 0.027433136 -0.019731605 0.02055339 0.004771919
-0.011802471 -0.012034684 0.030766536 -0.012418347 -0.021620058 -0.018976424 0.008484134 -0.004109223
0.017850239 -0.015302151 -0.013897318 -0.0076986067 -0.01907906 -0.018081827 -0.042057477 -0.005425863
0.02230985 -0.029684672 0.031536065 0.037580136 -0.048323013 -0.046995107 -0.010245094 -0.04560239
0.018314902 -0.01169222 -0.018963378 -0.03168529 0.043333877 -0.011866756 -0.013669529 0.03588062
0.043209743 0.03144425 -0.041305933 0.003959744 -0.024746954 -0.0052266307 0.0041737077 0.032636542
-0.013547361 0.003187299 -0.0074890205 0.001890702 0.022760225 -0.006159073 -0.020370793 -0.031018775
-0.004828855 0.027337525 -0.0036317885 -0.031060688 -0.023566138 -0.04005033 -0.0080979 0.037021913
0.013804644 -0.028635496 0.015036737 -0.038815733 -0.017274428 -0.02165205 0.03645984 0.041936032
0.004490092 0.03031252 -0.0011792303 -0.027708886 -0.01238631 0.039227955 -0.025518661 -0.04157121
0.008765961 -0.0019074837 0.026860002 -0.019048663 0.022337671 0.0149888955 0.0005991984 -0.031596616
0.0062919813 0.013343057 0.0030060268 -0.013656353 0.012731311 -0.02138169 -0.0016210192 0.004861317
-0.014034602 -0.042238437 -0.028339135 0.019283015 -0.04613051 -0.04321652 -0.02220608 0.03399487
-0.010044919 0.01587131 -0.038396724 -0.009260761 -0.023473615 -0.006204893 -0.009673059 0.014370549
-0.03410455 -0.018149436 -0.034999996 -0.034988526 -0.03555039 0.01588417 -0.0064725867 0.008659068
0.011031614 -0.0055004805 -0.03609577 0.021495534 0.030898996 0.023733234 0.026580583 0.035383034
0.027142053 -0.007943076 -0.01137433 -0.03906583 -0.009204344 -0.02531182 0.0011660011 -0.023062075
-0.009132486 -0.017499035 -0.0006786071 0.027939908 0.0104148835 0.00049792766 0.013969455 0.000681966
-0.036122702 -0.03633654 -0.025296297 -0.007128955 0.037187718 -0.031753935 -0.042322498 -0.019933484
0.036811475 0.03712639 0.026912061 0.019492809 -0.012674415 0.03422899 -0.036443885 0.025319196
-0.012474007 -0.013392368 -0.034438297 -0.034084104 -0.02539233 -0.006322153 0.027671274 0.026871786
-0.010690095 0.02892406 -0.012808369 -0.044336077 -0.02479128 -0.016732158 0.0052315835 -0.040208586
-0.01033763 0.019814955 -0.009133824 0.014585206 0.021369005 -0.047233973 -0.03466975 0.014299361
0.033792984 -0.043950904 0.03421635 -0.0145371 0.035292216 0.020608006 0.03680469 0.011301775
0.013260919 -0.006423421 0.032674093 0.02753638 0.0044050664 0.041328646 0.0074367556 -0.043012906
0.009911256 0.035145815 0.031965256 0.006899348 -0.04087424 0.03169849 0.031590324 -0.030430803
0.033397436 -0.040685263 -0.047600392 0.0056227506 -0.047241822 0.029850762 0.008787021 -0.0052986415
-0.0093973465 -0.022804286 -0.005828957 -0.0029135444 -0.004267932 0.023849964 -0.029260853 -0.011620514
-0.013235037 -0.035333924 -0.02919182 -0.017598292 0.013896011 -0.039546717 -0.02788839 -0.02120198
0.018814303 0.039980244 -0.018946908 -0.022323504 0.034673158 0.03281226 -0.034470722 0.03925763
0.039831694 -0.0065020146 0.010747966 0.029575063 -0.031134434 -0.016300775 -0.03480778 0.0029391833
0.0046534673 -0.03988211 -0.016435988 0.027477963 0.006321908 0.027639683 0.039759826 -0.018058812

encoder.4.bias f4 [64]
00000000: 0bec 783b 1e0f 8bbc 1d58 9c3c c856 b23d
00000010: 8595 733d 2e54 8abc b1fc 8abd 3827 14bd
00000020: 745a 3cbc 34d1 df3d f707 f6bc 8bd5 a33c
00000030: 2cae 653d 839f 2f3d 66b8 48bb a896 4d3d
00000040: 11d5 96bc 890e 9b3d 16ad 893d 229c 0e3d
00000050: 544c dfbc 5479 0a3d d487 d9bc 06b2 593c
00000060: c646 13bd 9834 be3d 094b 653d ef4d 56bd
00000070: 2bb5 b23c 7b1a f8bc ff73 933d ce50 53bc
00000080: a2f3 b53c 159c 473d bbd5 323d 9a6f 573d
00000090: 61d5 d2bc 5ee3 87bc 27a3 e33c c51b 39ba
000000a0: be09 07bd ba52 6e3d 1237 1ebb cc0f 91bc
000000b0: 93c5 fb3d 53f4 593d ee9d 513d badc 013e
000000c0: de81 be3d cc05 3bba 4436 813c d1bb f0bc
000000d0: e5e5 16bd 7062 4d3b 1110 bcbb 83ab 9d3c
000000e0: 53f3 493c 0e35 613d a4f5 34bc bd81 c9bc
000000f0: f6d2 e7bc f684 ae3d 71b9 963c 878e 6f3c
0.003798249 -0.016974982 0.019084984 0.087079585 0.059468765 -0.016885843 -0.06786478 -0.036170214
-0.011496175 0.10928574 -0.030033095 0.019999286 0.056074306 0.04287673 -0.0030627488 0.050192505
-0.018412145 0.07571132 0.06722467 0.03481687 -0.027258076 0.033807114 -0.026554026 0.013287073
-0.035956167 0.09287375 0.055979762 -0.052320417 0.021814903 -0.030286064 0.07199859 -0.012897683
0.0222109 0.048732836 0.04366086 0.052596666 -0.025736513 -0.01658791 0.027787758 -0.0007061328
-0.032968275 0.058184363 -0.0024141711 -0.017707728 0.12293544 0.05321152 0.051176004 0.12681857
0.09302114 -0.00071343477 0.015772946 -0.029386433 -0.03684034 0.003133919 -0.00573922 0.019246822
0.012326079 0.054982238 -0.011044893 -0.024597997 -0.028298836 0.08521454 0.018398972 0.0146213835

encoder.6.weight f4 [64, 64, 2, 2]
00000000: 5dde 90bb 1dce 30bd d691 e33b 39f6 313d
00000010: bc89 abbc 7a88 1c3d 5031 56bc a4ec 81bc
00000020: 4ec7 233d 9b92 18bd e908 973c c787 52bd
00000030: 83bf 7dbd 17c5 5b3c 2d66 bfbb 89db 43bd
00000040: fbce 92bd 131a a73c 8048 62bd 3ce3 93bd
00000050: 7eb2 60bd 3878 57bd 92dd 503d d0fe a93b
00000060: 7ed2 5a3d f069 60bc 8068 7bba 240f c1bc
00000070: 5271 68bd d017 933c 0e8f 09bd 7043 6f3d
00000080: 8863 77bc c877 cebc 640f 8cbc 5819 b8bc
00000090: ccf9 bdbc 2924 ef3c 5b51 083d 605c 4d3c
000000a0: a6c0 24bd e45a 2ebd 082c 13bd 5845 39bd
000000b0: f40f ee3c a3ef 513c 9b22 27bc 0312 673d
000000c0: fb55 1c3d bf7f 36bc dcce ca3c 414d 1fbd
000000d0: cf3c 213c c1aa 5fbd 8e43 84bc 27c0 8fbd
000000e0: 3d1c 5bbc a504 85bd 4efe 98bc 82c7 f1bb
000000f0: 4445 613b cdc1 d4bc 4ab9 85bd 3db0 073d
00000100: 78b0 60bd 1cef 473c 4700 86bd 7bd1 67bd
00000110: 9ce0 36bb 7690 82bd 552b dcbc 3584 663c
00000120: 5d14 e2bc 49f6 06bd 745f cfbc 4d95 abbc
00000130: 2c82 8dbd 8aa7 7dbd 70d5 dcbb 8e86 1d3d
00000140: e05c 153c e0c7 1ebc 9464 c23c 78aa b53c
00000150: ba1f 89bd 4b0b f1bb ff54 823c 1293 3cbd
00000160: 70f5 86bc c4db 08bd 9440 8c3c 70cd 1cbc
00000170: d8ab 4cbc 3912 e23c 1b5e c0bc 1512 71bd
00000180: b3cd 17bd 0b1c c1bc e74b a3bb 7fdf bfbc
00000190: 47ca 74bd 2561 5b3c 8ae2 e4bc 098b 3fbd
000001a0: 1aba 1abd 22e9 02bd 8a2e 90bd 614e d2bb
000001b0: 4c87 103d 9679 eb3c 7d9d 51bd a009 e5bc
000001c0: 324c 7dbd 132f 26bd e042 aebc 7e0b 3dbc
000001d0: e2d0 60bd 184d 6bbc c4d1 a63c f67c 2c3d
000001e0: d3ca 82ba 6586 88bd 68e2 213d cffc 123d
000001f0: 3823 d5bc 20d5 e7bb 28f3 fe3c b41e 593d
00000200: 94ed 2abd 0683 65bd e083 ae3c c400 10bd
00000210: 98b2 04bd 3f09 88bd 0021 303c 3f48 8d3b
00000220: 4d1b 5fbd 35eb c63c d624 2c3d 4de4 073d
00000230: 11dd e03c 2a12 95bc 04e7 663c 55d4 bdbb
00000240: d9a8 863b fa7f 42bd adad 2a3c c4a4 b43c
00000250: 46b5 3a3b 231c 1fbb 5496 b13c 8727 19bd
00000260: 484b 6abb 3a69 23bd e04a 4f3d d95f 7bbd
00000270: 5048 663c fdd3 3f3d b0e4 bc3b 17f4 67ba
00000280: f8ae 5b3d 260d 46bd 64c8 e8bc 18c4 74bd
00000290: 5eb5 373d b1fe 84bd fa5b fd3c ac52 95bb
000002a0: 9280 1bbd 4140 e03c 0cf5 4abd 6f09 5cbd
000002b0: 6642 69bd 18a6 d73c 1cde f23c 6922 0fbd
000002c0: 582e 1c3d f1c1 c7bc c266 8bbc 9a41 83bd
000002d0: 0484 36bd 4f0b 33bb 7911 f8bc b565 84bd
000002e0: c290 adbc f0bb 273d 2d9f 0dbd 91ef b6bc
000002f0: 672d 4bbd 90f9 59bb af2c 71bd 929e 2cbc
00000300: f7db 473d 43fd da3c a9c2 313d 8de4 523d
00000310: 96e2 853c 2e65 4dbd 1b58 36bd d063 383d
00000320: a8c0 543d be3c 2cbd 701c 0a3c 6037 203d
00000330: b93f 553d 3f3d 39bd d7cd 7b3c 3cf3 833c
00000340: 609d adbc 42e5 5d3d c0a6 20bc 1412 6e3d
00000350: 4d49 07bd c04b e63c 8160 33bd 5de8 9c3c
00000360: d8eb 18bc c4fd 44bd b0bc 7dbd 283d 64bc
00000370: 2dff 4bbd 5f82 2ebc 8400 fd3c 74d4 08bd
00000380: de8e ea3c 143d f73c 05a2 923c e1cd efbc
00000390: 722f 333d caa3 ba3c 64e3 77bd b6c4 63bb
000003a0: 1932 db3c e87a 043d 4aad b7bc 28a4 443a
000003b0: 5d5a 05bc e3cb 6abd 936d 193d fb8d 6b3d
000003c0: 9a73 1ebd b9dc 4b3d 0733 4cbd dc2e c1bc
000003d0: 2ded 9f3c fe36 193a 7351 963c 8a8f bb3c
000003e0: 9606 53bd 6c16 143d 921e d83b 50a7 0b3d
000003f0: 3d93 91bd 65d1 2abd 05df cf39 655e 64bd
-0.004421039 -0.043165315 0.0069448752 0.043447707 -0.0209397 0.03821609 -0.01307328 -0.01585991
0.039984994 -0.03724919 0.018436866 -0.05139902 -0.061950218 0.013413689 -0.0058410377 -0.047816787
-0.07168385 0.020398175 -0.055244923 -0.07221076 -0.054857723 -0.052604884 0.050992556 0.0051878467
0.053423397 -0.0136971325 -0.0009590462 -0.02356679 -0.056748696 0.01795569 -0.033583693 0.058413923
-0.015099414 -0.0252036 -0.017097183 -0.022473022 -0.023190401 0.029192047 0.03328071 0.012534231
-0.040222786 -0.04256715 -0.035930663 -0.045232147 0.029060341 0.0128134815 -0.010201122 0.05641366
0.038167935 -0.0111388555 0.024756841 -0.038892034 0.009841158 -0.054606203 -0.016145494 -0.07019072
-0.013373432 -0.064950265 -0.01867595 -0.0073785195 0.003437356 -0.025971318 -0.06529482 0.03312706
-0.054855794 0.012203004 -0.06543022 -0.05659626 -0.0027904874 -0.0637521 -0.026876131 0.014069607
-0.0275976 -0.03294972 -0.02531407 -0.020945216 -0.06909594 -0.061927356 -0.006739311 0.0384584
0.009116381 -0.009691209 0.0237296 0.022176012 -0.066955045 -0.0073560826 0.01590967 -0.046038695
-0.016474456 -0.03341271 0.017120637 -0.0095704645 -0.012492143 0.02759658 -0.023482373 -0.058855135
-0.037061404 -0.023572942 -0.0049834135 -0.023422 -0.05976322 0.01338986 -0.027940053 -0.046763454
-0.037775137 -0.031960614 -0.070401266 -0.006418035 0.03528528 0.0287445 -0.051175583 -0.027958691
-0.061840244 -0.040572237 -0.021272123 -0.0115383845 -0.054886706 -0.014361642 0.020363696 0.04211136
-0.0009978659 -0.06666259 0.03952256 0.03588563 -0.02601777 -0.007074967 0.031121805 0.053007796
-0.04173048 -0.056033157 0.021303117 -0.03515698 -0.032396883 -0.066423886 0.010750055 0.004311591
-0.054469395 0.024282077 0.042027317 0.03317671 0.027449163 -0.018197138 0.014093164 -0.005793134
0.0041094837 -0.04748533 0.010417384 0.022051223 0.0028489395 -0.0024278245 0.021678127 -0.03739121
-0.0035750438 -0.039895274 0.050608516 -0.061370704 0.014055327 0.046833027 0.0057645664 -0.0008848323
0.05363366 -0.048352383 -0.028415866 -0.059757322 0.0448507 -0.06493891 0.030927647 -0.0045569744
-0.03796441 0.027374389 -0.0495501 -0.053719934 -0.056948088 0.026324317 0.029646926 -0.034944925
0.038130134 -0.02438447 -0.017016772 -0.06408997 -0.044559494 -0.0027319973 -0.03028177 -0.064647116
-0.02118719 0.040950716 -0.03457563 -0.022331031 -0.049603846 -0.0033260323 -0.058880504 -0.010535853
0.04879376 0.026732093 0.043398533 0.051487494 0.016343396 -0.05014532 -0.044517618 0.045017064
0.051941544 -0.042050116 0.008429632 0.03911531 0.052062724 -0.045224424 0.0153689 0.016107194
-0.021193206 0.054173715 -0.009805381 0.05812271 -0.03302889 0.028112292 -0.043793205 0.019153768
-0.009333573 -0.048093572 -0.061947525 -0.013930596 -0.0498039 -0.0106512 0.030884035 -0.033405736
0.028632578 0.030180492 0.017899523 -0.029272975 0.04374642 0.022783179 -0.06051959 -0.00347547
0.026757287 0.032343775 -0.022421498 0.0007501268 -0.00813922 -0.057323348 0.037458014 0.05750845
-0.038684465 0.049771044 -0.04985335 -0.023581915 0.019522274 0.0005844681 0.018349385 0.022895593
-0.051519953 0.036154196 0.006595441 0.03409511 -0.071081616 -0.0417036 0.0003964828 -0.055754084

encoder.6.bias f4 [64]
00000000: 8421 2a3d e096 8d3d 9a9a be3d f672 213d
00000010: af9e 2f3d b872 30bd 4268 82bd 989c ca3d
00000020: 5175 913d 3893 08bc 90f2 393d d492 31bc
00000030: e4ae 6e3c a6fc 113c 2d97 1cbd b1be 86bd
00000040: 30ae c4bc 8846 22bd e9eb 0b3b d887 53bd
00000050: 205c b53d 70ec d93c 3453 18bd 3e10 26bd
00000060: 13c1 0f3e 6711 dbbc d5a7 14bd ff0f bfbc
00000070: fc8e 233d 0ab5 833d 5620 6f3d a825 10bc
00000080: c772 bc3c 8c7b 05bd 9676 ab3d 1f5a 533d
00000090: cfab f03c 7c85 ffbc e147 39bd e751 febc
000000a0: b82c 09bd cf8b 233c f9d6 b23d 1822 373d
000000b0: 3327 173d 0a46 1d3e ca70 b23d ee86 43bd
000000c0: 0fa4 e2bc 5bf0 7c3d b492 04bc 00cc a1b8
000000d0: dd17 a43d 31b9 f3bc 7f23 103c fc8b 0e3d
000000e0: 1843 23bd c7ec 063d af45 8b3c 4e33 c4bc
000000f0: f2e3 b33d a2b2 ae3d a0d8 9ebc f869 e83d
0.04153587 0.06913543 0.09306832 0.039416276 0.04287594 -0.043078154 -0.06367542 0.09893149
0.071024545 -0.008335881 0.04539734 -0.010838229 0.014568064 0.008910334 -0.03823011 -0.0657934
-0.02400884 -0.039618045 0.002135033 -0.051643223 0.08855462 0.026602 -0.037188724 -0.040542834
0.14038496 -0.026741697 -0.03629287 -0.023323057 0.039931282 0.06431015 0.058380447 -0.00879804
0.023003949 -0.032588527 0.08372228 0.051599618 0.0293788 -0.03119158 -0.045234565 -0.031044913
-0.033489913 0.009982063 0.08732409 0.04471025 0.036902618 0.15358749 0.08712919 -0.0477361
-0.02766612 0.06175266 -0.008091617 -7.715076e-05 0.08012364 -0.029751392 0.008797525 0.03480147
-0.039858907 0.032940652 0.017001001 -0.023950245 0.087837115 0.08530165 -0.019390404 0.11348337
