experiments/latent_only/encoder_features_dim_288.pt (torch, 121743 bytes, 8 tensors)

encoder.0.weight f4 [16, 1, 8, 8]
0	0x3dabc764	0.0838764
1	0xbd88cc48	-0.066795886
2	0x3d79847c	0.060917363
3	0xbc046600	-0.008080959
4	0x3debe308	0.11517912
5	0xbd83675c	-0.064161986
6	0xbdf20762	-0.118178144
7	0xbdcd6f50	-0.10030997
8	0x3dc0a30a	0.09406097
9	0xbc3544d0	-0.011063769
10	0x3dd25d2a	0.10271676
11	0xbda28ad6	-0.07936637
12	0xbdc6e8aa	-0.09712346
13	0x3d902f1e	0.07040237
14	0xbde28dc4	-0.11062196
15	0xbd34387c	-0.04399918
16	0xbc7a7ab0	-0.01528804
17	0xbd86ea5e	-0.06587671
18	0x3d6305e0	0.055425525
19	0xbddf1c66	-0.108940884
20	0xbd91d6e6	-0.07121067
21	0x3d91f6a2	0.071271196
22	0xbde5dee6	-0.11224155
23	0x3da79938	0.08183521
24	0x3c986800	0.018604279
25	0x3da2c400	0.0794754
26	0x3ccaa788	0.024738088
27	0x3df50c5c	0.11965248
28	0x3de80c1e	0.11330436
29	0xbdba0d46	-0.09084563
30	0x3cae9058	0.021309063
31	0xbdc961e0	-0.09833121
32	0x3cb8f9c0	0.022580028
33	0xbd3408dc	-0.04395376
34	0x3df01738	0.117231786
35	0xbdaaa5b8	-0.083323896
36	0x3d9e4f36	0.07729952
37	0x3d4cc8dc	0.049996242
38	0x3c2a03d0	0.0103768855
39	0x3cd84cb0	0.026403755
40	0xbd954dbe	-0.07290219
41	0x3c08e610	0.008355632
42	0xbdd3c00e	-0.10339366
43	0xbd858b88	-0.06520754
44	0x3c51d020	0.0128059685
45	0x3db5b998	0.0887329
46	0xbd52b078	-0.051437825
47	0xbdb74c38	-0.089500844
48	0xbc460a50	-0.01208742
49	0xbcee6940	-0.029102921
50	0x3c20b010	0.009807602
51	0x3d04a56c	0.03238432
52	0x3d1c265c	0.03812252
53	0xbdd37a3e	-0.1032605
54	0x3be89a60	0.007098481
55	0x3de9aea2	0.11410262
56	0xbdce7ed0	-0.10082781
57	0x3d4762f4	0.048678353
58	0xbd8522ee	-0.06500803
59	0xbddc7904	-0.107652694
60	0xbd9f27d4	-0.077712685
61	0xbd214dbc	-0.039380774
62	0xbcaeac30	-0.02132234
63	0xbd927fca	-0.0715328
64	0x3c5e577e	0.013570664
65	0x3d82f0f9	0.06393618
66	0x3c759b68	0.014990665
67	0x3ae4c718	0.0017454354
68	0x3d02422a	0.03180138
69	0x3bedd2b5	0.0072577843
70	0xbca8c6e3	-0.02060265
71	0x3dc09ff5	0.094055094
72	0xbe04e573	-0.12978153
73	0xbb438cbc	-0.0029838523
74	0xbd0f0359	-0.034915302
75	0x3d178981	0.03699637
76	0x3d81acf6	0.06331818
77	0xbe1087ee	-0.14114353
78	0x3dc23759	0.09483213
79	0xbc855441	-0.016275527
80	0xbdb2abb3	-0.08724155
81	0x3dddbbee	0.1082686
82	0x3db01149	0.08597047
83	0x3cb505c7	0.022097481
84	0xbd9170d0	-0.071015954
85	0x3d8e5162	0.06949116
86	0x3d9ea5eb	0.0774649
87	0xbd0f1dba	-0.03494046
88	0x3daf8b44	0.08571485
89	0x3c910e43	0.017706996
90	0xbd75ff0e	-0.060057692
91	0xbb96790a	-0.0045920657
92	0xbca3888c	-0.019962572
93	0xbe0380fe	-0.12842175
94	0x3dea76ea	0.11448462
95	0xbd919f0c	-0.07110414
96	0xbbb3e6cb	-0.005490159
97	0xbd045ea8	-0.032316834
98	0x3d9b05b5	0.07569448
99	0xbda1d4bc	-0.07901904
100	0x3dc2149d	0.09476588
101	0x3debec42	0.11519672
102	0xbc598fdd	-0.013278929
103	0xbca2cf20	-0.019874156
104	0xbdea9076	-0.11453335
105	0xbc9d6daa	-0.019217331
106	0xbdec081e	-0.11524986
107	0x3bc95416	0.006144057
108	0xbb80733e	-0.003919988
109	0xbd67b0c4	-0.05656506
110	0xbd93b3e0	-0.07212043
111	0xbde0dc51	-0.10979522
112	0x3d888de2	0.06667687
113	0xbd9c6b2d	-0.0763763
114	0xbd86cfed	-0.065826274
115	0x3d097278	0.03355643
116	0xbd1e6e7d	-0.03867959
117	0xbd364d54	-0.04450734
118	0xbcfe4a98	-0.031041428
119	0x3dc25cd7	0.09490364
120	0x3dc22f99	0.09481735
121	0xbdbcf360	-0.092261076
122	0x3d555855	0.052086193
123	0xbdbc848d	-0.092049696
124	0x3d8b1bd9	0.06792421
125	0x3d326b19	0.043559168
126	0x3d39340b	0.045215648
127	0xbdd3a563	-0.103342794
128	0xbdb57d61	-0.08861805
129	0xbc58f646	-0.01324231
130	0xbc464364	-0.012101028
131	0x3d33c0ba	0.04388497
132	0xbe066b5d	-0.13126893
133	0xbe10bc77	-0.14134394
134	0x3d9015a5	0.07035378
135	0xbcf3957a	-0.029734362
136	0x3c264a03	0.010149482
137	0xbe1c873b	-0.15285961
138	0xbdb8465a	-0.089977935
139	0x3aa665a2	0.0012695084
140	0xbcf3c7ef	-0.029758422
141	0x3ce62afa	0.028096665
142	0x3d80e19d	0.06293032
143	0xbdecf528	-0.11570197
144	0xbd175d5e	-0.036954276
145	0xbdf969b2	-0.12178363
146	0x3d9dae99	0.076993175
147	0xbe135b94	-0.14390403
148	0xbce4e735	-0.02794228
149	0x3db91c24	0.090385705
150	0xbc5de683	-0.013543728
151	0x3d842520	0.064523935
152	0xbdfc910d	-0.12332354
153	0xbd0828cc	-0.033242032
154	0xbcd5e25a	-0.02610891
155	0xbdb73918	-0.08946437
156	0x3d7f1e7d	0.062284935
157	0xbdd32719	-0.10310192
158	0x3dbb039e	0.09131549
159	0x3dada2e9	0.08478338
160	0x3d269a18	0.0406743
161	0x3dc1f9f5	0.09471504
162	0xbd8fe19c	-0.070254534
163	0xbdfe89d7	-0.124286346
164	0xbd94435e	-0.07239412
165	0x3d49face	0.04931145
166	0xbda3e0b6	-0.080018446
167	0x3d30db45	0.04317786
168	0x3d4cfd45	0.050046224
169	0xbdf7ae8a	-0.120938376
170	0xbdcd9b5a	-0.100393966
171	0x3d0a56bf	0.033774134
172	0x3cf05433	0.029337024
173	0xbe008892	-0.12552097
174	0xbc1cfdca	-0.009581992
175	0x3c6673da	0.014065707
176	0xbd9413dc	-0.072303504
177	0xbdf8bcd5	-0.12145392
178	0xbd11537f	-0.03548002
179	0xbdbf436b	-0.09339031
180	0x3db87b14	0.0900785
181	0xbb3143ae	-0.0027048397
182	0x3db666c9	0.089063235
183	0xbdf700b3	-0.1206068
184	0x3d4c389d	0.049858678
185	0xbe16fd93	-0.14745168
186	0x3d0287e5	0.03186788
187	0x3ce38ca3	0.027777022
188	0xbc839092	-0.016060147
189	0xbe01f057	-0.12689339
190	0xbe0f3b15	-0.13987382
191	0x3db7e6d7	0.08979576
192	0xbc99ef44	-0.018790849
193	0x3e744a66	0.23856506
194	0x3e2ab672	0.1667116
195	0xbde0ffbc	-0.109862775
196	0xbe3196b2	-0.17342642
197	0xbc46f6a1	-0.012143762
198	0xbd8859d3	-0.066577576
199	0xbdc18595	-0.09449307
200	0xbdf32c99	-0.11873741
201	0x3e3fdb66	0.18736038
202	0x3e37cba9	0.17948784
203	0xbe5798b6	-0.21054348
204	0xbe829cd9	-0.2551029
205	0x3dd8d63a	0.105877355
206	0x3cf1465a	0.029452492
207	0x3de6bf5e	0.11266969
208	0xbda327c5	-0.0796657
209	0x3ea0e00c	0.31420934
210	0x3df43bc9	0.119254656
211	0xbe8c8b7c	-0.27450168
212	0xbe9bd204	-0.30433667
213	0xbd58f955	-0.052972157
214	0x3e1021f7	0.14075457
215	0xbe011219	-0.1260456
216	0x3a5bc67e	0.00083837647
217	0x3e88cc92	0.26718575
218	0x3e18d664	0.14925534
219	0xbdc87610	-0.09788144
220	0xbdb879c0	-0.09007597
221	0x3dc141dc	0.0943639
222	0xbdb884ca	-0.090097025
223	0xbdfb1bd0	-0.12261164
224	0x3e14be97	0.1452583
225	0x3e504cb0	0.20341754
226	0x3dd7bcf1	0.105340846
227	0xbc9ed5bd	-0.019389028
228	0xbdab45ed	-0.08362947
229	0xbdf8bbe6	-0.12145214
230	0x3d22a3b6	0.03970691
231	0xbe7720f7	-0.24133669
232	0x3daa85c1	0.08326293
233	0x3e7546c2	0.23952773
234	0x3e83c652	0.25737244
235	0x3c5f33f3	0.0136232255
236	0xbcddf3ba	-0.027093757
237	0xbd9c59e9	-0.076343365
238	0xbd00e035	-0.03146382
239	0xbc7e2c68	-0.015513517
240	0x3dd0c8f9	0.101945825
241	0x3e4bbc45	0.19896038
242	0x3e288376	0.16456398
243	0x3d90404d	0.070435144
244	0xbc2b8941	-0.010469736
245	0x3cc42196	0.023941796
246	0x3bd058e4	0.006358253
247	0xbe0684c7	-0.13136588
248	0xbc5043bd	-0.012711463
249	0x3e641fc6	0.22277746
250	0x3e4ed591	0.20198657
251	0x3e108297	0.14112316
252	0x3dc5d475	0.096596636
253	0xbe3672a6	-0.17817172
254	0xbe28c8b5	-0.16482814
255	0xbe045e62	-0.12926629

encoder.0.bias f4 [16]
0	0x3ca823a8	0.020524815
1	0xbdbe4319	-0.092901416
2	0xbd6f96ce	-0.058493428
3	0xbee28c38	-0.44247603
4	0xbf0f49ad	-0.55971795
5	0xbd5fbcfa	-0.05462358
6	0xbd9ca9b5	-0.076495565
7	0xbdec14be	-0.11527394
8	0xbddb2f64	-0.107023984
9	0xbb39e3c0	-0.002836451
10	0xbd622fe0	-0.05522144
11	0xba465d91	-0.0007567043
12	0xbeaad135	-0.33362737
13	0xbd34075a	-0.043952323
14	0xbe070140	-0.1318407
15	0xbe72154e	-0.2364094

encoder.2.weight f4 [16, 16, 8, 8]
0	0xbb9cbda8	-0.004783351
1	0xbc44ae90	-0.01200451
2	0x3a882180	0.001038596
3	0xbbd778d8	-0.006575685
4	0xbca7f184	-0.020500906
5	0xbce8ba0c	-0.028409027
6	0x3ce7d314	0.028298892
7	0x3cffc546	0.031221997
8	0x3c306598	0.010766409
9	0xbc40a2a0	-0.011757523
10	0xbc0720c4	-0.008247558
11	0x3cea963e	0.028636094
12	0xb828bc00	-4.022941e-05
13	0x3ca05f9c	0.01957684
14	0x3be15910	0.006877072
15	0x3c0543b4	0.008133817
16	0x3cfd0132	0.030884359
17	0x3cc270d4	0.023735441
18	0x3c8bdcaa	0.017072994
19	0x3ba6ac58	0.005086463
20	0x3c9469d6	0.018116873
21	0xbc82e13a	-0.015976537
22	0x3cfb9c46	0.030714165
23	0x3cab6dee	0.020926442
24	0x3c12fed0	0.008971885
25	0x3b3bd900	0.0028663278
26	0xbca688c4	-0.020328887
27	0x3cd35a10	0.025799781
28	0x3b9120c8	0.0044289567
29	0xbca25c50	-0.019819409
30	0x3be48b08	0.0069745816
31	0xbcfa7fb2	-0.030578468
32	0x3c04dca8	0.008109249
33	0x39fe7c80	0.00048539415
34	0xbc8ae0e4	-0.01695294
35	0xbc8423e6	-0.016130399
36	0xbcaf602c	-0.021408163
37	0x3c2e282c	0.010629695
38	0xbc930318	-0.017945811
39	0x3c081774	0.008306373
40	0x39b7b800	0.0003504157
41	0xbc31e924	-0.010858808
42	0x3c4e7bb4	0.012602735
43	0xbcd984d4	-0.026552595
44	0x3ccd379e	0.025050934
45	0xbb9e16e0	-0.0048245043
46	0x3c8fce78	0.017554507
47	0x3c935b70	0.017987937
48	0xbb2dcbc0	-0.002651915
49	0x3cb416e8	0.021983579
50	0xbcf754b4	-0.030191757
51	0xbb08ed40	-0.0020893365
52	0x3c403014	0.011730213
53	0x3c018380	0.007904887
54	0x3b2469a0	0.0025087371
55	0xbce3d936	-0.027813535
56	0xbcc3ebde	-0.023916181
57	0x3c15e7c4	0.0091494955
58	0x3c4f97f8	0.0126705095
59	0x3c950f12	0.018195663
60	0x3c8f20ec	0.017471753
61	0x3ca5bb76	0.02023099
62	0xbcfae17a	-0.030625094
63	0xbcdd9a30	-0.027051061
64	0xbd16a0c2	-0.036774404
65	0xbd5184ce	-0.051152043
66	0xbc14e5a3	-0.009087953
67	0xbd78a2e9	-0.06070224
68	0xbd22bdca	-0.03973178
69	0xbd5e7797	-0.05431327
70	0xbc9441f8	-0.018097863
71	0xbc198986	-0.009371167
72	0xbd17b561	-0.03703821
73	0xbc9a6b7c	-0.01885008
74	0xbd431a46	-0.04763248
75	0xbd47671a	-0.04868231
76	0xbd110eeb	-0.035414618
77	0xbcdeb786	-0.02718712
78	0xbd52bdac	-0.051450416
79	0xbd83578a	-0.06413181
80	0xbcc61374	-0.024179198
81	0xbc9d20ce	-0.019180682
82	0xbd3d9c4c	-0.046291634
83	0xbb36f353	-0.0027916029
84	0xbcdaa23f	-0.026688693
85	0xbcc150de	-0.02359813
86	0xbcb6d6dc	-0.02231925
87	0xbd6645d9	-0.056218956
88	0xbd6735b9	-0.05644772
89	0xbce6e4c1	-0.02818525
90	0xbc98191d	-0.018566662
91	0xbd793dee	-0.060850076
92	0xbd3c8357	-0.046023693
93	0xbd260534	-0.040532306
94	0xbd271d70	-0.04079956
95	0xbd340bec	-0.043956682
96	0xbd149021	-0.036270265
97	0xbd1a9b19	-0.03774557
98	0xbcee9f16	-0.029128592
99	0xbd2b9efa	-0.04189966
100	0xbb24bd8f	-0.00251374
101	0xbd487f29	-0.048949394
102	0xbc3b68d3	-0.011438566
103	0xbc009a00	-0.007849216
104	0xbd2f8718	-0.042853445
105	0xbd40ab7a	-0.047038533
106	0xbc9a38d4	-0.018825926
107	0xbd1cb5b7	-0.038259234
108	0x3b25f904	0.0025325427
109	0x3b94c4ad	0.004540047
110	0xbc50b619	-0.012738728
111	0xbd506754	-0.05087979
112	0xbd03077e	-0.031989567
113	0xbd191af9	-0.03737924
114	0xbd51cd66	-0.051221274
115	0xbd45d8eb	-0.048302572
116	0xbd4f382d	-0.050590683
117	0xbbc965c1	-0.006146163
118	0xbd435bc4	-0.047694936
119	0xbcc69182	-0.024239305
120	0xbd1a6db6	-0.037702285
121	0xbb697e60	-0.0035628304
122	0xbc749a1c	-0.014929321
123	0xbd35ed92	-0.044416018
124	0xbd5cb1e2	-0.05388058
125	0x3b2553e3	0.0025227002
126	0xbcb00f7e	-0.021491762
127	0xbd5708da	-0.052498676
128	0x3b4bc010	0.003108982
129	0x3be3cae8	0.0069516785
130	0x3cc84c74	0.024450518
131	0x3ce0a19a	0.027420808
132	0xbc4ed9dc	-0.012625184
133	0xbcb2cc52	-0.021825943
134	0xbcbd65c4	-0.023119815
135	0x3bd8cc38	0.0066161416
136	0x3c45b224	0.012066398
137	0xbbf594e8	-0.0074945576
138	0x3c294408	0.010331161
139	0xbce8412c	-0.028351389
140	0x3caa9650	0.020823628
141	0x3ca8e1d2	0.020615492
142	0x3cd0ff66	0.025512408
143	0xbaf39260	-0.0018583052
144	0x3c6f7908	0.014616258
145	0xbc95241a	-0.018205691
146	0xbc835d0e	-0.016035583
147	0xbcec408a	-0.028839368
148	0x3c824ec2	0.015906695
149	0x3cd95df8	0.026534066
150	0x3ccb271a	0.024798919
151	0x3c31d1c4	0.010853235
152	0x3c2784b4	0.01022451
153	0xbc7f66f8	-0.0155885145
154	0xbcc41940	-0.023937821
155	0xbb5a3bd0	-0.0033299811
156	0x3ca0f758	0.019649193
157	0xbbbcb128	-0.0057584234
158	0x3c9c654e	0.019091275
159	0xbcceb3fc	-0.025232308
160	0xbc53f274	-0.012936223
161	0x3c02914c	0.007969212
162	0x3b90e928	0.0044223256
163	0x3a723ac0	0.0009240322
164	0xbcc3fa10	-0.02392295
165	0x3c089348	0.008335896
166	0x3cb6fe76	0.022338133
167	0xbc90c12c	-0.017670237
168	0xba21d680	-0.00061736256
169	0x3c9c495c	0.01907795
170	0x3b857938	0.0040732883
171	0x3caa10d4	0.020759977
172	0xbc83b546	-0.016077649
173	0x3ca8544e	0.020548012
174	0x3b151f30	0.0022754185
175	0x3b26bd70	0.0025442503
176	0x3b1d5b40	0.0024010688
177	0xbbc12928	-0.005894799
178	0xbbde87f0	-0.0067911074
179	0x3c3c0504	0.011475805
180	0x3baad168	0.0052129515
181	0x3c0626b8	0.008187942
182	0xbc7c1d70	-0.015387878
183	0xbc5f98fc	-0.013647314
184	0x3c10dd9c	0.008841898
185	0x3c901cd6	0.017591875
186	0xbcd27e14	-0.025694884
187	0xbcac244e	-0.021013405
188	0x3afe71c0	0.0019412562
189	0xbc5a7288	-0.01333297
190	0xba7e8f00	-0.000971064
191	0xbb5d0280	-0.0033723414
192	0xbcdb49cf	-0.026768593
193	0xbc544ea9	-0.012958207
194	0xbd37590c	-0.044762656
195	0xbb999772	-0.004687243
196	0xbcb5d283	-0.022195106
197	0xbd35b885	-0.044365425
198	0xbd04f69e	-0.032461755
199	0xbc19468d	-0.0093551995
200	0xbd50d0f4	-0.050980523
201	0xbc51774f	-0.012784793
202	0xbd1d15bc	-0.038350806
203	0xbbfa5f73	-0.007640773
204	0xbd1e0713	-0.038580965
205	0xbd6444c4	-0.055729643
206	0xbb83b08f	-0.00401885
207	0xbcc75fc4	-0.024337657
208	0xbbe31289	-0.0069297
209	0xbcc031c1	-0.023461225
210	0xbd650775	-0.055915315
211	0xbcf8c6fa	-0.030368317
212	0xbcb0255e	-0.021502193
213	0xbd2e7931	-0.042596046
214	0xbc8be9d8	-0.017079279
215	0xbd2b868c	-0.04187636
216	0x3b25dfe5	0.0025310453
217	0xbb60fe96	-0.0034331433
218	0xbc9ab343	-0.018884307
219	0xbc024c2d	-0.007952732
220	0xbd6befa9	-0.057601605
221	0xbb295122	-0.0025835712
222	0xbd61739b	-0.05504189
223	0xbcdd12d2	-0.026986513
224	0xbc431c68	-0.011908628
225	0xbd6a406e	-0.05719035
226	0xbbf67bff	-0.0075221057
227	0xbbc1fbf1	-0.0059199263
228	0xbcbfafce	-0.02339926
229	0xbd22d256	-0.039751373
230	0xbc93c123	-0.01803643
231	0xbd2ebace	-0.04265862
232	0x39253b14	0.00015757635
233	0xbb9fe3df	-0.0048794593
234	0xbbff51b1	-0.007791721
235	0xbd26f3ea	-0.04075996
236	0xbd60f395	-0.054919798
237	0xbd0dfb60	-0.034663558
238	0xbbd82b8b	-0.0065969876
239	0xbd3d78d2	-0.0462578
240	0xbbdd9bc9	-0.006762956
241	0xbc2330f1	-0.009960399
242	0xbc921c32	-0.01783571
243	0xbcfaa060	-0.03059405
244	0xbcbabb35	-0.022794345
245	0xbce23ac6	-0.027615916
246	0xbbffeab5	-0.0078099617
247	0xbc183048	-0.009288855
248	0xbd3b7b9c	-0.04577218
249	0x37be6bdc	2.2699991e-05
250	0xbd44bdca	-0.04803256
251	0xb964dac1	-0.00021825267
252	0xbccf6987	-0.025318874
253	0xbca75f30	-0.020431131
254	0xbacdac14	-0.0015691542
255	0xbcf74adc	-0.030187063

encoder.2.bias f4 [16]
0	0xbc8f8d74	-0.017523505
1	0x3b94857d	0.0045325146
2	0xbd3aa302	-0.045565613
3	0xbced38ba	-0.028957713
4	0x3dedf914	0.116197735
5	0xbce108bf	-0.02746999
6	0xbd800cb5	-0.06252424
7	0x3cd07691	0.025447162
8	0xbced584c	-0.028972767
9	0xbce8d818	-0.028423354
10	0xbd3a8751	-0.045539204
11	0xbc4be10f	-0.012443795
12	0x3c68f624	0.014218841
13	0xbd2c4353	-0.042056393
14	0xbce71837	-0.028209789
15	0xbcbad6e5	-0.022807548

encoder.4.weight f4 [32, 16, 4, 4]
0	0xbbefd670	-0.007319264
1	0xbc39c3f0	-0.011338219
2	0xbd371a50	-0.044702828
3	0x3c54d810	0.012990966
4	0x3c4ab1f8	0.012371533
5	0xbcf2c844	-0.02963651
6	0x3d5a29fc	0.053262696
7	0x3d7c42f4	0.06158729
8	0x3bdb3e60	0.0066907853
9	0xbcd13078	-0.025535807
10	0xbd7906ea	-0.06079761
11	0xbc638758	-0.013887249
12	0xbd6b7960	-0.0574888
13	0x3d36ca10	0.044626296
14	0x3d41ea1e	0.047342412
15	0x3c99e62c	0.018786512
16	0x3c4245ce	0.011857463
17	0x3c24e448	0.010064192
18	0xbb31b813	-0.0027117773
19	0xbd04ac9e	-0.032391183
20	0x3cacc404	0.021089561
21	0xbce5a38a	-0.028032083
22	0x3d1c0657	0.038091984
23	0x3b928379	0.004471239
24	0xbd7d9c59	-0.061916683
25	0xbd57b208	-0.05266002
26	0xbcf9e09f	-0.030502615
27	0xbd71386e	-0.058891706
28	0xbc2625f7	-0.010140887
29	0xbd5ae501	-0.05344105
30	0xbcc4f85b	-0.024044206
31	0xbd84529e	-0.064610705
32	0xbb9b77c0	-0.0047445
33	0xbd7ab3d3	-0.06120665
34	0x3bab9a37	0.0052368897
35	0xb9dc310e	-0.00041998219
36	0x3c90c66b	0.017672738
37	0xbd2388a5	-0.039925236
38	0xbd6adaf7	-0.057337727
39	0xbd8801dd	-0.066409804
40	0x3cea34e2	0.02858967
41	0x3d413508	0.047169715
42	0x3d0971cc	0.03355579
43	0x3c6a9a40	0.014319003
44	0xbd7b8a26	-0.061411045
45	0xbd60219f	-0.054719564
46	0xbce30096	-0.02771024
47	0x3b503a65	0.0031773087
48	0x3d6b16ea	0.0573949
49	0xbd548377	-0.051883187
50	0xbc454044	-0.012039248
51	0x3ce35e16	0.027754825
52	0x3bbf58a4	0.005839424
53	0x3c230e4d	0.00995214
54	0xbd85ed27	-0.06539374
55	0xbd7457ee	-0.05965417
56	0xbd33a995	-0.043862898
57	0xbd77ea78	-0.06052634
58	0xb9ca48e4	-0.0003858275
59	0xbd3655f0	-0.04451555
60	0x3c8fc228	0.017548636
61	0x3cfc7154	0.030815758
62	0x3d3c1b8d	0.045924712
63	0x3cdb4acf	0.02676907
64	0xba8b0201	-0.0010605456
65	0xbcf8dba7	-0.030378176
66	0xbc9f80f9	-0.019470679
67	0x3c949bb3	0.01814065
68	0xbd571e0d	-0.052518893
69	0x3c87d69d	0.016581828
70	0xbc4fb81d	-0.012678173
71	0xbd0efbc7	-0.034908082
72	0xbbc3f616	-0.0059802635
73	0xbcbb986e	-0.022899833
74	0xbccb57d7	-0.024822159
75	0x3b3261df	0.002721898
76	0x3c088f44	0.008334938
77	0xbd904fa0	-0.07046437
78	0xbd1ee27a	-0.038790204
79	0xbdb1c311	-0.08679784
80	0xbd6e02a4	-0.058107987
81	0x3c000ec8	0.007816024
82	0x3d0187d6	0.031623684
83	0x3c8f0768	0.017459586
84	0xbcaf29e0	-0.021382272
85	0x3cd8241c	0.026384406
86	0x3c0fc0e0	0.008774012
87	0x3d18d3cc	0.03731136
88	0x3d5d3e84	0.054014698
89	0x3b4b7a80	0.0031048357
90	0xbd53dd5c	-0.051724777
91	0x3a1dc700	0.0006018728
92	0xbc1a0f28	-0.009403028
93	0xbd0d60be	-0.03451609
94	0x3cc53a30	0.024075598
95	0xbd780e10	-0.060560286
96	0x3d2a1bd6	0.041530453
97	0x3c3d530d	0.011555445
98	0xbca541bf	-0.020172952
99	0xbd4c6246	-0.04989841
100	0x3c745fe8	0.014915444
101	0xbcc76521	-0.024340214
102	0xbd0dea25	-0.034647126
103	0x3cc8849c	0.024477296
104	0xbcd5af90	-0.026084691
105	0x3b5b0680	0.0033420622
106	0x3d67361c	0.056448087
107	0xbb590ee0	-0.0033120438
108	0x3bed4836	0.007241274
109	0x3d157a2c	0.036493465
110	0xbc431088	-0.011905797
111	0x3cff7bd8	0.031186983
112	0xbccbcc11	-0.02487758
113	0xbda18384	-0.07886413
114	0xbd2d4dbf	-0.042310473
115	0xbb6bda95	-0.003598844
116	0x3c97dfab	0.01853927
117	0xbd9e8561	-0.07740284
118	0xbd8a9a4e	-0.067677125
119	0xbb9f20d3	-0.004856208
120	0xbd9151ff	-0.07095718
121	0xbd8f2896	-0.06990163
122	0x3d02c4f4	0.03192611
123	0xbb75a317	-0.0037481242
124	0xba9cb51b	-0.0011955829
125	0xbd1c7a23	-0.038202416
126	0xbb80720b	-0.003919845
127	0xbd462a8d	-0.048380423
128	0xbd45c13f	-0.048279997
129	0x3d061331	0.032733146
130	0x3c4a7b2d	0.012358469
131	0x3b454546	0.0030101105
132	0x3c26a90c	0.01017214
133	0xb73a35ec	-1.1099019e-05
134	0x3d49b76e	0.049247198
135	0xbd213607	-0.039358165
136	0xba3fd23a	-0.0007317398
137	0x3d38c824	0.045112744
138	0x3c14bf29	0.009078779
139	0xbc8c5dc9	-0.017134564
140	0xbcfc07af	-0.030765383
141	0x3cae8df6	0.021307927
142	0xbd88bab1	-0.066762336
143	0xbc3b80db	-0.011444296
144	0x3ab1e9ff	0.0013573765
145	0x3d468321	0.048464898
146	0xbc3c382f	-0.011488005
147	0x3c33f36a	0.010983327
148	0xbbd4c51e	-0.0064932248
149	0xbd54f093	-0.051987242
150	0xbc610ae9	-0.013735511
151	0x3c7654fb	0.015034909
152	0xbd375744	-0.044760957
153	0xbc1b4635	-0.009477188
154	0x3d4aa323	0.049471986
155	0x3d4e1e84	0.05032207
156	0xbd19e5fe	-0.037572853
157	0x3a524074	0.00080204685
158	0x3d0a6d42	0.033795603
159	0x3d2a9c13	0.04165275
160	0x3c405181	0.011738182
161	0xbccec403	-0.02523995
162	0xbd10a59d	-0.03531419
163	0xbd84aaff	-0.064779274
164	0x3d35429e	0.044252984
165	0xbcbf4699	-0.023349093
166	0x3c4bdfba	0.012443477
167	0xbd41cd87	-0.047315147
168	0x3c422d66	0.011851644
169	0xbd4abdda	-0.049497463
170	0x3cdf0c72	0.027227614
171	0xbd565414	-0.052326277
172	0x3d13ee8e	0.036116175
173	0xbd5afbd5	-0.053462822
174	0xbd3d4080	-0.04620409
175	0x3d64096c	0.055673048
176	0xbbd2f220	-0.006437555
177	0xbd3b54f0	-0.0457353
178	0x3cd82368	0.02638407
179	0x3d523cda	0.051327564
180	0xbd74b00c	-0.059738204
181	0x3d24def0	0.040251672
182	0x3d5d9ff2	0.054107614
183	0xbc2a2a38	-0.010386042
184	0x3bcb0550	0.0061957017
185	0x3d1d4a28	0.0384008
186	0xbce10050	-0.02746597
187	0xbc99252c	-0.018694483
188	0x3d696626	0.056982182
189	0xbc850988	-0.016239896
190	0x3cfc3ee8	0.030791715
191	0xbd11db34	-0.03560944
192	0xbd29e146	-0.041474603
193	0xbccd321a	-0.025048304
194	0xbbf40a9c	-0.007447554
195	0x3c0a5d3c	0.00844508
196	0xbbfb1e78	-0.0076635443
197	0xbd810a6b	-0.06300815
198	0xbd96bbba	-0.07360025
199	0xbc4eaf4d	-0.012615037
200	0xbc018640	-0.007905543
201	0xbd2dd2ea	-0.04243747
202	0xbca07849	-0.019588606
203	0xbd2342b3	-0.03985853
204	0xbcd5dcaa	-0.026106197
205	0x3d15ac8a	0.0365415
206	0xbacb9f83	-0.0015535209
207	0x3d51ac72	0.051189847
208	0xbd387f64	-0.045043364
209	0xbd235222	-0.03987325
210	0xbc425fc0	-0.011863649
211	0x3ce43d0c	0.02786114
212	0x3bb899e0	0.0056335777
213	0x3bfd8090	0.007736273
214	0x3ca4a3e4	0.02009768
215	0x3c9288e0	0.017887533
216	0x39c46f00	0.00037466735
217	0x3cec3f80	0.028838873
218	0xbd5e63a0	-0.05429423
219	0xbd57b592	-0.052663393
220	0xbbaef8c0	-0.005339712
221	0xbd1d1aca	-0.038355626
222	0xbd1196b2	-0.035544105
223	0x3d7e3018	0.062057585
224	0xba95a36a	-0.0011416499
225	0xbce34a16	-0.027745288
226	0x3b0f73ce	0.0021889093
227	0x3cde2866	0.027118873
228	0x3ac3c796	0.00149368
229	0x3d4155da	0.047201015
230	0xbc99027b	-0.01867794
231	0xbd6799ab	-0.056543034
232	0xbd2ff7b7	-0.04296085
233	0xbca74e65	-0.020423124
234	0xbd4978b7	-0.04918739
235	0xb938b8e4	-0.00017616485
236	0xbc89216f	-0.016739575
237	0xbbdcd212	-0.0067389095
238	0xbcedefb3	-0.029044962
239	0x3c3481a9	0.0110172415
240	0xbc85ce25	-0.016333649
241	0x3cc24238	0.023713216
242	0x3c8d604d	0.017257834
243	0x3bc8c43d	0.006126909
244	0x3c0ea307	0.008705861
245	0xbd44fce9	-0.048092756
246	0xbc828d4b	-0.015936514
247	0xbb55c7e9	-0.0032620376
248	0xbca9a3f7	-0.020708067
249	0x3b1993a0	0.0023433939
250	0x3cb4c210	0.022065192
251	0x3d114729	0.035468254
252	0xbd62290f	-0.055214938
253	0x3ca50261	0.020142736
254	0x3c416d6a	0.0118058715
255	0x3b685bc2	0.0035455083

encoder.4.bias f4 [32]
0	0xbd0e9045	-0.034805555
1	0xbd702457	-0.058628406
2	0xbb83affb	-0.0040187812
3	0x3a9a14ef	0.0011755506
4	0xbd8698a2	-0.06572081
5	0xbd0e9b83	-0.034816276
6	0x3e428ae6	0.18998298
7	0xbd19411b	-0.037415605
8	0xbd86b33e	-0.065771565
9	0x3db80971	0.08986176
10	0x3d83b54c	0.06431064
11	0x3dadaca9	0.08480198
12	0xbd1575ef	-0.036489423
13	0x3d80ce0a	0.06289299
14	0xbd6ed874	-0.058311895
15	0x3dd1c17b	0.102419816
16	0x3c6914a6	0.014226114
17	0x3e0d5f27	0.13805829
18	0x3d571919	0.05251417
19	0xbdafc6f0	-0.08582866
20	0xbb3c569b	-0.0028738144
21	0x3dac068b	0.083996855
22	0xbd7dffcc	-0.062011525
23	0xbcc99f90	-0.024612218
24	0xbd52269a	-0.051306345
25	0xbd81638f	-0.063178174
26	0x3e0f22bc	0.13978094
27	0xbd09b33f	-0.033618208
28	0xbcc51e8f	-0.024062423
29	0xbb82d63f	-0.0039928253
30	0x3e1bafee	0.1520383
31	0x3d22b67d	0.039724816

encoder.6.weight f4 [32, 32, 2, 2]
0	0x3c8e1d5b	0.017347982
1	0xbd837f19	-0.06420726
2	0xbd6bdf5e	-0.057586066
3	0xbcd0b879	-0.025478588
4	0x3cc152fc	0.02359914
5	0xbcdeef21	-0.027213635
6	0x3d926566	0.071482465
7	0x3c57c481	0.013169409
8	0x3d3336b1	0.04375333
9	0xbc2dcf66	-0.01060853
10	0xbd84368c	-0.064557165
11	0x3d2b9bde	0.041896693
12	0xbd2b1fa0	-0.041778207
13	0xbc5ed7dc	-0.01360127
14	0xbd3fa3ec	-0.046787187
15	0xbc6122a2	-0.013741167
16	0x3d1fc54c	0.039006516
17	0x3d5840dc	0.05279623
18	0xbd710123	-0.058838975
19	0xbd916ea4	-0.07101181
20	0x3d1664ee	0.036717348
21	0x3dddf1fd	0.10837171
22	0xbb1363b1	-0.002248984
23	0x3d7313b8	0.059344977
24	0x3d15cf72	0.03657479
25	0xbed5b22b	-0.41737494
26	0x3e2c52ec	0.16828507
27	0x3dfff5bc	0.12498042
28	0x3d8588b8	0.06520218
29	0xbd4df180	-0.05027914
30	0xbd61f94d	-0.055169392
31	0xbc8e8c5d	-0.017400915
32	0x3d8ef207	0.06979757
33	0x3d8fb55e	0.07017015
34	0x3d7bc307	0.06146529
35	0x3dab7787	0.083724074
36	0x3e054df4	0.13018018
37	0xbcfea74e	-0.031085636
38	0xbe7f9dc6	-0.2496253
39	0x3da467a4	0.080275804
40	0xbc11aa39	-0.008890682
41	0xbbbe9749	-0.0058163744
42	0x3c8a3d70	0.016874999
43	0x3c918a84	0.017766245
44	0x3e0df071	0.13861252
45	0xbb8b773d	-0.0042561577
46	0xbd7d0dc0	-0.06178069
47	0x3c8360ba	0.016037334
48	0xbb89ecac	-0.0042091217
49	0xbd878b47	-0.06618362
50	0xbd147c4e	-0.03625136
51	0xbd0caa63	-0.03434218
52	0xbd951aed	-0.07280526
53	0x3d423b92	0.047420092
54	0x3d9ba4f2	0.0759982
55	0x3dc53c0b	0.09630593
56	0x3cac7ea2	0.021056477
57	0x3c7fb712	0.015607612
58	0xbc8580b7	-0.016296728
59	0x3da91954	0.08256784
60	0x3e0bf65a	0.13668194
61	0x3e5a3eb8	0.21312988
62	0x3d1ccc65	0.038280863
63	0xbe0739af	-0.13205598
64	0x3caa6fd2	0.020805273
65	0xbdd1d755	-0.102461495
66	0x3c470a90	0.012148514
67	0x3c98fbb5	0.01867471
68	0x3cbed5e0	0.023295343
69	0xbc663cdb	-0.014052595
70	0x3d2236a0	0.039602876
71	0x3e675d1e	0.22594115
72	0x3d9e3851	0.07725585
73	0x3ddc9824	0.10771206
74	0xbe436020	-0.19079638
75	0xbe6f612f	-0.23376916
76	0xbd6ce6c5	-0.057837266
77	0x3cbd7c8a	0.023130674
78	0xbca20983	-0.019779926
79	0xbcf4474f	-0.029819159
80	0x3c448145	0.011993711
81	0x3bcfd48e	0.006342477
82	0x3d8c588a	0.06852825
83	0x3d2264a8	0.039646775
84	0x3e1a0544	0.15041071
85	0xbe5a4e86	-0.21319017
86	0x3cb890f8	0.022530064
87	0xbe5b6336	-0.21424565
88	0x3cf3cd4f	0.029760985
89	0xbcbf279a	-0.023334313
90	0x3d6d015d	0.05786263
91	0xbcded7ff	-0.027202604
92	0xbd53d1af	-0.05171364
93	0x3d116f7c	0.03550671
94	0xbd0eb359	-0.034839008
95	0xbc6bd4b9	-0.014393979
96	0x3dba4e30	0.09096944
97	0x3c65b01f	0.014019041
98	0x3dbf6a32	0.09346427
99	0x3a5c5eb2	0.00084064447
100	0x3da20216	0.07910554
101	0x3d1505ae	0.03638237
102	0xbc89152d	-0.01673373
103	0x3d0eabea	0.03483192
104	0xbf3f3a42	-0.7469827
105	0xbdf52a6c	-0.11970982
106	0xbe131754	-0.14364368
107	0xbe19b290	-0.15009522
108	0xbd10a2f8	-0.03531167
109	0xbcbaf123	-0.022820061
110	0x3d9deb0f	0.077108495
111	0x3db08f72	0.0862111
112	0xbd696b64	-0.05698718
113	0xbb791aa2	-0.003801026
114	0x3d1ca0a1	0.038239125
115	0xbcbbd54b	-0.022928854
116	0x3cf8f47c	0.030390017
117	0xbc89332e	-0.016748037
118	0x3d932fd7	0.07186859
119	0x3d39e7aa	0.045386948
120	0x3da9cdeb	0.08291229
121	0x3e28968e	0.16463682
122	0xbc381cf6	-0.011237374
123	0xbebb8d29	-0.36631134
124	0xbc25d2f7	-0.010121099
125	0xbc931f85	-0.017959366
126	0x3c66549b	0.014058257
127	0xbd00091b	-0.031258684
128	0x3c334d32	0.010943698
129	0xbc83f853	-0.016109621
130	0x3d023332	0.031787105
131	0x3bb309a0	0.005463794
132	0xbd8e7a7e	-0.06956957
133	0xbd1bd666	-0.038046263
134	0xbd6009ff	-0.054697033
135	0xbb8b9e2b	-0.0042607985
136	0x3d6b2dde	0.05741679
137	0x3ceb9fd8	0.028762743
138	0xbd7849ee	-0.06061738
139	0xbd3a4a22	-0.045480855
140	0x3d52e9f3	0.051492643
141	0xbd585a78	-0.052820653
142	0xbdaf961f	-0.08573555
143	0xbc03033b	-0.007996376
144	0xbda5438e	-0.08069526
145	0x3d91421b	0.07092687
146	0xbd5dc236	-0.054140292
147	0xbd5a64e3	-0.05331887
148	0xbda8b601	-0.082378395
149	0x3ddb50b1	0.1070875
150	0xbdce4dd4	-0.10073438
151	0x3d156506	0.036473297
152	0x3916675e	0.00014343622
153	0x3e8b693c	0.27228725
154	0x3e3df98c	0.18552226
155	0xbe280da3	-0.16411452
156	0x3d23dc60	0.040005088
157	0x3d9b007c	0.07568452
158	0x3bfb184a	0.0076628076
159	0x3cdc5444	0.02689565
160	0x3d5dea2e	0.05417841
161	0x3d908962	0.07057454
162	0xbd0d1e98	-0.034453005
163	0xbbd872a3	-0.0066054626
164	0x3e39d44e	0.18147394
165	0xbe20264d	-0.1563961
166	0x3d86fce6	0.06591205
167	0xbde0b06d	-0.109711505
168	0xbd994be8	-0.07485181
169	0xbc68f0e5	-0.01421759
170	0x3d02e9c6	0.031961225
171	0x3d9139c2	0.070910946
172	0x3d0a9a59	0.033838604
173	0xbd4ad3c5	-0.049518365
174	0xbe05c72e	-0.13064262
175	0x3de6adbc	0.11263606
176	0xbc574388	-0.013138659
177	0x3da5c6dc	0.0809457
178	0x3b95276a	0.0045518177
179	0xbc447256	-0.01199015
180	0x3e9f592a	0.31122714
181	0x3d678bed	0.056529928
182	0xbdfc3501	-0.12314797
183	0x3de9489e	0.11390804
184	0xbc995e2b	-0.01872166
185	0x3bef58a6	0.007304269
186	0x3d775cf2	0.060391374
187	0x3ca4cab2	0.020116184
188	0x3ea39294	0.31947768
189	0xbdd20875	-0.10255519
190	0xbe5f5dce	-0.21813127
191	0x3da6227b	0.081120454
192	0x3cb7bb04	0.022428043
193	0x3c8eb011	0.01741794
194	0x3d1fdb17	0.0390273
195	0xbcb6ed3a	-0.022329915
196	0x3e090d21	0.13383915
197	0x3dd79026	0.10525541
198	0xbe5964c0	-0.2122984
199	0xbf0130e0	-0.504652
200	0xbe4cca0f	-0.19998954
201	0x3e6c10e0	0.23053312
202	0x3d862f84	0.06552032
203	0x3d99bae3	0.07506349
204	0xbda6f419	-0.08152027
205	0xbcc5372b	-0.024074158
206	0x3d3daab6	0.04630538
207	0x3cd0ccb4	0.025488235
208	0x3d88c8be	0.066789135
209	0xbd9e417d	-0.07727335
210	0xbcf3c7f0	-0.029758424
211	0x3bfb4700	0.007668376
212	0x3e612931	0.2198837
213	0xbe9bcaa2	-0.30428034
214	0x3d0a6a63	0.033792865
215	0xba88f23e	-0.001044817
216	0xbccfc6ac	-0.025363289
217	0x3d27e75d	0.04099213
218	0xbd133628	-0.03594032
219	0x3d9342da	0.07190485
220	0x3cae101f	0.021247922
221	0x3cd7c600	0.026339531
222	0x3d223333	0.03959961
223	0xbd9ba943	-0.076006435
224	0xbc9c01a0	-0.019043744
225	0x3da04183	0.07824995
226	0xbd91855a	-0.07105513
227	0xbd383602	-0.04497338
228	0x37fce12f	3.01456e-05
229	0x3bd9edf4	0.0066506807
230	0x3b62e1df	0.0034619493
231	0x3d102966	0.03519573
232	0xbf0de115	-0.5542157
233	0x3d959add	0.073049285
234	0x3e142623	0.14467673
235	0x3cedbf19	0.029021787
236	0xbd7dbf97	-0.061950292
237	0xbc8e5472	-0.017374251
238	0x3ca7f0e8	0.020500615
239	0x3d7c7062	0.061630614
240	0x3ce7d7ba	0.028301109
241	0x3d9de61d	0.07709906
242	0x3db24a97	0.08705633
243	0x3c80f5dd	0.015742237
244	0xbbcf935f	-0.0063347067
245	0xbc79045b	-0.015198792
246	0xbbdf9187	-0.006822768
247	0x3d0e46f1	0.034735624
248	0xbce39f3e	-0.027785894
249	0x3dbe47f6	0.09291069
250	0x3d2bc67b	0.041937333
251	0xbae4ed81	-0.0017465801
252	0x3d7e322f	0.062059578
253	0x3d184141	0.037171606
254	0x3d86c26d	0.065800525
255	0xbd95cee6	-0.07314853

encoder.6.bias f4 [32]
0	0x3ea8bb7c	0.3295554
1	0x3e18b404	0.1491242
2	0x3d99085c	0.074722975
3	0xbe040c75	-0.12895377
4	0xbd09f6af	-0.03368252
5	0x3daab600	0.08335495
6	0xbdc3464b	-0.09534892
7	0xbde5bcce	-0.11217652
8	0xbd8d7a53	-0.06908097
9	0xbd4bf95b	-0.04979835
10	0x3cb6ca50	0.022313267
11	0xbdea02fa	-0.11426349
12	0x3ed73de2	0.420394
13	0xbd29f7a9	-0.041495953
14	0x3e952076	0.29126328
15	0xbd248530	-0.04016608
16	0x3dd6e6e1	0.104932554
17	0x3d22012d	0.039551903
18	0xbdaa6923	-0.083208345
19	0xbdac084f	-0.08400022
20	0xbc164171	-0.009170876
21	0x3e6b792f	0.22995447
22	0x3db84157	0.089968376
23	0x3dcd4805	0.10023502
24	0xbdbe7ffa	-0.09301753
25	0xbd4dec3e	-0.050274126
26	0x3c876e50	0.016532093
27	0x3cddaaf5	0.027059058
28	0xbc9140a0	-0.01773101
29	0xbd704b36	-0.058665477
30	0x3e8e4751	0.27788785
31	0xbd91be2c	-0.071163505
